esame/models_100epochs/experiment_12_ws16.pth (torch, 6277 bytes, 11 tensors)

q_lstm.clayer_in.weight f4 [4, 5]
0	0xbe97ac40	-0.29623604
1	0xbe98599c	-0.29755867
2	0x3efe2e94	0.4964491
3	0x3f03b250	0.5144396
4	0xbdd9f3d5	-0.106422104
5	0xbc04777c	-0.008085128
6	0x3e0dd6bb	0.13851444
7	0xbdd1abac	-0.10237822
8	0xbe836cdd	-0.25668994
9	0xbed7426a	-0.42042857
10	0xbdcc2c07	-0.09969335
11	0x3dd0fa55	0.10203997
12	0xbdb60b49	-0.08888871
13	0xbdf840be	-0.121217236
14	0xbf0eaa0d	-0.55728227
15	0x3e7e07f5	0.24807723
16	0xbed128d1	-0.40851453
17	0x3d1a3c64	0.03765525
18	0x3f0fc1e2	0.56155217
19	0x3dba7238	0.09103817

q_lstm.clayer_in.bias f4 [4]
0	0xbe8fe225	-0.28102222
1	0x3e028206	0.12744913
2	0xbe9d20cb	-0.30689082
3	0x3f14ad82	0.5807725

q_lstm.clayer_out.weight f4 [4, 4]
0	0xbd8c6800	-0.06855774
1	0xbe80302a	-0.25036746
2	0x3e233ea1	0.1594186
3	0x3dd17a6c	0.10228428
4	0x3e9c0f15	0.30480257
5	0xbea27e49	-0.31736973
6	0x3e825ed9	0.25462988
7	0x3e809a82	0.2511788
8	0x3f095a48	0.53653383
9	0x3e2842b9	0.16431703
10	0x3e8282d6	0.25490445
11	0xbe50093f	-0.20316027
12	0x3d113627	0.035452034
13	0xbe6e2afb	-0.23258583
14	0x3e6c34a7	0.2306696
15	0x3e99bfee	0.30029243

q_lstm.clayer_out.bias f4 [4]
0	0xbe579584	-0.2105313
1	0xbea18530	-0.31546926
2	0x3e9ce775	0.30645338
3	0x3d87415a	0.06604262

attention.mha.in_proj_weight f4 [24, 8]
0	0xbcff5c63	-0.031171983
1	0xbed9b415	-0.42520204
2	0x3d91f56c	0.07126889
3	0x3e82f246	0.25575465
4	0x3eda40f8	0.42627692
5	0x3e86c47f	0.2632179
6	0xbe6ef556	-0.23335776
7	0xbe10a003	-0.1412354
8	0x3dadc6c7	0.084851794
9	0x3e99b082	0.30017477
10	0x3efa5452	0.48892456
11	0x3e96ad54	0.29429114
12	0x3f06a472	0.52594674
13	0xbe79315a	-0.24335232
14	0xbda88111	-0.082277425
15	0xbe7ce9c9	-0.24698557
16	0xbe14013b	-0.14453594
17	0xbe2cbb1f	-0.16868256
18	0xbf031dca	-0.5121733
19	0x3926ca58	0.00015906373
20	0xbc157fe4	-0.00912473
21	0x3e9278a3	0.28607664
22	0x3e49086a	0.19632116
23	0xbee96e08	-0.4559176
24	0xbc68e89e	-0.0142156165
25	0x3ee988d5	0.45612207
26	0xbefc6875	-0.49298444
27	0x3e40ae1e	0.1881642
28	0x3cbbe1e8	0.022934869
29	0xbe9b2993	-0.30305156
30	0x3cdc16f5	0.026866416
31	0xbde97e2a	-0.11401017
32	0xbd5147a0	-0.051093698
33	0xbe85eca4	-0.26157105
34	0x3ea8830b	0.32912478
35	0x3ef18e9c	0.47179115
36	0x3edebb45	0.4350225
37	0xbdde1bd7	-0.10845154
38	0xbe96ecba	-0.29477483
39	0x3f0bc6c9	0.546002
40	0xbc868fcd	-0.016425991
41	0x3e7adc79	0.24498166
42	0x3e950930	0.29108572
43	0x3e125222	0.14289144
44	0x3ebbc00e	0.36669964
45	0x3dea0dde	0.11428426
46	0x3db3e3a6	0.08783655
47	0x3e3aa182	0.18225673
48	0x3d9a0a11	0.07521451
49	0x3ecbe32b	0.39821753
50	0x3dd7e7f3	0.10542288
51	0xbe318f07	-0.17339717
52	0x3e9e9fe6	0.30981368
53	0x3ee869f3	0.45393333
54	0x3e9d8977	0.3076894
55	0xbd45461e	-0.048162572
56	0x3e26d75b	0.16293089
57	0xbdb144a1	-0.08655668
58	0x3e36e805	0.17861946
59	0xbee40335	-0.44533697
60	0xbf02079b	-0.50792855
61	0x3e7b2113	0.24524336
62	0xbec2ac12	-0.38021904
63	0x3cc8a808	0.024494186
64	0xbe85dbf8	-0.26144385
65	0xbd81760a	-0.06321342
66	0xbdefc732	-0.11707915
67	0x3ed19cf1	0.4094005
68	0xbee92fb4	-0.45544207
69	0x3c88d52c	0.01670321
70	0xbded8ff1	-0.1159972
71	0xbf0b0745	-0.5430797
72	0x3e613b96	0.21995386
73	0xbced3e76	-0.028960448
74	0xbe6d601d	-0.23181196
75	0xbea296b0	-0.3175559
76	0x3d68d5df	0.05684459
77	0x3e7bca8f	0.24588989
78	0xbe5373d5	-0.20649655
79	0xbe77c5a3	-0.24196486
80	0xbe6e5105	-0.23273094
81	0x3ede26fe	0.43389124
82	0xbe99ed99	-0.30064085
83	0xbead5a22	-0.33857828
84	0x3e878443	0.26468095
85	0x3ef25da2	0.4733706
86	0x3ea4777c	0.3212241
87	0x3e65b604	0.22432715
88	0x3f00bc24	0.5028708
89	0x3e10213a	0.14075175
90	0xbd63d4ec	-0.05562298
91	0xbe1b5526	-0.151692
92	0xbe145f7b	-0.14489548
93	0x3dda2fc3	0.10653641
94	0xbde09794	-0.10966411
95	0x3ecb604f	0.39721915
96	0xbed9e9b0	-0.42561102
97	0xbef7d00e	-0.4840092
98	0x3d3334e4	0.043751612
99	0x3ee7145a	0.45132715
100	0xbee352a0	-0.44398975
101	0xbe812fa6	-0.25231665
102	0xbe077dbf	-0.13231562
103	0xbea9dda2	-0.33176905
104	0x3d9c7dea	0.07641204
105	0x3e7df1bd	0.24799247
106	0x3eb9ca3a	0.362871
107	0x3d192c5f	0.03739583
108	0xbeece624	-0.46269333
109	0xbeeca52a	-0.4621976
110	0xbe4d9bde	-0.2007899
111	0xbe8d7c27	-0.27633783
112	0xbedff69f	-0.43742844
113	0xbb777169	-0.0037756807
114	0xbd605cfd	-0.05477618
115	0x3e701bee	0.23448154
116	0xbe9fb213	-0.31190547
117	0xbdfc29b7	-0.12312644
118	0xbe10e491	-0.14149691
119	0x3e4a6ee2	0.19768861
120	0xbe89eb52	-0.26937348
121	0xbd3ecf97	-0.04658469
122	0xbd086a65	-0.03330459
123	0xbe7984b0	-0.24367023
124	0x3def48c4	0.11683801
125	0x3ecd5520	0.40104008
126	0x3e05fdfb	0.13085167
127	0x3e2de20b	0.1698076
128	0x3e425a1c	0.18979686
129	0xbe2bcd84	-0.16777617
130	0xbe71676a	-0.23574606
131	0x3e1268d5	0.14297803
132	0x3d04e382	0.03244353
133	0x3e8ef332	0.27919918
134	0xbd5ef620	-0.05443394
135	0x3f006069	0.5014711
136	0x3e671a9f	0.22568749
137	0xbe21d810	-0.15805078
138	0xbe43efbe	-0.19134423
139	0x3dfee6b7	0.12446349
140	0xbe8a5e8a	-0.27025253
141	0xbdcad8f1	-0.099046595
142	0x3e5695fa	0.20955649
143	0x3e18d43b	0.1492471
144	0x3e871763	0.2638503
145	0xbde0ade8	-0.1097067
146	0x3e985fe2	0.29760653
147	0xbe9e4ace	-0.30916446
148	0xbe99cba7	-0.30038187
149	0x3e473c40	0.19456577
150	0xbe2c144b	-0.16804616
151	0x3d3b6bbf	0.04575705
152	0xbd21f9e8	-0.03954497
153	0xbe8a0b0e	-0.2696156
154	0xbd659557	-0.056050625
155	0x3e24a084	0.16076857
156	0x3eb7c899	0.3589523
157	0x3eb2ab08	0.3489611
158	0x3d1bc1c1	0.038026575
159	0x3edcedf1	0.43150285
160	0x3e0e0c61	0.1387191
161	0x3d117cbb	0.035519343
162	0xbbc9d337	-0.006159212
163	0xbd78358f	-0.060597952
164	0x3d4ac71a	0.049506284
165	0xbde91d3b	-0.113825284
166	0x3e5e792b	0.2172591
167	0xbe2b80fc	-0.16748422
168	0xbe761e8a	-0.24035087
169	0x3dfe2b5b	0.12410613
170	0xbe7a62c2	-0.24451736
171	0x3e895348	0.2682135
172	0x3eb98c81	0.36240008
173	0x3dea35d9	0.11436052
174	0xbcf1b284	-0.029504068
175	0x3d2beb2e	0.04197233
176	0x3e23e183	0.16003995
177	0xbebfd908	-0.3747027
178	0xbd966b4f	-0.07344686
179	0xbe60be7b	-0.21947663
180	0xbebc633f	-0.3679447
181	0xbe948ea2	-0.2901507
182	0xbe8fcf3e	-0.280878
183	0x3e8440ea	0.25830775
184	0x3e7caab1	0.24674489
185	0xbe9fda0c	-0.31221044
186	0xbea5f9b3	-0.32417068
187	0x3ecff4e9	0.4061654
188	0x3dfdcec5	0.12392954
189	0x3e34e646	0.17665967
190	0x3dbe2c85	0.09285835
191	0xbdde870f	-0.10865604

attention.mha.in_proj_bias f4 [24]
0	0x3e04e2aa	0.1297709
1	0x3e012a2e	0.12613747
2	0xbdfdaf72	-0.12386979
3	0xbdebe0af	-0.11517464
4	0x3e0cd977	0.13754831
5	0x3e0ecf47	0.13946258
6	0xbdcd34fb	-0.10019871
7	0xbe1075dd	-0.14107461
8	0xb5c53a71	-1.4694652e-06
9	0x3670fe50	3.5910816e-06
10	0xb61634e4	-2.2382528e-06
11	0x36c501f7	5.8712862e-06
12	0xb6970829	-4.5011006e-06
13	0x36c689db	5.9169083e-06
14	0x36691c62	3.4736227e-06
15	0xb50c464f	-5.2256377e-07
16	0xbd84b2b8	-0.064794004
17	0x3d192e24	0.03739752
18	0xbd921ce7	-0.07134419
19	0xbd12fcbb	-0.035885554
20	0xbca39519	-0.019968556
21	0x3b0aa7b2	0.0021157083
22	0x3d347e2f	0.04406565
23	0x3c98277f	0.01857352

attention.mha.out_proj.weight f4 [8, 8]
0	0xbd969c0c	-0.07353982
1	0x3e84d4ff	0.25943753
2	0xbe9776bd	-0.29582778
3	0xbdac4e67	-0.084133916
4	0xbdd7730d	-0.10519991
5	0x3d647b8e	0.055781893
6	0x3dce926f	0.10086524
7	0x3de1997e	0.110156044
8	0xbe5a3ee6	-0.21313056
9	0xbdbf3321	-0.09335924
10	0xbe90880f	-0.28228804
11	0xbe966dd5	-0.2938067
12	0x3e008421	0.12550403
13	0x3e85c554	0.26127112
14	0x3e652ac6	0.22379598
15	0xbe4ae01a	-0.1981205
16	0x3e831985	0.25605407
17	0xbd40d8fd	-0.047081936
18	0x3da1268b	0.078686796
19	0x3d2ccb1c	0.042185888
20	0x3e84621a	0.25856096
21	0x3e9113e7	0.28335497
22	0xbe54d39c	-0.20783848
23	0x3a127ee7	0.0005588368
24	0x3e9bd8eb	0.30438933
25	0x3e174f55	0.14776357
26	0x3c8e2e5d	0.017356092
27	0xbda24c30	-0.07924688
28	0xbe8a5967	-0.27021334
29	0xbe97f3c4	-0.29678166
30	0x3d4f83d6	0.050662838
31	0xbe526c06	-0.2054902
32	0xbca189cc	-0.019719027
33	0xbe2291ef	-0.15875982
34	0x3ea54977	0.32282612
35	0xbeb3b267	-0.35097048
36	0x3e9ed4ed	0.31021824
37	0xbe721f29	-0.23644699
38	0x3d2402c7	0.04004171
39	0xbd828eaf	-0.06374871
40	0x3e778adf	0.24174069
41	0x3e9c8b1f	0.3057489
42	0x3ea1d41c	0.3160714
43	0xbe21938b	-0.1577894
44	0x3e7c382c	0.24630803
45	0x3e942828	0.28936887
46	0xbe8b843d	-0.27249327
47	0x3dc071f6	0.09396736
48	0xbca3864b	-0.019961497
49	0x3e1355ea	0.14388242
50	0x3eb20f21	0.34777167
51	0xbdb14013	-0.08654799
52	0xbe4b1f61	-0.19836189
53	0xbe5d5f25	-0.21618326
54	0x3db04e6d	0.086087085
55	0xbc47224a	-0.012154171
56	0xbeadce33	-0.3394638
57	0xbd51a57c	-0.05118321
58	0x3dd33534	0.10312882
59	0xbc8b45cf	-0.01700106
60	0x3e8c53d9	0.2740772
61	0xbde0482d	-0.109512664
62	0x3e4db8a2	0.20089963
63	0x3e22e870	0.1590898

attention.mha.out_proj.bias f4 [8]
0	0x3d26c9e7	0.040719893
1	0x3d3d1d7a	0.04617069
2	0xbd530ec4	-0.051527753
3	0xb97dd266	-0.0002420634
4	0xbd850e2d	-0.064968444
5	0x3cf78066	0.030212592
6	0xbda1de2c	-0.07903704
7	0x3d87f1aa	0.06637891

attention.norm.weight f4 [8]
0	0x3f79d91e	0.9759692
1	0x3f83bf37	1.0292729
2	0x3f82794a	1.0193264
3	0x3f8638bb	1.0486063
4	0x3f8833f3	1.0640854
5	0x3f7e378b	0.993035
6	0x3f743d82	0.95406353
7	0x3f8596e5	1.0436674

attention.norm.bias f4 [8]
0	0x3d51747a	0.05113647
1	0xbd63a36a	-0.055575766
2	0x3d5e6262	0.054293044
3	0x3d659475	0.056049783
4	0xbd7d31ce	-0.061815076
5	0x3d517bed	0.051143575
6	0xbcf57fb8	-0.029968128
7	0xbd6d2fca	-0.057906903

regressor.weight f4 [1, 8]
0	0xbe2c5396	-0.1682876
1	0x3e61ec05	0.2206269
2	0xbebdc18b	-0.37061724
3	0xbeafd5e4	-0.34342873
4	0x3e28d705	0.16488273
5	0xbdb93a0d	-0.090442754
6	0x3a0e2a01	0.0005423129
7	0x3e6e1aa8	0.23252356
