esame/models_100epochs/experiment_3_ws4.pth (torch, 3393 bytes, 5 tensors)

lstm.clayer_in.weight f4 [4, 9]
-0.15217128 -0.06569937 0.36402056 0.09493961 -0.14069405 -0.08644403 -0.34718636 -0.16084965
-0.18052338 0.2068288 0.04248427 -0.14171346 -0.0053338557 -0.21801683 0.21372783 0.21708034
0.17251305 -0.039352365 0.23810627 -0.089997634 -0.17550893 0.16646875 0.21400808 0.37532848
0.14426899 -0.06875406 0.2146052 0.3587184 -0.27541152 0.03400587 -0.17536993 0.15314516
0.060726233 -0.14818542 -0.10560852 0.07788251
00000000: cad2 1bbe 648d 86bd e760 ba3e b36f c23d
00000010: 1a12 10be 9109 b1bd 69c2 b1be c5b5 24be
00000020: 1fdb 38be eeca 533e fc03 2e3d 551d 11be
00000030: a0c7 aebb ce3f 5fbe 78db 5a3e 4f4a 5e3e
00000040: 43a7 303e f22f 21bd 21d2 733e ae50 b8bd
00000050: 9db8 33be c976 2a3e ef24 5b3e 0e2b c03e
00000060: 40bb 133e eece 8cbd 77c1 5b3e f0a9 b73e
00000070: bd02 8dbe bd49 0b3d 2d94 33be 16d2 1c3e
00000080: 12bc 783d ebbd 17be 4849 d8bd de80 9f3d

lstm.clayer_in.bias f4 [4]
-0.14586973 -0.19537589 0.31153962 -0.24522817
00000000: e05e 15be 9e10 48be 1f82 9f3e 181d 7bbe

lstm.clayer_out.weight f4 [4, 4]
-0.3235264 0.32702187 0.48994213 0.4453296 -0.286842 0.1924409 -0.39720893 0.2135847
0.43634126 0.37562644 0.42612013 0.26523474 0.087502226 0.14738426 -0.2719222 0.12759663
00000000: 41a5 a5be 696f a73e b2d9 fa3e 3e02 e43e
00000010: f4dc 92be 3a0f 453e f85e cbbe f3b5 5a3e
00000020: 1f68 df3e 1c52 c03e 6b2c da3e d9cc 873e
00000030: 5e34 b33d e6eb 163e 6339 8bbe b1a8 023e

lstm.clayer_out.bias f4 [4]
-0.23842381 0.09024616 -0.5167797 -0.028299
00000000: 5f25 74be fbd2 b83d ad4b 04bf 4ed3 e7bc

linear.weight f4 [1, 4]
-0.17833827 -0.11522142 -0.23197705 -0.39394602
00000000: 4f9e 36be 35f9 ebbd 648b 6dbe 4bb3 c9be
