esame/models_100epochs/experiment_7_ws16.pth (torch, 3405 bytes, 5 tensors)

lstm.clayer_in.weight f4 [4, 9]
0.016239554 -0.04723541 0.30383947 -0.06000266 -0.39461306 0.12750208 0.2781944 0.0127509255
0.04315779 -0.17469853 0.22182538 0.16678697 -0.1519246 0.19615307 0.023321087 0.011948584
-0.3010286 -0.3134304 0.40128395 0.034416094 -0.060823 -0.07220098 0.3384567 -0.037023187
0.13626096 -0.07593276 0.011462972 0.036583684 -0.2653875 -0.051756117 0.106931634 -0.23955362
-0.11011155 -0.048203245 0.20081197 0.13222994
00000000: d008 853c eb79 41bd d990 9b3e 59c5 75bd
00000010: b90a cabe e88f 023e 7f6f 8e3e 42e9 503c
00000020: 39c6 303d 2ce4 32be 3126 633e 34ca 2a3e
00000030: 1f92 1bbe 5adc 483e dd0b bf3c fec3 433c
00000040: 6c20 9abe f379 a0be 1775 cd3e e4f7 0c3d
00000050: 8a21 79bd 1bde 93bd 324a ad3e a0a5 17bd
00000060: fe87 0b3e a382 9bbd 30cf 3b3c c6d8 153d
00000070: dfe0 87be 39fe 53bd f9fe da3d 8b4d 75be
00000080: 2a82 e1bd c470 45bd a7a1 4d3e 4967 073e

lstm.clayer_in.bias f4 [4]
-0.18455975 -0.21467862 0.32103223 -0.11427177
00000000: 3bfd 3cbe b6d4 5bbe 565e a43e 5107 eabd

lstm.clayer_out.weight f4 [4, 4]
-0.5070515 0.09304515 0.05240227 0.47016194 -0.2149432 -0.43538305 0.22299348 -0.11269817
0.22396317 0.10418667 0.13655159 0.25259754 -0.45885396 -0.3520547 0.5314089 0.47725585
00000000: 21ce 01bf 758e be3d c3a3 563d 11b9 f03e
00000010: 121a 5cbe 87ea debe 6758 643e 4cce e6bd
00000020: 9a56 653e d25f d53d 2ed4 0b3e 7754 813e
00000030: e8ee eabe 8340 b4be 6a0a 083f e15a f43e

lstm.clayer_out.bias f4 [4]
-0.12900643 0.5527231 0.042022023 -0.014810906
00000000: 431a 04be 437f 0d3f 491f 2c3d 71a9 72bc

linear.weight f4 [1, 4]
-0.18249123 -0.35199025 0.35456643 -0.2952982
00000000: fbde 3abe 1138 b4be bb89 b53e 5331 97be
