esame/models_100epochs/experiment_7_ws4.pth (torch, 3393 bytes, 5 tensors)

lstm.clayer_in.weight f4 [4, 9]
000000 40 b8 9a bc ac 1e 92 3d 03 7e ea bd 2e f4 52 3e
       -0.018886685 0.071347564 -0.11449816 0.2060096
000010 38 b8 1a be b7 dd 44 3d c5 7e 91 3e 02 e8 ad 3d
       -0.15109336 0.048063006 0.2841703 0.084915176
000020 fd eb ba 3c 4d 87 6e 3d 11 e4 b7 3e fb 87 48 3e
       0.022817606 0.0582345 0.35916188 0.19583122
000030 9f 35 a1 3e 46 88 b3 3e 68 aa e5 bb e5 9d 35 3c
       0.31486222 0.35064906 -0.0070088394 0.011085008
000040 2b ad c6 3b 57 83 87 bd ee 03 b3 3e 54 08 54 3e
       0.0060631237 -0.06616848 0.34963936 0.20706302
000050 52 55 99 bc f9 0d d2 bd b6 01 37 3e be 18 1b be
       -0.018717442 -0.10256571 0.17871746 -0.15146157
000060 cb 51 b5 3e 53 50 8f 3e be 39 9f 3e 12 72 34 3d
       0.35413966 0.2799097 0.3109874 0.0440541
000070 e1 8a b6 be 2d 08 ef 3d 69 76 71 be 16 a4 31 bd
       -0.3565283 0.11671481 -0.23580326 -0.043369375
000080 17 12 98 3e 5e fd 47 be a4 28 0c 3e 43 cc 80 bb
       0.297013 -0.19530246 0.13687378 -0.0039306

lstm.clayer_in.bias f4 [4]
000000 b8 67 aa 3e d4 d3 a0 be 82 dc 9d 3e b3 d2 a3 3e
       0.33282256 -0.31411612 0.30832297 0.31996688

lstm.clayer_out.weight f4 [4, 4]
000000 cf 9b 9d 3c 3f d9 88 be d4 65 3f 3e 36 10 db be
       0.019239334 -0.26728246 0.18691188 -0.42785805
000010 e3 c5 90 3e 70 fb a6 be 31 1f 8e be ef 7b 37 be
       0.28275976 -0.32613707 -0.27758172 -0.1791837
000020 a3 54 be 3e 96 f7 df 3d 7c 52 eb be a8 f9 3c be
       0.37173948 0.10935895 -0.45961368 -0.18454611
000030 74 d7 97 be 40 49 10 bf 10 ab 80 3c 66 5e c4 3d
       -0.29656565 -0.5636177 0.015706569 0.095883176

lstm.clayer_out.bias f4 [4]
000000 39 16 14 3c 0f 88 91 be e8 63 bc bd fd 37 97 be
       0.009038501 -0.28424117 -0.09198743 -0.29534903

linear.weight f4 [1, 4]
000000 1d 2c b0 be 84 f5 94 3d b9 4c 06 3f de b9 a3 bd
       -0.34408656 0.07273391 0.5246082 -0.07994436
