esame/models_100epochs/experiment_10_ws4.pth (torch, 6259 bytes, 11 tensors)

q_lstm.clayer_in.weight f4 [4, 5]
000000 d7 d5 7f be b6 71 e4 3e 2b d9 ce 3d 2a ee df bd
       -0.24983917 0.44618005 0.10100015 -0.10934098
000010 24 a4 5d be 8e e7 cf be db 54 e8 3e 71 85 ff be
       -0.21644646 -0.4060635 0.4537724 -0.49906495
000020 82 ff f8 3e d6 ac 92 3e 50 ca a6 bd ab 2c 72 3d
       0.48632437 0.28647488 -0.08144057 0.05912463
000030 10 15 7a 3e 8d ed 93 3e f3 f1 03 3f 88 fe 91 3e
       0.24422097 0.28892174 0.5154106 0.28514504
000040 52 34 65 be 7d 57 4e 3e 90 65 9c 3e 0d 97 cd be
       -0.2238324 0.20150562 0.30546236 -0.40154305

q_lstm.clayer_in.bias f4 [4]
000000 17 e0 84 3e 8f 8e 0f be 63 65 37 be 5b e5 aa 3d
       0.25952217 -0.14019226 -0.1790977 0.08344527

q_lstm.clayer_out.weight f4 [4, 4]
000000 51 6b 86 3e 69 81 0b bf f0 dd b3 3e b2 d7 d6 bd
       0.2625375 -0.5449434 0.35130262 -0.10490359
000010 1a 36 0a 3f ea 59 fc bd 3b 01 bf 3e e3 26 d3 3e
       0.539888 -0.12321837 0.37305626 0.41240606
000020 ab fb f8 bd 02 1d 2d be bc 6e 38 3e 63 51 bf be
       -0.12157377 -0.16905597 0.18010992 -0.3736678
000030 ef f5 4d 3e 94 f8 b1 be 13 b9 e5 3e 60 97 a8 be
       0.20113347 -0.34759963 0.44867763 -0.3292799

q_lstm.clayer_out.bias f4 [4]
000000 d8 5c 96 be c3 99 b4 3e ac cb 87 be b5 d9 f5 3e
       -0.2936771 0.3527356 -0.26522577 0.4801766

attention.mha.in_proj_weight f4 [24, 8]
000000 0f 23 66 3d 71 39 d7 3e c9 af 1d 3e e1 1e 88 be
       0.05618578 0.42036012 0.15399088 -0.2658606
000010 14 f9 9f be bd 9d 76 3e f3 be c1 3d 3f a7 f2 3b
       -0.3124472 0.2408361 0.09460249 0.007405191
000020 ae d7 9b be 00 a8 bf 3c 66 bf 48 3d d9 c9 53 be
       -0.30437988 0.023395538 0.049010657 -0.20682468
000030 d1 3a a5 3e db b6 03 3e fa 92 47 be 60 ec 8d bd
       0.32271436 0.12862723 -0.19489661 -0.069298506
000040 ed 0f 35 bd eb 6e 3c 3c 01 85 da bd b1 ae b6 3e
       -0.04420464 0.011501054 -0.106699 0.35680154
000050 9c 85 df be e0 0d 95 be 34 02 a3 be 09 dd 04 3e
       -0.43656623 -0.29112148 -0.31837618 0.12974943
000060 b5 6a 2a 3d af 6c cb bd 53 b8 b7 3e 98 76 ae be
       0.04160567 -0.09932839 0.35882816 -0.34074855
000070 b8 04 17 3e 90 84 9d be 3e 1f 0e bd 80 62 ba be
       0.14747894 -0.307652 -0.034697764 -0.36403275
000080 55 21 d0 be e6 2b 93 be 32 30 f0 3d 5b d0 a3 bd
       -0.4065043 -0.2874443 0.117279425 -0.07998725
000090 5d 44 9b 3e 41 31 3e be 47 a2 4c bd fa dd bb 3d
       0.30325595 -0.18573476 -0.049959447 0.09173198
0000a0 62 4e 99 3e 37 3c 63 bd 4b 88 3f 3e 07 c4 38 3e
       0.29942614 -0.055477347 0.18704335 0.18043528
0000b0 f8 73 81 3e 41 86 3e 3e 9c 1f 6f 3e 7d e5 16 be
       0.2528379 0.18605901 0.23351902 -0.1473598
0000c0 e6 e1 62 bd 79 78 d8 3d b6 ab 93 3e 91 02 b2 bd
       -0.055391215 0.10569853 0.28841943 -0.08691896
0000d0 5e b9 22 3e c5 6d 90 be 75 09 3e 3e f3 b0 19 be
       0.15891024 -0.28208748 0.18558295 -0.15008907
0000e0 a8 a3 99 be cc 52 53 be 63 71 a8 be 54 00 b2 3d
       -0.30007672 -0.20637053 -0.32899007 0.08691469
0000f0 b1 2e 53 be ab 4a 4a be e6 50 b6 bd 00 75 59 be
       -0.2062328 -0.19755046 -0.08902149 -0.21236038
000100 29 6c b4 bd 04 ec 26 3d 30 17 3c 3d 32 86 d0 3e
       -0.088096924 0.040752426 0.04592055 0.40727383
000110 c8 54 2a be 50 2a 29 3e 01 9b 37 bd b8 19 99 be
       -0.16633904 0.16520047 -0.044825558 -0.29902434
000120 99 66 2b be 9c 8e bb 3d 38 ba 16 3e e2 f4 d8 bc
       -0.16738357 0.0915806 0.14719474 -0.026483957
000130 90 7d 6e be d5 20 21 3e ed 36 cd 3d ba 5b ba be
       -0.23290086 0.1573518 0.10020242 -0.36398107
000140 f3 47 31 be 1f 8e 44 bc e0 d8 6e be fc 6d 05 be
       -0.17312603 -0.011996775 -0.23324919 -0.13030237
000150 1e e0 6c be c5 13 03 3f 88 70 d5 be ac 26 ed 3e
       -0.23132369 0.5120204 -0.41687417 0.46318567
000160 1e ac ec be a3 69 05 3c a9 15 98 be 01 ec f5 bd
       -0.46225065 0.008142862 -0.29704025 -0.12007905
000170 fd 03 8a 3e 2d a2 a4 3e 67 f2 a5 be 81 28 f2 bd
       0.26956168 0.3215498 -0.324115 -0.11824132
000180 fb a1 ad 3e ad 6d 33 be 12 49 5b 3e 8d 8c cd 3d
       0.33912644 -0.17522307 0.21414593 0.100365736
000190 c7 4c 75 be 9d 5e 40 be 90 6c 10 3e 7c 66 d7 bd
       -0.2395507 -0.18786092 0.14103913 -0.10517594
0001a0 1e 14 35 be dd 6e ab be a4 f5 12 be 39 3b a0 3e
       -0.17683455 -0.3348302 -0.14351517 0.31295183
0001b0 cd 6f 2d bd 59 e5 cf 3d be 15 a3 3d 42 0a ba be
       -0.04234295 0.101511665 0.07963131 -0.3633595
0001c0 05 67 c6 3e b1 ab 0f be 43 61 a7 bd f1 48 8f 3e
       0.38750473 -0.14030339 -0.08172848 0.27985337
0001d0 24 36 92 be 17 69 65 3d 00 6f af be a9 43 2c 3e
       -0.2855693 0.056008425 -0.34264374 0.16822685
0001e0 46 62 43 3d f1 b0 75 be 2a d1 f8 3d 6b 30 26 3e
       0.047701143 -0.23993279 0.1214927 0.16229407
0001f0 0a 45 d1 bd 59 a9 e2 3e 02 cd 23 3e 65 2c 77 3e
       -0.10218246 0.44269827 0.15996173 0.24138029
000200 fe ab 58 be 00 46 42 be 57 1c 90 be c0 6f 59 3e
       -0.2115936 -0.18972015 -0.28146622 0.21234035
000210 59 a8 26 3e 64 ba 47 be d8 eb ec 3e f5 8f 92 3e
       0.16275157 -0.19504696 0.46273685 0.28625455
000220 a8 9f 4d be 77 72 7e 3e 8e ba 79 be f9 8e 2e 3e
       -0.20080435 0.24848352 -0.24387571 0.17046727
000230 53 72 ce 3e 86 d4 90 be be 8c 8e be ee 2f 2a 3d
       0.40321597 -0.28287143 -0.27841753 0.041549616
000240 54 cb f7 3b d2 49 96 be 98 ee 81 be ff 0a 2c 3c
       0.0075620804 -0.29353195 -0.25377345 0.010500669
000250 87 80 03 bd 9e 13 15 3d b1 2f f3 3d a5 41 86 3d
       -0.032104995 0.03639566 0.11874331 0.065554895
000260 17 d6 5b bc 53 0a dc 3d 43 86 5a 3c 9d 3d 57 3e
       -0.013417742 0.10744157 0.013337675 0.21019597
000270 da 5e ae 3e a7 1e 97 be 7b ed 2e be e1 82 3b 3e
       0.3405674 -0.29515573 -0.17082779 0.18311645
000280 90 04 8a be 39 da 78 3e 71 7c 81 3e 5b 78 93 3c
       -0.26956606 0.24301995 0.25290254 0.018001726
000290 9f a5 6d be c3 f5 8b bd 53 70 ab be 49 41 e1 be
       -0.2320771 -0.06833985 -0.33484134 -0.4399512
0002a0 c6 a9 e2 3e a1 74 d4 be 63 17 9d be b2 05 4e be
       0.44270152 -0.4149523 -0.30681905 -0.2011936
0002b0 ee 96 68 bc 5a b5 81 3c 18 c0 22 be 7f f7 c4 bd
       -0.014196141 0.015833545 -0.1589359 -0.09617519
0002c0 30 5d e6 bc 71 95 99 3e cf 59 d2 3e 7e b0 f3 3d
       -0.028120607 0.29996827 0.41084144 0.118988976
0002d0 ac db 69 bd f3 de c7 3e e5 69 d1 be 1b a2 12 3e
       -0.05709426 0.39037284 -0.40901104 0.14319651
0002e0 95 4a 9a be 69 a7 ca 3e 84 b8 b0 be 2d c5 5f 3e
       -0.30135027 0.3958085 -0.34515774 0.2185256
0002f0 5a ba 9c be 95 5a 39 3e 23 34 08 3e ef 32 b9 3e
       -0.30610925 0.1810096 0.13301139 0.36171672

attention.mha.in_proj_bias f4 [24]
000000 d8 88 1e 3d c7 69 98 3d 25 ee 57 bd 8a 0b be 3c
       0.038704723 0.074420504 -0.052717347 0.023198862
000010 fb 5b 99 3d 11 ad 7b 3d 78 8d 64 bd a9 26 8c ba
       0.07488247 0.061444346 -0.055798978 -0.0010692674
000020 11 33 ec 33 86 7a 63 35 9c a3 42 b5 2c a2 00 35
       1.0998895e-07 8.4742385e-07 -7.2508715e-07 4.7919707e-07
000030 24 3c b1 35 a0 6f ec 35 50 e0 18 b5 0d 37 28 35
       1.3205031e-06 1.7615857e-06 -5.695083e-07 6.2664986e-07
000040 bf dc 43 3d 03 f7 61 3d 13 b3 2f 3c 02 2a c9 3c
       0.04781794 0.05516721 0.010723847 0.024556164
000050 c4 79 4d bd 4a 46 42 bd 66 2d 3e bd 0d d1 05 3d
       -0.050164953 -0.047430314 -0.046430014 0.03267007

attention.mha.out_proj.weight f4 [8, 8]
000000 65 74 5d 3e f7 39 c1 3e ff bf aa be c6 a2 7b 3d
       0.21626432 0.37739536 -0.33349606 0.06143453
000010 82 d9 02 be 04 56 08 3e ba 22 57 be 8b 9a 40 3e
       -0.12778285 0.13314062 -0.21009341 0.18808953
000020 60 61 4d bc ad c4 5a be 94 c6 a2 be 9e ba 0b 3e
       -0.012535423 -0.21364088 -0.31792128 0.13645408
000030 5b 86 c2 bd 9e ca 6f 3e c6 be 63 3c fd 71 5b 3d
       -0.094982825 0.23417136 0.013900464 0.053575505
000040 7f e1 d4 bd 84 49 cd bd 60 ee be bd a6 a2 b3 be
       -0.103945725 -0.100237876 -0.0932281 -0.35085028
000050 02 6b 88 3e e0 aa 2c be 9d da 8c 3e b5 5b 27 be
       0.2664414 -0.16862059 0.2751054 -0.16343577
000060 b5 48 8a 3e 6b 89 b3 3e 5c 1e 67 be d9 0c ae 3e
       0.27008596 0.3506578 -0.22570175 0.33994177
000070 94 be 2c bd ee 15 a1 be 4a 0c 38 3e 22 fd 81 3e
       -0.042173937 -0.31462044 0.17973438 0.25388438
000080 11 cf b3 3e c1 85 c3 be f6 e3 9e 3e 63 c8 60 3e
       0.35118917 -0.38187984 0.31033295 0.21951441
000090 b3 7c a8 3e b5 79 0f 3e 96 dc 66 be 86 10 78 3e
       0.32907638 0.14011271 -0.22545084 0.24225053
0000a0 ef eb 8b 3e 6d f0 38 be 24 26 4c bd 19 c1 6c 3e
       0.2732844 -0.18060465 -0.04984106 0.23120536
0000b0 73 10 aa 3e cb 48 90 3e 33 ee 82 3e c8 20 6e be
       0.33215675 0.28180537 0.25572357 -0.23254693
0000c0 9e 60 00 bc ee cb bb bd 3a fb 4c 3e c9 51 0e 3e
       -0.007835535 -0.09169756 0.2001771 0.13898386
0000d0 75 7f a8 be db fb b8 bd fb cf 7e be 05 e6 8a be
       -0.32909742 -0.090324126 -0.24884026 -0.27128616
0000e0 6b c7 a6 3e 41 d0 12 be 21 74 16 3e 0d e3 3c bd
       0.3257402 -0.14337255 0.14692737 -0.04611497
0000f0 95 0f b0 bd 9d 14 01 bb 4a af 9f 3e 46 72 7a bc
       -0.08596722 -0.0019696124 0.31188422 -0.015286034

attention.mha.out_proj.bias f4 [8]
000000 fb 97 7c 3d 56 c7 47 bd b4 6b 33 bd 58 ec 3d 3d
       0.061668377 -0.048774086 -0.043803886 0.046367973
000010 c6 7a 3d bd 99 b3 37 bd b9 c7 4b 3d 69 08 1c 3d
       -0.046259664 -0.044849012 0.049751017 0.038093958

attention.norm.weight f4 [8]
000000 30 1e 8d 3f 3b 52 71 3f 84 f5 83 3f 1e 31 88 3f
       1.1024837 0.942661 1.03093 1.0639989
000010 97 6a 74 3f b2 c2 8b 3f b7 87 74 3f 3c 92 6a 3f
       0.95475143 1.0918791 0.95519584 0.91629386

attention.norm.bias f4 [8]
000000 64 b1 f7 3c 59 47 d5 bc e0 44 e7 3c 19 a9 f7 3c
       0.030235954 -0.026034998 0.028231084 0.030232
000010 56 95 cd bc c6 32 14 3d 69 8a d9 3c d2 a6 d6 3c
       -0.025095623 0.036181234 0.026555257 0.026202593

regressor.weight f4 [1, 8]
000000 0a 91 bb be 9e f2 2b 3e dc a7 88 be 0f 00 81 be
       -0.36634094 0.1679177 -0.26690567 -0.25195357
000010 63 ab af 3d ab 24 0e be a9 ba 6f be ca dc 5a be
       0.08577611 -0.13881175 -0.23411049 -0.21373287
