esame/models_100epochs/experiment_10_ws16.pth (torch, 6277 bytes, 11 tensors)

q_lstm.clayer_in.weight f4 [4, 5]
0	0x3d36f89c	0.044670686
1	0xbe7cb7a2	-0.24679425
2	0xbe958095	-0.29199663
3	0x3e81e560	0.25370312
4	0xbee45085	-0.44592682
5	0x3c8ba6f8	0.01704739
6	0x3ec2627a	0.37965757
7	0xbeceefc6	-0.40417308
8	0x3ea8575e	0.32879156
9	0xbee81769	-0.4533036
10	0xbcb89680	-0.022532701
11	0x3eb64039	0.35595873
12	0x3ed6a588	0.41923165
13	0x3ea3d0e4	0.31995308
14	0x3ef72897	0.48273155
15	0xbefbbbe8	-0.491668
16	0x3e08420a	0.13306442
17	0xbec0d295	-0.3766066
18	0x3e69f64c	0.22847861
19	0x3d55ac0b	0.052166026

q_lstm.clayer_in.bias f4 [4]
0	0x3eb3c29e	0.3510942
1	0x3dc976d1	0.098371156
2	0x3ec6ff3d	0.38866606
3	0x3c105a1a	0.008810544

q_lstm.clayer_out.weight f4 [4, 4]
0	0xbdd000e6	-0.10156421
1	0xbe7d1c50	-0.24717832
2	0xbd91c4de	-0.071176276
3	0x3e8a4ed0	0.27013254
4	0xbe8359e9	-0.25654534
5	0x3eaf7e9d	0.34276286
6	0xbf0e1a18	-0.55508566
7	0xbe68b79c	-0.22726291
8	0xbdf25c32	-0.11833991
9	0xbf0ce370	-0.5503454
10	0x3e21e581	0.15810205
11	0xbed63e2c	-0.41844308
12	0x3ea362d4	0.31911337
13	0x3d8e3128	0.069429696
14	0xbcb07be7	-0.021543456
15	0xbe9702c1	-0.2949429

q_lstm.clayer_out.bias f4 [4]
0	0xbe25ddac	-0.16197842
1	0x3e223a9f	0.15842675
2	0x3ee5e8b0	0.4490409
3	0xbe889231	-0.26674035

attention.mha.in_proj_weight f4 [24, 8]
0	0xbc955fa9	-0.01823409
1	0x3e68f4ae	0.22749588
2	0xbee044a4	-0.4380237
3	0xbe71de46	-0.23619947
4	0x3e63cd85	0.22246368
5	0xbe1309c0	-0.14359188
6	0x3ea80e9b	0.32823643
7	0xbd8b21ae	-0.06793533
8	0x3e8af028	0.2713635
9	0x3d70d393	0.058795523
10	0x3da6fdb8	0.08153862
11	0xbecee67c	-0.4041022
12	0xbdf25185	-0.11831955
13	0x3d396e31	0.045271102
14	0x3e5d417d	0.21607013
15	0x3deac29a	0.114628986
16	0xbe0012c3	-0.12507157
17	0x3d3af96b	0.04564802
18	0x3ed04e12	0.40684563
19	0x3e7ce583	0.24696927
20	0x3e2f83f6	0.17140183
21	0xbe73cf87	-0.23809634
22	0xbe12af17	-0.14324604
23	0x3e935c2a	0.28781253
24	0x3ea614e8	0.32437825
25	0xbe0bfec9	-0.13671412
26	0x3e4ddf4f	0.20104717
27	0xbdff5d47	-0.12468963
28	0x3e9234e2	0.2855597
29	0x3c957621	0.018244805
30	0xbea9d0ae	-0.33167022
31	0xbee365ad	-0.4441351
32	0xbe08935e	-0.13337466
33	0x3e7e0ad9	0.24808826
34	0xbe841746	-0.25799006
35	0x3ea10ae4	0.3145362
36	0x3e4052da	0.18781605
37	0x3ec09f5e	0.37621588
38	0x3e6627b8	0.22476089
39	0xbef889e6	-0.48542708
40	0xbe1b5320	-0.15168428
41	0x3e99c80d	0.3003544
42	0x3e73723c	0.23774046
43	0xbed9b808	-0.42523217
44	0xbe6b8387	-0.22999392
45	0x3ecee54b	0.40409312
46	0xbeaec9c5	-0.34138313
47	0x3e9ed982	0.3102532
48	0xbe38bddc	-0.18041176
49	0x3e0bda47	0.13657485
50	0x3e0b87ca	0.13626018
51	0x3e2bf2c5	0.16791828
52	0xbeb93dd0	-0.36179972
53	0x3e838c04	0.2569276
54	0xbec5e265	-0.38649288
55	0xbea882c0	-0.32912254
56	0x3ccbef3e	0.024894353
57	0xbe41e1f6	-0.18933854
58	0x3ea79d67	0.32737276
59	0xbe722262	-0.23645929
60	0x3ec43baa	0.3832677
61	0x3dc6e34c	0.09711322
62	0x3e0d589f	0.13803338
63	0x3ebb104b	0.36535868
64	0xbe7326ed	-0.23745318
65	0xbeddd502	-0.43326575
66	0x3c89e9e6	0.016835164
67	0x3e532d1a	0.20622674
68	0x3e4a2ad4	0.197429
69	0xbc872bea	-0.016500432
70	0x3ecb966d	0.39763203
71	0x3e28ffe7	0.16503869
72	0x3e3e8507	0.18605433
73	0xbe43391b	-0.19064753
74	0x3e2e3ee6	0.17016181
75	0xbe535042	-0.20636085
76	0xbedf8b09	-0.43660763
77	0xbea1e9db	-0.3162373
78	0xbe8d118a	-0.27552444
79	0xbdd64f75	-0.10464374
80	0xbe844d17	-0.25840065
81	0x3ef372c6	0.47548503
82	0x3e5c7dad	0.21532317
83	0xbecc9fdd	-0.39965716
84	0xbd8402e6	-0.06445865
85	0x3e93fd08	0.28903985
86	0xbd010c67	-0.03150597
87	0xbc248f9c	-0.010044005
88	0x3ddce956	0.10786693
89	0xbe16bcb4	-0.14720422
90	0xbe8f8ffa	-0.28039533
91	0xbe1bb870	-0.15207076
92	0xbda7fc08	-0.08202368
93	0x3ec2155e	0.37906927
94	0xbeb65865	-0.35614315
95	0x3e012d1a	0.12614861
96	0xbd5e31ce	-0.054246716
97	0xbe202f27	-0.15642987
98	0xbd9a1a4c	-0.07524547
99	0xbe00dfdf	-0.125854
100	0x3e392378	0.18079937
101	0x3e1f6da0	0.15569162
102	0xbe84631b	-0.2585686
103	0x3ebee0a5	0.37280765
104	0x3e90ad06	0.28257006
105	0xbd74d852	-0.05977661
106	0x3e62bbd0	0.22141957
107	0xbe8acf58	-0.27111316
108	0x3e4ef62a	0.20211092
109	0x3cd3bd71	0.025847169
110	0xbedcc278	-0.43117118
111	0x3d2f431a	0.042788602
112	0x3ebbb01b	0.36657795
113	0xbcbc7cce	-0.02300873
114	0xbe0fcc6f	-0.14042829
115	0x3ccd6215	0.025071183
116	0x3ea6c87e	0.32574838
117	0x3eda7a66	0.42671508
118	0xbdca04dd	-0.09864209
119	0x3e90e57b	0.2830008
120	0x3e55eeb6	0.20891842
121	0x3edcc87a	0.431217
122	0x3eadc6d2	0.3394075
123	0xbec8d2ab	-0.39223227
124	0xbedf5377	-0.43618366
125	0xbecb3fdd	-0.3969716
126	0x3e83ab74	0.25716746
127	0xbe8d5e0c	-0.27610815
128	0x3e852c8f	0.26010558
129	0xbdc35127	-0.09536963
130	0xbe5766d2	-0.21035317
131	0x3eb77f89	0.3583949
132	0xbde45554	-0.111490875
133	0xbe8ad5fc	-0.27116382
134	0xbdcb5e28	-0.09930068
135	0xbea73adb	-0.3266209
136	0xbeba837d	-0.36428443
137	0xbe17d455	-0.14827092
138	0xbda83119	-0.0821249
139	0xbe3ab949	-0.18234743
140	0x3ea1f0ee	0.31629127
141	0xbe196359	-0.14979304
142	0xbe2c4442	-0.16822913
143	0x3eab4d84	0.33457577
144	0x3d87407c	0.06604096
145	0xbdfc7b06	-0.12328152
146	0x3d934e10	0.071926236
147	0xbeba130d	-0.3634266
148	0x3ecfbcd5	0.40573755
149	0x3db7be15	0.08971802
150	0x3df7c458	0.120979965
151	0xbec31ee5	-0.38109508
152	0x3e9ea18b	0.30982623
153	0xbea7c85c	-0.3277005
154	0xbdf5f242	-0.12009098
155	0xbe9dc2de	-0.30812734
156	0xbe45fb0e	-0.19334051
157	0x3dfb6d16	0.12276666
158	0xbecb31d2	-0.39686447
159	0xbebdfb84	-0.37105954
160	0x3da0d49c	0.07853052
161	0x3e2f75e5	0.17134817
162	0x3d171c69	0.03689233
163	0xbe487d46	-0.19579038
164	0xbdc20df6	-0.09475319
165	0xbcead920	-0.028667986
166	0xbd6a8e95	-0.057264883
167	0xbe630f61	-0.22173835
168	0x3e9c83f4	0.30569422
169	0x3ded2b48	0.11580521
170	0xbe83133d	-0.25600615
171	0xbdf95cc2	-0.12175895
172	0xbe9336ad	-0.28752652
173	0xbe5d8f02	-0.21636584
174	0x3ebacbeb	0.36483702
175	0x3e4a629d	0.1976418
176	0x3e5771eb	0.2103955
177	0xbdae19c4	-0.08501008
178	0xbe107a10	-0.14109063
179	0x3db7647d	0.089547135
180	0xbeaa5cce	-0.3327393
181	0xbeed2be1	-0.4632254
182	0x3e896d3d	0.26841155
183	0xbd5c5668	-0.05379334
184	0x3e909efd	0.28246298
185	0x3e994992	0.29938942
186	0x3e2405de	0.16017863
187	0xbdf2b74d	-0.11851368
188	0xbdd167a0	-0.10224843
189	0xbd544c75	-0.051830728
190	0xbbb7b3a5	-0.005606132
191	0xbd1b1670	-0.037863195

attention.mha.in_proj_bias f4 [24]
0	0xbd01a562	-0.031651862
1	0x3d1bdee4	0.038054362
2	0x3d265266	0.040605925
3	0x3ce5b398	0.028039739
4	0x3d3c2cc5	0.045941133
5	0x3d14aa82	0.03629542
6	0xbc870523	-0.016481942
7	0xbc5cd489	-0.013478407
8	0x3656cf72	3.2009234e-06
9	0x36752f41	3.653535e-06
10	0x365e411e	3.311848e-06
11	0xb641451f	-2.8799475e-06
12	0xb3926eb2	-6.81879e-08
13	0xb5d35718	-1.5746073e-06
14	0x3602c6f6	1.948732e-06
15	0x369804f4	4.5305296e-06
16	0xbd040031	-0.032226745
17	0xbd7f96d5	-0.062399704
18	0xbcdbf788	-0.02685143
19	0x3cf71502	0.030161384
20	0x3cfc093c	0.030766122
21	0x3d073514	0.033009604
22	0xbd06ab36	-0.032878123
23	0xbcec04a8	-0.028810814

attention.mha.out_proj.weight f4 [8, 8]
0	0xbe919aed	-0.28438511
1	0xbdeb0342	-0.11475231
2	0xbe916d1a	-0.2840355
3	0xbdb12428	-0.086494744
4	0xbe99435a	-0.29934198
5	0x3eb1dc5a	0.34738427
6	0x3e794f53	0.24346666
7	0xbe4fd015	-0.20294221
8	0x3e886a93	0.2664381
9	0x3dee3ede	0.11633085
10	0xbe86a15b	-0.2629498
11	0x3d9b9397	0.0759651
12	0xbebe2e52	-0.37144715
13	0xbdc214ab	-0.09476598
14	0xbe829128	-0.2550137
15	0xbe326919	-0.17422904
16	0xbcd263e6	-0.0256824
17	0x3d0af702	0.03392697
18	0x3dc43ced	0.09581933
19	0xbe99ac0e	-0.3001408
20	0xbe92b548	-0.28653932
21	0xbe16f3bc	-0.14741415
22	0x3ea5783d	0.32318297
23	0x3ddf2df2	0.10897435
24	0x3eb0b38a	0.34511977
25	0xbe4990a8	-0.19684088
26	0x3db0ec02	0.08638765
27	0xbe8ee779	-0.27910975
28	0x3e5a5f45	0.21325405
29	0xbd5a084a	-0.05323056
30	0x3aaa7940	0.0013006106
31	0xbe5bfbb4	-0.21482736
32	0xbeb21207	-0.3477938
33	0xbdbfd026	-0.09365873
34	0xbd11f232	-0.035631366
35	0xbe645a64	-0.22300106
36	0x3de087c0	0.10963392
37	0x3c578f9d	0.013156799
38	0x3b8d82ba	0.0043185623
39	0xbe9c3d0d	-0.30515328
40	0x3e133890	0.14377046
41	0xbe5ad7a5	-0.21371324
42	0xbe7fee8c	-0.24993342
43	0xbdd0d2c1	-0.10196448
44	0xbe8db71a	-0.27678758
45	0xbeb55926	-0.35419577
46	0x3e93633b	0.28786644
47	0x3e88741b	0.2665108
48	0xbe932530	-0.2873931
49	0x3def8625	0.11695508
50	0xbe449c3d	-0.19200225
51	0x3e961610	0.29313707
52	0x3e31f2ad	0.1737773
53	0x3e5568a0	0.20840693
54	0xbea1923c	-0.3155688
55	0xbe18ccb5	-0.1492184
56	0xbe06006c	-0.13086098
57	0xbe891d04	-0.2677995
58	0xbe37f0e8	-0.17962992
59	0x3d3331a4	0.043748513
60	0xbeaad504	-0.33365643
61	0x3e2ceae9	0.16886486
62	0xbdb55e35	-0.08855859
63	0xbbffde1a	-0.007808459

attention.mha.out_proj.bias f4 [8]
0	0x3cd04b92	0.02542666
1	0x3cba858f	0.022768764
2	0xbd02f4d9	-0.031971786
3	0xbcd8353b	-0.02639257
4	0x3cf97539	0.030451404
5	0xbcf9913f	-0.030464767
6	0x3cfe8568	0.031069472
7	0x3d4f53c6	0.050617002

attention.norm.weight f4 [8]
0	0x3f8215e4	1.016293
1	0x3f8059f9	1.0027457
2	0x3f77eeb1	0.9684859
3	0x3f84204f	1.032236
4	0x3f824414	1.0177026
5	0x3f81856c	1.0118842
6	0x3f81f5d0	1.0153141
7	0x3f6da092	0.92823136

attention.norm.bias f4 [8]
0	0x3ccdf6e8	0.025142148
1	0x3ccdb6bf	0.025111554
2	0xbcce51af	-0.025185434
3	0xbcd9b895	-0.026577273
4	0x3cd0c685	0.025485286
5	0xbcd058f5	-0.025433043
6	0x3cd16120	0.025559008
7	0x3cd451c5	0.025917897

regressor.weight f4 [1, 8]
0	0xbe967499	-0.29385832
1	0xbe4b8426	-0.1987463
2	0x3e67cf25	0.22637613
3	0x3d25e0d4	0.040497616
4	0xbe379345	-0.17927273
5	0x3e812d29	0.25229767
6	0xbdfa8335	-0.12232057
7	0xbd83c489	-0.064339705
