esame/models_100epochs/experiment_4_ws16.pth (torch, 6259 bytes, 11 tensors)

q_lstm.clayer_in.weight f4 [4, 5]
-0.1441298 -0.27106705 0.12323666 -0.06296623 -0.3033761 -0.41333488 -0.16474316 -0.3109587
0.27734876 -0.003160021 0.30525804 0.24892545 0.0055225417 -0.10409092 -0.2790107 0.06352139
-0.3963168 -0.22089839 0.35683393 0.016624952
00000000: c396 13be 4dc9 8abe 8163 fc3d 70f4 80bd
00000010: 1d54 9bbe a1a0 d3be 6eb2 28be fb35 9fbe
00000020: a800 8e3e 5b18 4fbb c84a 9c3e 50e6 7e3e
00000030: 70f6 b43b 9f2d d5bd 7eda 8ebe 8117 823d
00000040: 09ea cabe 3033 62be f0b2 b63e 0d31 883c

q_lstm.clayer_in.bias f4 [4]
0.3921084 0.2336263 -0.061446346 -0.3568978
00000000: 6fc2 c83e bc3b 6f3e 2aaf 7bbd 4fbb b6be

q_lstm.clayer_out.weight f4 [4, 4]
0.38307405 -0.3428998 -0.2711869 0.21561483 0.041170366 0.38287947 -0.3107928 0.23147741
0.23884787 0.33114815 -0.13714868 0.054028787 0.11260576 0.5191188 -0.26243126 -0.4931962
00000000: 4822 c43e 9090 afbe 02d9 8abe 22ca 5c3e
00000010: 42a2 283d c708 c43e 3c20 9fbe 6a08 6d3e
00000020: 8994 743e 408c a93e b470 0cbe 4a4d 5d3d
00000030: d99d e63d f8e4 043f 645d 86be 3684 fcbe

q_lstm.clayer_out.bias f4 [4]
-0.41110274 0.030557914 -0.41296545 -0.107451096
00000000: 0f7c d2be 9754 fa3c 3570 d3be 520f dcbd

attention.mha.in_proj_weight f4 [24, 8]
-0.29731318 0.16120598 0.29529226 -0.27680862 -0.14262651 -0.26603854 -0.10135427 -0.39584056
-0.25344267 -0.07528319 0.4033776 0.054401994 -0.1771878 0.22177085 0.38357487 0.31294164
-0.08747977 -0.08681068 0.3251642 0.28403947 0.29460144 0.23456627 -0.18762574 0.35934955
0.15812595 0.4687813 0.38841337 0.3159795 0.32300103 0.41187042 -0.15421136 -0.18100369
-0.18744028 -0.25612858 0.35297355 0.08391018 -0.13455032 -0.27169877 -0.44120833 0.0453884
0.40438348 0.26122856 0.36761257 0.31500697 0.15446043 0.030426273 -0.2514696 0.35945335
-0.2214177 -0.22141603 0.13082701 0.1887877 -0.19197837 0.3458627 -0.34645215 0.1095537
0.1432951 0.049510054 -0.21031672 -0.2571059 0.31703466 0.030936975 -0.2066443 0.43777102
-0.21096551 -0.17853102 0.20432094 0.4636553 -0.15900548 0.020546958 -0.19080526 -0.23805141
-0.023271957 0.06821792 0.14701109 -0.39518002 0.31236696 0.3066983 0.039085224 0.026754916
0.21951096 -0.2871287 0.22902416 -0.20032898 -0.03814604 0.20682558 0.17533153 -0.24576317
-0.25478268 -0.38711354 -0.3495908 -0.14500204 -0.4247426 -0.09773061 -0.28729025 0.17323475
0.22930124 0.3058824 -0.21622111 -0.23747833 0.18713172 -0.041968446 0.3641541 -0.47190744
0.50494665 -0.20613761 -0.46251655 -0.15392745 -0.25559542 -0.21881723 0.25140658 0.22815104
0.18136883 0.013513669 -0.01241285 -0.18368614 0.44752783 -0.18777065 -0.34288272 0.29087424
0.08022011 0.41547468 -0.23855078 0.20593081 -0.372634 0.25334793 0.3177916 -0.03543018
0.25086054 0.04439985 -0.42712674 0.15898982 -0.31331223 0.050924856 -0.34391785 -0.16113482
-0.11387266 -0.09713114 -0.50673103 -0.2972606 -0.35408604 -0.29195523 -0.41920796 -0.1703085
-0.070632115 0.43278894 -0.35588142 -0.3840391 -0.30023867 0.44486034 -0.009122043 -0.067939274
0.21859497 -0.21883585 -0.15501057 0.35544834 0.26093918 -0.3099587 -0.06463265 0.10165237
0.17851505 -0.15633047 0.2522039 -0.047063664 -0.32519755 0.15726861 -0.37016833 0.07985293
-0.41889617 -0.16638577 -0.052432165 -0.34022707 -0.15836422 -0.008294555 -0.30513364 -0.009086635
0.22144018 0.006587977 -0.37304306 0.0515903 -0.24663398 0.09232225 -0.40804946 -0.36586186
0.036922522 0.32784617 -0.20347187 -0.11168576 0.033117786 -0.27084708 0.043708794 0.08569739
00000000: 6f39 98be 2e13 253e 8c30 973e dcb9 8dbe
00000010: af0c 12be 3436 88be d492 cfbd 9dab cabe
00000020: 3dc3 81be 132e 9abd 8287 ce3e a0d4 5e3d
00000030: b870 35be e617 633e ed63 c43e e339 a03e
00000040: 9828 b3bd ccc9 b1bd ec7b a63e 9f6d 913e
00000050: 00d6 963e 2432 703e f620 40be aafc b73e
00000060: c5eb 213e 1a04 f03e 1ede c63e 11c8 a13e
00000070: 6460 a53e aee0 d23e 95e9 1dbe 0859 39be
00000080: 58f0 3fbe 4923 83be f3b8 b43e 1ad9 ab3d
00000090: 8fc7 09be 1a1c 8bbe 0fe6 e1be 30e9 393d
000000a0: 5a0b cf3e c0bf 853e b737 bc3e 9848 a13e
000000b0: e02a 1e3e 8540 f93c a0c0 80be 450a b83e
000000c0: 52bb 62be e2ba 62be 84f7 053e 9051 413e
000000d0: fa95 44be ea14 b13e 2d62 b1be b15d e03d
000000e0: f3bb 123e 0ecb 4a3d 445d 57be 62a3 83be
000000f0: 5e52 a23e 8a6f fd3c 909a 53be 8623 e03e
00000100: 5807 58be d6d0 36be 8239 513e 3a64 ed3e
00000110: 55d2 22be 1852 a83c 7462 43be c0c3 73be
00000120: d5a4 bebc d6b5 8b3d 138a 163e 0955 cabe
00000130: 90ee 9f3e 8f07 9d3e d417 203d 202d db3c
00000140: 7bc7 603e 8802 93be 4f85 6a3e 0a23 4dbe
00000150: 063f 1cbd 16ca 533e 1c8a 333e 57a9 7bbe
00000160: e072 82be bf33 c6be 91fd b2be 6a7b 14be
00000170: dd77 d9be fc26 c8bd b517 93be 7364 313e
00000180: f2cd 6a3e 9e9c 9c3e 1169 5dbe 852d 73be
00000190: 759f 3f3e 1be7 2bbd 6872 ba3e da9d f1be
000001a0: 2f44 013f bd15 53be f8ce ecbe 289f 1dbe
000001b0: 67dd 82be a011 60be 5db8 803e 6da0 693e
000001c0: c0b8 393e 7068 5d3c 445f 4bbc 3818 3cbe
000001d0: 5e22 e53e f346 40be 538e afbe 78ed 943e
000001e0: 714a a43d 19b9 d43e a846 74be 87df 523e
000001f0: e2c9 bebe d2b6 813e 95b5 a23e 3d1f 11bd
00000200: cb70 803e 9edc 353d 5bb0 dabe 3ace 223e
00000210: 766a a0be 9596 503d 0016 b0be 8700 25be
00000220: 1236 e9bd b1ec c6bd 20b9 01bf 8b32 98be
00000230: c44a b5be 287b 95be 6da2 d6be 5a65 2ebe
00000240: 92a7 90bd 8396 dd3e 1736 b6be c6a0 c4be
00000250: e2b8 99be bcc4 e33e 9f74 15bc bf23 8bbd
00000260: 5cd7 5f3e 8116 60be 17bb 1ebe 53fd b53e
00000270: d299 853e e8b2 9ebe 1f5e 84bd 1e2f d03d
00000280: a6cc 363e 1815 20be df20 813e d4c5 40bd
00000290: 4b80 a6be 060b 213e b486 bdbe ef89 a33d
000002a0: 8f79 d6be 0861 2abe 1cc3 56bd 3e32 aebe
000002b0: 3b2a 22be e3e5 07bc 7a3a 9cbe 1ce0 14bc
000002c0: 37c1 623e f5df d73b 80ff bebe 5a50 533d
000002d0: 9e8d 7cbe 7313 bd3d dceb d0be 3f52 bbbe
000002e0: 123c 173d 74db a73e ee5a 50be 81bb e4bd
000002f0: 84a6 073d 78ac 8abe fe07 333d 1d82 af3d

attention.mha.in_proj_bias f4 [24]
0.027027411 0.012881255 -0.042547405 0.04050588 -0.0341132 -0.024802303 0.041173354 -0.03225824
-1.7891045e-06 -3.8521372e-07 1.1263744e-06 1.1491869e-06 -1.1384307e-06 1.8707356e-06 -1.3851734e-06 3.330743e-06
0.030623289 0.0790548 0.049618624 0.039811086 0.048869707 -0.047050055 -0.050057713 0.08640571
00000000: 9768 dd3c e60b 533c 3046 2ebd 7ee9 253d
00000010: 48ba 0bbd 332e cbbc 64a5 283d 3721 04bd
00000020: 2a21 f0b5 5fcf ceb4 ee2d 9735 c33d 9a35
00000030: 2ecc 98b5 fc15 fb35 32ea b9b5 bb85 5f36
00000040: b1dd fa3c 7ce7 a13d e63c 4b3d f310 233d
00000050: 9a2b 483d 8fb7 40bd 5109 4dbd 7af5 b03d

attention.mha.out_proj.weight f4 [8, 8]
-0.20919548 0.019456778 -0.27950817 0.21693583 -0.38218787 -0.2354896 0.021153549 -0.31283566
0.1376386 -0.08128059 -0.14131314 0.18982619 -0.06884425 0.14450273 -0.07693262 0.07968059
0.35401356 0.37222183 -0.18084794 -0.37648138 -0.21394177 0.13769479 0.17576586 0.14244872
0.19736767 0.38814676 -0.23334202 -0.3197786 -0.071564 0.32461414 -0.21987455 0.19656993
0.011627279 0.17076173 0.31306866 0.40878817 0.29652232 -0.14314692 -0.20561324 0.22723661
0.25775856 -0.035087906 -0.11562839 -0.023854507 -0.16347721 0.12134212 -0.40229192 0.36039984
0.04285838 -0.15798192 -0.086891256 -0.27701426 -0.25843254 0.103282295 -0.01424408 -0.24700011
-0.021170044 -0.009360635 0.18125598 -0.2784708 0.022544857 0.029784176 -0.24331783 0.3046365
00000000: 5737 56be d263 9f3c b21b 8fbe 6d24 5e3e
00000010: 21ae c3be 3024 71be 354a ad3c ff2b a0be
00000020: 22f1 0c3e 7076 a6bd 64b4 10be cc61 423e
00000030: 37fe 8cbd 86f8 133e d98e 9dbd 942f a33d
00000040: 4441 b53e dc93 be3e 3430 39be 2bc2 c0be
00000050: 8d13 5bbe ddff 0c3e f7fb 333e 14de 113e
00000060: c01a 4a3e 2cbb c63e 36f1 6ebe 05ba a3be
00000070: 2590 92bd d333 a63e cb26 61be a149 493e
00000080: 5880 3e3c 2adc 2e3e 894a a03e af4c d13e
00000090: c6d1 973e 1b95 12be 478c 52be b7b0 683e
000000a0: eef8 833e 56b8 0fbd 94ce ecbd 876a c3bc
000000b0: 9266 27be 3882 f83d 35f9 cdbe 5486 b83e
000000c0: 458c 2f3d 03c6 21be 0bf4 b1bd d0d4 8dbe
000000d0: 4551 84be ab85 d33d 0060 69bc 99ed 7cbe
000000e0: cd6c adbc 595d 19bc 2b9b 393e ba93 8ebe
000000f0: feaf b83c f2fd f33c 4f28 79be 51f9 9b3e

attention.mha.out_proj.bias f4 [8]
0.030551165 -0.050296064 -0.033138726 -0.039859705 0.044303738 0.0367971 -0.048777696 -0.026162552
00000000: 7046 fa3c 3f03 4ebd 79bc 07bd ee43 23bd
00000010: d677 353d 8eb8 163d 1fcb 47bd d952 d6bc

attention.norm.weight f4 [8]
0.9604364 0.96579206 1.0490611 1.0457225 0.95619273 0.9883782 0.9475848 0.9732369
00000000: 29df 753f 263e 773f a247 863f 3cda 853f
00000010: 0cc9 743f 5b06 7d3f eb94 723f 0e26 793f

attention.norm.bias f4 [8]
-0.03403724 -0.04260138 -0.047717202 -0.04636085 0.047203727 0.04298149 -0.04332619 -0.043432914
00000000: a26a 0bbd c97e 2ebd 1d73 43bd e0e4 3dbd
00000010: b258 413d 5c0d 303d ce76 31bd b6e6 31bd

regressor.weight f4 [1, 8]
-0.03346107 0.12499655 0.15249594 0.24272737 -0.022378633 -0.14512295 0.24711613 0.25671008
00000000: 7a0e 09bd 31fe ff3d e527 1c3e 868d 783e
00000010: 6553 b7bc 1c9b 14be 030c 7d3e 816f 833e
