esame/models_100epochs/experiment_classic_2_ws16.pth (torch, 6467 bytes, 11 tensors)

q_lstm.clayer_in.weight f4 [4, 5]
000000 4d 1f eb bc 5b 14 ad 3d 04 86 01 3f 31 c9 d8 bd
       -0.028701449 0.08451148 0.50595117 -0.10585249
000010 93 03 93 bd 00 ff 5d 3e 37 54 8a 3d fa dc a5 be
       -0.07178416 0.21679306 0.06754344 -0.32395154
000020 31 82 88 3e 8f c8 0e bf f9 72 2c be fc 3c 76 3e
       0.26661828 -0.5577478 -0.16840734 0.24046701
000030 6d 0c 33 3e b9 89 30 be 90 69 fe 3e 9f cf fc 3e
       0.17485209 -0.17240037 0.49689913 0.49377152
000040 65 85 c4 3e 24 e5 e1 be e0 78 51 be 53 ae 15 3e
       0.38383022 -0.44120133 -0.20456266 0.1461728

q_lstm.clayer_in.bias f4 [4]
000000 a3 8d a8 3e 40 68 3e be 2e b2 30 3e 38 06 96 3e
       0.3292056 -0.18594456 0.1725547 0.2930162

q_lstm.clayer_out.weight f4 [4, 4]
000000 38 e5 30 3d 08 6f 5a be 81 dc 23 3e 18 60 a9 3e
       0.04318735 -0.21331418 0.16002084 0.33081126
000010 16 61 09 3f c2 c6 3a 3e 79 6e 06 be a6 38 93 be
       0.53663766 0.18239883 -0.1312808 -0.28754157
000020 dd 1a 68 be d9 bd e4 3c df 50 b6 bc 97 54 bc 3e
       -0.22666498 0.027922558 -0.02225536 0.36783287
000030 ef d1 cc be d4 4c 12 3c 61 52 3a be 72 17 34 3d
       -0.40003917 0.00892945 -0.18195488 0.04396767

q_lstm.clayer_out.bias f4 [4]
000000 7f 94 dd 3e 43 9f 1e 3d d7 66 bb bd a5 eb 21 be
       0.43277356 0.038726103 -0.091504745 -0.15812548

attention.mha.in_proj_weight f4 [24, 8]
000000 75 1c ac 3e 36 3a 70 3e 2f 94 a2 3e 98 ae cc 3d
       0.3361546 0.23459706 0.3175368 0.099942386
000010 d7 2a a5 3d 13 98 52 be f0 47 a5 be 8e 9a 2f 3e
       0.08064812 -0.20565824 -0.32281446 0.17148802
000020 2c 07 e0 3e 3b 1f 9f 3d 1f 7f 7e be 24 da f7 3d
       0.43755472 0.077696286 -0.2485318 0.12102154
000030 75 fd ef bd 6e 64 31 3e 13 27 c7 be 1b 49 a1 be
       -0.11718265 0.17323467 -0.38897 -0.31501088
000040 7a 18 a0 be ac 1b 88 3c bd 02 62 3d 92 c2 66 3e
       -0.31268674 0.016614757 0.055178393 0.2253516
000050 0d 8d a4 be 5e db f4 3c 84 d1 16 3d 9c e1 49 be
       -0.32138863 0.029889759 0.036820903 -0.1971497
000060 cf f8 3e bd 59 7f c0 3e 74 25 60 be 78 7f 51 3e
       -0.046624 0.3759716 -0.21889287 0.20458782
000070 0f ae ab 3e 25 72 61 3e b8 56 3b be f1 50 b7 be
       0.33531234 0.22016199 -0.182948 -0.3580394
000080 41 65 c1 be 9d 6b 0f be 81 02 2e 3e 4a 9f a4 3e
       -0.37772563 -0.14005895 0.16993143 0.32152778
000090 97 3b db bd 66 9c e4 3e bc 5c 93 be ad cd 07 bc
       -0.10704725 0.44650573 -0.28781688 -0.008288783
0000a0 e1 53 9d be ff b1 a9 3b 90 71 f4 3e f4 19 7c 3e
       -0.30728057 0.0051786895 0.4774289 0.24619275
0000b0 7a 58 7c bd 0b 1e 8c be 27 7e 8f be c3 58 b4 be
       -0.061607815 -0.2736667 -0.28025934 -0.3522397
0000c0 ae dd ae be e2 fb d2 3e 33 34 91 be 19 62 0a be
       -0.34153503 0.41207796 -0.28360137 -0.13513984
0000d0 d8 a8 ad be 62 8b 5d bb f5 be 90 3e f3 39 80 bc
       -0.3391788 -0.0033805002 0.2827069 -0.015652632
0000e0 85 99 2a be 33 03 e3 3d fe 0a e4 3e c6 0c df 3e
       -0.16660126 0.110845946 0.44539636 0.43564433
0000f0 df 5f d4 be ef 56 c0 bd 1d 7c 90 be 27 76 b1 be
       -0.41479394 -0.09391581 -0.2821969 -0.34660456
000100 d7 2d db 3e 22 c6 8a be be 26 8a be 25 34 17 3e
       0.4280841 -0.27104288 -0.26982683 0.14765985
000110 0c 86 b1 3e d8 f1 bf be 5f a4 bb be 3f 41 aa bd
       0.34672582 -0.374892 -0.36648843 -0.08313226
000120 5f c3 77 3e 3c a7 11 3e 9a 82 c1 3e 26 2b c1 3e
       0.24195622 0.14223951 0.37794954 0.37728232
000130 03 aa c9 bc 21 9b c8 3e 1c 36 b7 bd cb e6 07 3e
       -0.0246172 0.39180854 -0.089458674 0.13271634
000140 e7 19 5f be 56 f8 8a 3d 95 58 9e 3e d1 be 6f 3d
       -0.21787225 0.067856476 0.30926958 0.058531586
000150 ac 74 f2 3e 4f 5b bc bb e7 02 55 3e bb 29 cf 3e
       0.4735464 -0.0057481895 0.20801888 0.40461525
000160 e5 19 46 3e 3e 81 7a be b4 53 ce bd b2 cc 25 3e
       0.19345815 -0.24463364 -0.10074559 0.16191366
000170 58 eb 7a 3d 3e 1e 8f bd 4a 49 4b 3e e8 30 83 3e
       0.061259598 -0.0698819 0.19852176 0.2562325
000180 27 fd b1 be 3c d9 f0 be fe e5 05 3f 1b 63 68 3d
       -0.34763452 -0.47040737 0.52304065 0.05673514
000190 6b 48 88 bd 67 de 51 be 74 8b 09 3f af c6 94 3e
       -0.06654438 -0.20494996 0.53728414 0.29057834
0001a0 4d b8 c3 be cf 0e fc be 1e 1b fc 3e 1b 83 97 3e
       -0.38226548 -0.49230048 0.4923944 0.29592213
0001b0 12 0c 1e 3d f8 d7 7e be 79 82 bf 3e ba fb 52 be
       0.03858573 -0.24887073 0.3740423 -0.20603839
0001c0 77 ce 03 3e 0a 5f 02 bf 32 e6 93 be 67 42 aa be
       0.12871729 -0.5092627 -0.28886563 -0.33253786
0001d0 a0 e2 e6 3e c8 51 f6 3e 8c 2a 91 be 9d 13 84 3e
       0.45094776 0.4810927 -0.28352773 0.25796214
0001e0 bd 6a bc be 9b aa 04 bf 2c 4d a5 3e 8b 69 b4 3e
       -0.36800185 -0.51822823 0.3228544 0.35236773
0001f0 8d 58 b0 3e bf 78 3f 3e b7 55 08 3f ba 2c 94 be
       0.3444256 0.18698405 0.5325579 -0.28940374
000200 9e 63 7d 3e dd 56 af bd c5 c1 0a bd ff aa 83 3e
       0.24745032 -0.0856149 -0.0338762 0.25716397
000210 bc b8 79 be 1a c2 83 3e 51 30 bb bd 40 19 bc 3e
       -0.24386877 0.25734025 -0.09140075 0.36738014
000220 72 d4 80 bc 9d e8 67 3e 4a e0 ce 3e 9e e1 19 be
       -0.015726302 0.22647329 0.40405494 -0.15027472
000230 ad 6a e1 be 43 af ca 3e f1 1b 5b be cc 91 89 3d
       -0.440267 0.3958684 -0.21397378 0.06717262
000240 2d 46 92 3e e0 a4 86 bd ca a6 aa 3e 55 08 88 3e
       0.28569165 -0.06574416 0.33330375 0.26568857
000250 4d da 4b bd d1 1b 22 3e e2 ee b7 3c 16 ea f8 3e
       -0.049768735 0.15830924 0.022452775 0.48616093
000260 6d f0 90 3e e5 cd 95 be 6f 62 47 3d f4 56 7e 3e
       0.2830843 -0.29258648 0.048677858 0.24837857
000270 65 ff 99 3e 5b e4 e7 3d 71 ae 40 3e 7a eb 05 be
       0.30077663 0.11322852 0.18816544 -0.13078108
000280 07 00 d3 3c 18 0e 96 be 0c 6d b2 3e 04 7a a6 3e
       0.025756849 -0.29307628 0.3484882 0.32514966
000290 57 f6 56 be 68 0b ac be 46 ca ac 3e 84 02 ac be
       -0.20992409 -0.33602452 0.33748072 -0.3359567
0002a0 b3 d6 7c 3e 47 e8 e3 be 35 57 48 be 90 d6 1e be
       0.24691276 -0.4451315 -0.19564517 -0.15511537
0002b0 52 68 b1 3e 31 a7 09 be 41 f7 bc 3e ae a5 55 3d
       0.34649903 -0.13442685 0.3690739 0.052159958
0002c0 8d 01 d7 3e 57 96 87 3e a7 a3 ac 3e 4f 61 c1 3e
       0.4199337 0.26481888 0.33718607 0.37769553
0002d0 3b d3 cb bd 89 e4 a6 bd 71 15 da 3d 68 cc de 3e
       -0.099523984 -0.08149058 0.10648621 0.43515325
0002e0 0d d8 1e be 88 02 b3 be 04 c9 a8 be 9f 5a 51 be
       -0.15512104 -0.3496287 -0.32965863 -0.20444725
0002f0 67 8e 95 3d fb a6 2d bd 9d d3 fa bd f0 ed 41 be
       0.07302552 -0.042395573 -0.12247393 -0.18938422

attention.mha.in_proj_bias f4 [24]
000000 57 dd 9b 3d 23 ff b3 3d 0e b2 8b bd 88 a9 7c bd
       0.076105766 0.08788898 -0.068210706 -0.061685115
000010 4f f7 c2 bd d8 49 b8 bd 27 13 d6 3c 22 0e bf bd
       -0.095198266 -0.089984596 0.02613218 -0.093288675
000020 a9 be cf 35 a6 c4 04 b6 76 02 0f 37 bb 36 97 b4
       1.5478191e-06 -1.9783997e-06 8.524037e-06 -2.8165763e-07
000030 d3 b8 87 35 00 05 4d b6 0f f8 85 35 91 f7 f3 36
       1.0112075e-06 -3.055029e-06 9.981467e-07 7.270785e-06
000040 50 25 5a 3d e4 c8 a8 ba 31 e7 75 3c e8 d2 74 bc
       0.05325824 -0.0012877253 0.015008734 -0.014942862
000050 8a 31 7a 3c 52 5d 02 bd ac 9c 58 bb 0f 40 50 3a
       0.0152706 -0.03182728 -0.0033052368 0.0007944116

attention.mha.out_proj.weight f4 [8, 8]
000000 59 a2 e6 be 3f 9f 8a be 26 97 91 3d a1 f1 7d be
       -0.45045736 -0.2707462 0.071089074 -0.24799205
000010 25 89 97 3e c5 89 1b be 2c 81 58 3d d6 1c a5 3e
       0.2959682 -0.15189274 0.052857563 0.32248563
000020 13 cd 20 3e 43 2c df 3d c6 19 b3 3e 5b 89 d2 bd
       0.1570323 0.10897114 0.349806 -0.10280105
000030 a4 f1 43 3e e2 35 8d be e0 da b9 3e d9 7d 1a be
       0.19135147 -0.27580172 0.362998 -0.1508707
000040 5b fe ed bd 3f 79 5b 3e 1f 9c c7 bc 53 15 98 3e
       -0.1162078 0.2143297 -0.024366437 0.2970377
000050 89 79 bc bd d2 87 5f be 42 be 8c 3e 78 93 35 be
       -0.092028685 -0.21829155 0.27488905 -0.17732036
000060 12 7a b8 3e 7b 28 9b 3e 5d 64 a8 3e 00 4d e6 bd
       0.36030632 0.30304322 0.3288907 -0.11245155
000070 a7 77 dd bd 47 03 8a be ce e6 ea bd 64 b0 13 be
       -0.108138375 -0.26955625 -0.11469804 -0.14422756
000080 f3 ab b1 be 0f ae 7a 3e b6 df 0f 3e 1a 54 02 be
       -0.347015 0.2448046 0.14050183 -0.12727395
000090 88 bd 0d bd 46 90 9e 3e 52 c9 89 bd ff 81 ac 3e
       -0.03460458 0.30969447 -0.06727852 0.3369293
0000a0 45 d1 70 3e 27 81 ed bd bd ba c1 be 18 97 a5 3e
       0.2351733 -0.115968995 -0.37837783 0.32341838
0000b0 a8 cc 03 be b8 64 a4 3e 3a bd 82 be cd df b9 3d
       -0.12871039 0.32108092 -0.25534993 0.0907589
0000c0 67 75 44 3e 17 11 bd bd 77 f6 a0 3e 97 d6 9f be
       0.1918541 -0.09231775 0.31438038 -0.31218407
0000d0 5e 9f 4f be 19 da 1d bd 74 dc 99 3e c6 6d 0c 3e
       -0.20275638 -0.038538072 0.30051005 0.1371375
0000e0 42 0f fa 3d fe 7f 15 3e 53 4b 8d 3e c6 91 aa bd
       0.122099414 0.14599606 0.2759653 -0.08328585
0000f0 c8 cb 32 bd ba a2 68 bd 36 cc e3 3d d9 48 9e bd
       -0.043651372 -0.056795813 0.111229345 -0.07728738

attention.mha.out_proj.bias f4 [8]
000000 3e 2f 6f bd 97 d1 67 3c 46 0c 96 bc 58 7a 3f 3d
       -0.058394663 0.014149091 -0.0183164 0.046747535
000010 db 16 2b bd e6 70 d2 bb 7b b6 47 3c a7 77 f3 39
       -0.041769844 -0.00642215 0.012189503 0.0004643772

attention.norm.weight f4 [8]
000000 e8 a1 7f 3f 9c 08 84 3f ca f5 7d 3f 1d 71 7c 3f
       0.99856424 1.0315127 0.9920317 0.986101
000010 76 7d 79 3f d0 54 84 3f 3e d5 76 3f 41 78 7b 3f
       0.97457063 1.0338383 0.9641913 0.9823037

attention.norm.bias f4 [8]
000000 8f 03 ad bc 3e 57 ac 3c eb bd ac bc 22 2c ad 3c
       -0.021119861 0.021037694 -0.021086654 0.021139208
000010 40 fb ad bc 37 8c ab bc 49 14 ae 3c 8c e7 ac bc
       -0.02123797 -0.020940883 0.021249907 -0.021106504

regressor.weight f4 [1, 8]
000000 e1 e9 be 3d 52 76 a5 be 2e 9d ae 3e 7d b7 34 bd
       0.093219526 -0.32316834 0.34104294 -0.0441203
000010 1c 63 26 3d be a9 19 3e a3 f5 cb bd f2 44 86 3e
       0.04062186 0.15006158 -0.09958961 0.26224476
