esame/models_100epochs/experiment_4_ws4.pth (torch, 6241 bytes, 11 tensors)

q_lstm.clayer_in.weight f4 [4, 5]
00000000: dce3 c83e 21cf f83e 9dd8 3f3e 1c75 74be
00000010: df44 adbe 22cf 953e 892a 843e 878f c4be
00000020: e0d9 843e 2d73 003f 5419 fc3d b63e 1abe
00000030: 395d 813e b59e ac3d e623 d73e 1fc1 85be
00000040: 73e8 113e 19f7 45be cdd0 0e3f 5b66 9fbe
0.39236343 0.48595527 0.18734975 -0.23872799 -0.33841607 0.29259592 0.25813702 -0.38390753
0.25947475 0.50175744 0.123095185 -0.15062985 0.25266436 0.084287085 0.42019576 -0.26123902
0.14248829 -0.19332542 0.55787355 -0.3113278

q_lstm.clayer_in.bias f4 [4]
00000000: 3640 6c3e 6c3a 3d3e 66ca 823c 82f4 343d
0.2307137 0.18479317 0.015965652 0.044178493

q_lstm.clayer_out.weight f4 [4, 4]
00000000: 1cf2 9dbd 37ef 1a3f c49e d13e 191c 463e
00000010: 41d0 d03d ed93 f03e 095d c53d 7212 fa3d
00000020: 4ff3 543e 8db0 b4be f592 02bf 220f 59bd
00000030: 6058 d3bd e699 b9bd d9ab 64be bcfe 8fbc
-0.07712194 0.6052126 0.4094144 0.19346656 0.10195971 0.46987858 0.09636886 0.122105494
0.2079594 -0.35290948 -0.5100549 -0.052992947 -0.103195906 -0.09062557 -0.2233118 -0.017577522

q_lstm.clayer_out.bias f4 [4]
00000000: 1a64 893e 66e5 70bd c0b8 993e e679 b83e
0.26834184 -0.05881252 0.30023766 0.360305

attention.mha.in_proj_weight f4 [24, 8]
00000000: 9173 e63e 872f b6be fa53 bd3e 033e 7c3d
00000010: c1d7 9dbe 6b87 153e a2c0 843e f2f7 9bbc
00000020: 28bc 863e 23e4 febe d922 d93e a40d 003f
00000030: cb37 bd3e 837a 3c3e d52e 8e3e 2eeb aebe
00000040: f79f b4bd 968a 09be 2d80 1fbe a625 6fbe
00000050: 4c25 bf3e 70ec bc3e 74ab a3be 0ded a93c
00000060: 1684 ab3d ade9 023f d378 1f3e 9dd0 953e
00000070: ca0c 7dbe b38a 583e 7657 7a3e 526d 05bf
00000080: 0681 85be 92fa e4bc ae34 b13e 29d7 cabd
00000090: 646b 273e 7c46 e13d 2783 643e 33a3 05be
000000a0: 2259 af3e 214b 323e 087f 44be bfc8 f53d
000000b0: 623a f13d cc96 813e 9a31 053f 1596 763e
000000c0: 0875 c1bc 1c37 8f3e d2df 7ebd b797 8abc
000000d0: eeed 0c3e 97bc 63be 4832 1c3e b2f6 58be
000000e0: a8b6 fb3d 44c5 83bd 8301 233e 033a 84be
000000f0: 57ed 9bbe bd43 993e 1f7f f43e cfd7 99be
00000100: aebe 793e 032d 3fbe f386 c7bd dee2 c43e
00000110: 07bc cb3e 11a3 5cbe 905d a93e f853 b83e
00000120: 56c2 8a3d 691a 0a3f ec41 92be f413 57be
00000130: f9b8 dabd 0981 233e 0671 623e aa5a 1b3e
00000140: 937f 94be 747b 86be fd1e 593e 55f3 a7be
00000150: ad93 55bd 8de9 b5bd 61cc 5bbe 1ce2 e23d
00000160: 68f9 bdbd bf12 c73e 241e 00be 6f14 c6be
00000170: 375d 643e 792f 333e 9520 68be 91ed 77be
00000180: 113f b43d 1742 93be 8e74 9ebb 5ca6 d53d
00000190: 061c acbe 4e6a 2fbe 1378 bfbe bd6d fc3e
000001a0: 05f5 ff3e 3ce7 d53d eff3 b43e 2773 00bd
000001b0: dabd 97be b342 423e e77d 943e 9c56 0d3f
000001c0: d3f7 4fbd 1cbf e43e 92b1 203e b349 5d3e
000001d0: a004 f2be 0af7 993e dd82 d3be 3251 ce3e
000001e0: d480 bdbd 1314 89be f754 303c adf7 42be
000001f0: 0148 edbe 238d 1fbd 7902 96bb 938a a93e
00000200: c6d8 77be 3736 2d3e f9af 093e fb9c 523c
00000210: 3bcd 153e 23f7 37be 9f75 a7be 5a69 95bd
00000220: e39f 05bf fd03 94be ac5a c53d 10a7 afbe
00000230: ef9d 25be 303b ba3c 5ebc c6bc 5ee8 37be
00000240: 164a 023e c9e4 c33c e969 443d b0fc 273d
00000250: 83e4 84be d85c 79be 1483 89bc b51e 9dbe
00000260: fbce c2bd 5254 0fbe 14a4 883e 778c 183c
00000270: 069d ac3e ed43 b93d c6c6 c8be 40d9 863e
00000280: f733 d0be 2369 19be 6934 6ebd 5b60 40be
00000290: 174a d4bd fb81 003f 618f 8d3e e5e2 373e
000002a0: fec7 063f 6b4c 9ebe def6 113a 0285 b53e
000002b0: 15b7 973e 2f7f e0be 5c8b 643e 6c66 6fbe
000002c0: 3bfc 783c 9689 12be 38bf 9fbe 4294 babe
000002d0: 7f8e 6fbe 547b a13e fae4 7e3e bd80 a2be
000002e0: 7869 94be d494 cabd c5ec 8bbe 9bd2 823e
000002f0: 0717 f93e 3331 4d3e 3202 80be 0733 4d3e
0.45010045 -0.35583135 0.36978132 0.061582576 -0.3082867 0.14602439 0.25928217 -0.019039128
0.26315427 -0.4978343 0.424094 0.50020814 0.3695663 0.1840611 0.27770105 -0.34163803
-0.088195734 -0.13431773 -0.15576239 -0.23354205 0.37333143 0.36899137 -0.31966746 0.020742917
0.08374803 0.5113781 0.15573435 0.29260722 -0.2471191 0.2114666 0.24447426 -0.52119935
-0.26075 -0.027951512 0.34610504 -0.0990432 0.1634956 0.10999772 0.22315656 -0.13050537
0.3424769 0.17411472 -0.19189084 0.1200118 0.11778714 0.2531036 0.5202881 0.24080689
-0.023615375 0.27971733 -0.06222517 -0.016918046 0.13762638 -0.2223991 0.15253556 -0.21187857
0.12290698 -0.0643411 0.15918545 -0.2582551 -0.30454513 0.29934493 0.47753236 -0.3004746
0.24389145 -0.18669514 -0.097425364 0.38454336 0.3979189 -0.2154658 0.33079195 0.36001563
0.06775348 0.5394655 -0.2856592 -0.21003705 -0.10679812 0.15967192 0.22113428 0.15171304
-0.2900358 -0.26266062 0.21203227 -0.32802835 -0.052142788 -0.08882437 -0.21464683 0.11078283
-0.09276086 0.3888149 -0.12511498 -0.38687465 0.22301184 0.17498578 -0.22668679 -0.24211718
0.088010915 -0.2876136 -0.0048356717 0.10432121 -0.3361513 -0.17130396 -0.37396297 0.49302474
0.49991623 0.10444495 0.35342357 -0.031359818 -0.29637033 0.18970756 0.29002306 0.5521028
-0.050773453 0.44677055 0.15692738 0.21610145 -0.47269154 0.30071288 -0.41310778 0.40296322
-0.09253088 -0.26773128 0.010762445 -0.19039793 -0.46343997 -0.038952958 -0.0045779315 0.33113536
-0.24203786 0.16915213 0.13446034 0.01285481 0.1462907 -0.17965369 -0.32706925 -0.07295485
-0.5219709 -0.28909293 0.09636435 -0.34307146 -0.16173528 0.0227333 -0.024259742 -0.17959735
0.12723574 0.023912804 0.047952566 0.041012466 -0.2595559 -0.24351823 -0.016786136 -0.3068749
-0.09512135 -0.1399701 0.26687682 0.009310833 0.3371355 0.09046159 -0.39214152 0.26337624
-0.40664646 -0.14981513 -0.05815545 -0.18786757 -0.10365694 0.50198334 0.27648452 0.17957647
0.52648914 -0.30917677 0.0005568097 0.3545304 0.29631868 -0.43847033 0.22318786 -0.23378915
0.015196855 -0.14310297 -0.31200576 -0.36441237 -0.23394202 0.31539404 0.24892035 -0.31738845
-0.28986716 -0.09891668 -0.27329078 0.25551304 0.4865038 0.200383 -0.25001675 0.20038997

attention.mha.in_proj_bias f4 [24]
00000000: 144e f03d 48f2 043e 38f8 a63d 203e d6bd
00000010: be8e eb3d 28d5 ec3d ddbb db3d 72a0 d73d
00000020: 6fd2 8fb5 d95f afb5 391d 6e36 1a0b f9b5
00000030: 6ced ca35 f0b0 acb6 3cba 8535 f35e 6536
00000040: e8e3 773c 4324 31bd b4fe 903b 7a2e 96bd
00000050: 95b1 55bc 513d 7a3d 2701 593d f771 113d
0.11733642 0.12983048 0.08152813 -0.10461068 0.11501835 0.11564094 0.107291915 0.105286494
-1.0715574e-06 -1.3066411e-06 3.5481773e-06 -1.8555177e-06 1.5119272e-06 -5.1465977e-06 9.963474e-07 3.4178927e-06
0.015130021 -0.043247472 0.004424894 -0.073330835 -0.013042827 0.061093632 0.052979615 0.035509076

attention.mha.out_proj.weight f4 [8, 8]
00000000: b989 87be 1fbd a5be efce 58be ac56 8fbe
00000010: 16c4 74be a49c 283d f193 e3bc 5c80 8fbe
00000020: b764 3fbe a414 5fbe 93f5 a23e 28ca 22be
00000030: a94e a9be 046c 733e 7704 3abd dc2f 7b3e
00000040: 95d6 4b3e 4895 b93e 1903 abbe 3885 963e
00000050: f4f0 c53e 2396 5dbe b6b1 8a3e ecf1 b23e
00000060: c549 4e3d 21d9 803e 7bfe 22be 0c6b 86be
00000070: 709e 323e 5666 9e3c 5f59 72be 5e85 6a3e
00000080: c6d4 92be b4c7 a43e 9030 d63e 513d 51ba
00000090: 95d2 b0be d790 213e 9527 063e 7cc1 f2bc
000000a0: 38bc 153d 4215 3e3e 0509 78be 91e6 18bc
000000b0: cccf ee3d d76d db3d bacb 593e 1e1d 76bd
000000c0: fda4 af3d f9bd 273e d5b0 c9bc 2031 a33e
000000d0: 3fc9 2b3d 7258 d5be a156 8dba 775a f5bc
000000e0: b888 cf3d 5fe9 1d3d 0aa8 8cbe 64bc 03be
000000f0: 3904 4e3d fb82 26be 9608 c63e 9648 2fbe
-0.26472262 -0.3237085 -0.21172689 -0.27995813 -0.23902926 0.04116501 -0.027780505 -0.28027618
-0.18690763 -0.21785218 0.31827983 -0.15897429 -0.33067825 0.23771673 -0.045414414 0.24529976
0.19906075 0.36246705 -0.334008 0.29398513 0.38660395 -0.21639304 0.27088708 0.34950197
0.05036332 0.25165656 -0.15917389 -0.26253545 0.17443252 0.019335907 -0.23666905 0.22902438
-0.28677958 0.3218361 0.41833925 -0.0007981854 -0.3453566 0.15777908 0.13101037 -0.029633276
0.036556453 0.18562797 -0.2422219 -0.009332315 0.11660728 0.1071431 0.21269122 -0.060086362
0.08576391 0.16381063 -0.024620453 0.31873417 0.04193997 -0.4166904 -0.0010783264 -0.029950364
0.10133499 0.03855264 -0.27471954 -0.12864834 0.050296996 -0.16260903 0.38678426 -0.17117533

attention.mha.out_proj.bias f4 [8]
00000000: 01e1 aebb 7ee9 763d 5da9 7d3c 2e31 49bd
00000010: b556 5ebd a041 873d 606e 92bd bbc9 febc
-0.005336881 0.06028127 0.015482274 -0.049119167 -0.05428191 0.06604314 -0.071499586 -0.031102052

attention.norm.weight f4 [8]
00000000: 81d7 8e3f 201e 7e3f 7fcf 8e3f df09 8f3f
00000010: 3304 763f 746b 843f 8e1e 883f d615 6c3f
1.1159517 0.9926472 1.1157073 1.1174887 0.9610016 1.0345292 1.0634325 0.9222082

attention.norm.bias f4 [8]
00000000: 249b 42bc eb1b cabb 48f2 2b3c a269 153c
00000010: a40a 99bb 091c aa3c fb7a 1a3c 4926 143b
-0.011877809 -0.006167879 0.010494776 0.009119423 -0.004670458 0.020765321 0.009428735 0.0022605828

regressor.weight f4 [1, 8]
00000000: 12e4 743e bc14 8c3e 0810 99be 5a2e ddbe
00000010: c03c eb3d 7192 5cbd 80c4 32be 2591 70bd
0.23915127 0.2735957 -0.29895043 -0.43199426 0.114861965 -0.053850595 -0.17457771 -0.05873217
