esame/models_100epochs/experiment_5_ws16.pth (torch, 3405 bytes, 5 tensors)

lstm.clayer_in.weight f4 [4, 9]
0.36002767 0.23067385 0.3960047 0.3725509 -0.38362947 -0.42145532 -0.056092527 0.144069
0.2250976 0.100587405 -0.31657898 -0.11267931 0.2817719 0.23638327 -0.016743 -0.3333076
0.3358978 0.42560405 -0.17985196 -0.06656096 0.30552703 -0.3648528 0.39185193 -0.05498473
-0.1156604 -0.2048706 -0.44988832 -0.0484809 -0.22509257 -0.31073874 0.1445538 0.17545858
0.028994158 -0.42050722 -0.057196926 0.006418686
00000000: 8c55 b83e c435 6c3e 21c1 ca3e febe be3e
00000010: 156b c4be fec8 d7be 47c1 65bd d386 133e
00000020: fc7f 663e c500 ce3d a416 a2be 69c4 e6bd
00000030: 6844 903e 750e 723e 9e28 89bc 4ba7 aabe
00000040: ccfa ab3e c6e8 d93e 1d2b 38be 1d51 88bd
00000050: 0a6e 9c3e fccd babe d1a0 c83e ab37 61bd
00000060: 5cdf ecbd 99c9 51be c357 e6be e893 46bd
00000070: ab7e 66be 2619 9fbe e905 143e 6aab 333e
00000080: 2885 ed3c b94c d7be 5347 6abd d753 d23b

lstm.clayer_in.bias f4 [4]
0.033436075 -0.3260623 0.081717014 0.42520252
00000000: 44f4 083d a3f1 a6be 405b a73d 25b4 d93e

lstm.clayer_out.weight f4 [4, 4]
-0.019938203 -0.21776426 -0.52043235 0.020714011 0.02452768 0.4437162 -0.24220459 -0.24802825
-0.03134048 0.19265579 0.16068193 -0.47751865 0.50648856 -0.5729722 -0.2885076 0.3189436
00000000: 7155 a3bc 98fd 5ebe 0e3b 05bf 6eb0 a93c
00000010: 46ee c83c c52e e33e 7b04 78be 1efb 7dbe
00000020: e05e 00bd 8f47 453e ce89 243e 537d f4be
00000030: 3ca9 013f 4eae 12bf 45b7 93be 934c a33e

lstm.clayer_out.bias f4 [4]
-0.0128343105 -0.1829751 -0.39183655 0.40412095
00000000: 0047 52bc d35d 3bbe cd9e c8be f1e8 ce3e

linear.weight f4 [1, 4]
-0.11758033 0.32313702 0.12687196 -0.49474922
00000000: f5cd f0bd 3772 a53e b9ea 013e c54f fdbe
