esame/models_100epochs/experiment_2_ws4.pth (torch, 6241 bytes, 11 tensors)

q_lstm.clayer_in.weight f4 [4, 5]
0	0x3ea1b0a0	0.31580067
1	0xbed99efd	-0.4250411
2	0x3da8ae93	0.082364224
3	0xbde5a619	-0.11213321
4	0xbef1a66e	-0.47197288
5	0x3ba9d7c4	0.005183192
6	0xbece7647	-0.40324613
7	0x3ea81dc2	0.32835203
8	0x3e22b4bd	0.15889259
9	0xbeb4e9ec	-0.35334718
10	0x3dd68bda	0.10475893
11	0xbf0c075d	-0.54698735
12	0xbd726fad	-0.059188534
13	0x3d15e20a	0.03659252
14	0xbf050682	-0.51963055
15	0xbe52e9f8	-0.20597064
16	0x3c6d325a	0.014477337
17	0x3e893917	0.2680137
18	0x3ea2f2d4	0.31825888
19	0x3ecf3b17	0.4047477

q_lstm.clayer_in.bias f4 [4]
0	0xbebc1cd9	-0.3674076
1	0xbeb986f2	-0.36235768
2	0x3e85c576	0.26127213
3	0x3e85cbdb	0.26132092

q_lstm.clayer_out.weight f4 [4, 4]
0	0x3eb5249d	0.35379496
1	0x3dcd3dc2	0.10021545
2	0xbd97caa2	-0.07411696
3	0x3e3a6ee4	0.18206364
4	0x3db16360	0.086615324
5	0x3e36b575	0.17842658
6	0xbefa6b1f	-0.48909852
7	0xbe3ce54e	-0.18446848
8	0x3e1ca789	0.15298285
9	0x3f05b153	0.522237
10	0x3e7d497b	0.24735062
11	0xbe8a833a	-0.27053243
12	0x3efaff05	0.4902269
13	0xbe5647f0	-0.2092588
14	0xbe57c103	-0.21069722
15	0xbec780ee	-0.38965553

q_lstm.clayer_out.bias f4 [4]
0	0xbd3e5e1a	-0.04647646
1	0x3e8b57a9	0.27215317
2	0x3e3ed79a	0.18636933
3	0xbe3c0d6f	-0.183645

attention.mha.in_proj_weight f4 [24, 8]
0	0xbe36694e	-0.17813608
1	0x3da30fa2	0.07961966
2	0x3e09dbc8	0.13462746
3	0xbeafab7e	-0.34310526
4	0x3efdfbe8	0.49606252
5	0xbdb02d3d	-0.086023785
6	0x3c91d3ed	0.01780125
7	0x3c926731	0.017871471
8	0xbeb554d8	-0.35416293
9	0xbefaaa30	-0.48957968
10	0x3e9b43f0	0.3032527
11	0x3dff1b6a	0.12456401
12	0xbeef1bb0	-0.4670081
13	0xbec2884a	-0.37994605
14	0x3ea3f015	0.32019106
15	0x3dced632	0.10099448
16	0x3dc847d3	0.097793244
17	0xbea68b6f	-0.32528254
18	0xbe03e187	-0.12879
19	0xbde02ea9	-0.109464
20	0xbe0a1e27	-0.13488065
21	0xbedb2522	-0.42801768
22	0xbda584dc	-0.080819815
23	0xbd6bbfd6	-0.057555996
24	0x3a828624	0.000995819
25	0x3dcb97dc	0.09941074
26	0xbe518606	-0.20461282
27	0x3e4f2ecc	0.20232695
28	0x3e3724f8	0.17885196
29	0xbdee5560	-0.11637378
30	0xbea84c53	-0.3287073
31	0x3e409f81	0.18810846
32	0x3e2db9b7	0.16965376
33	0xbe248a01	-0.1606827
34	0x3eba5ca6	0.3639881
35	0xbe5bab4c	-0.21452063
36	0x3eb3a7ff	0.35089108
37	0x3eb0e76c	0.3455156
38	0xbe876aaf	-0.2644858
39	0x3e81ac3e	0.25326723
40	0xbea33072	-0.31872898
41	0xbe2c1983	-0.16806607
42	0xbe0dc625	-0.13845117
43	0xbe992a14	-0.29914916
44	0x3efa2f25	0.48864093
45	0x3d3642f9	0.044497464
46	0x3e98b5d1	0.29826215
47	0xbe7bf8ba	-0.246066
48	0x3e295d54	0.16539508
49	0xbe5b9118	-0.21442068
50	0xbe819222	-0.25306803
51	0x3de89310	0.11356175
52	0x3e018cd3	0.12651376
53	0x3e7b9533	0.24568634
54	0xbec3b6e1	-0.38225463
55	0xbeb35910	-0.35028887
56	0x3e2fda74	0.17173177
57	0x3e49010a	0.19629303
58	0x3dbbfa59	0.091786094
59	0x3e96d133	0.2945648
60	0xbd0e240d	-0.03470235
61	0x3eaa8e7e	0.33311838
62	0x3eedbb3f	0.4643192
63	0x3cc6edf0	0.02428338
64	0x3e8d3480	0.27579117
65	0x3e1c6e99	0.15276565
66	0x3ed91053	0.42395267
67	0xbe122537	-0.14272009
68	0xbeb12fe7	-0.3460686
69	0xbdd967fa	-0.10615535
70	0xbddd5e28	-0.108089745
71	0x3ea4ccce	0.32187504
72	0xbe613318	-0.21992147
73	0x3e7cd2f3	0.24689846
74	0xbe35d807	-0.17758189
75	0x3e4e0329	0.20118393
76	0x3da976e6	0.08274631
77	0xbed1d99c	-0.40986335
78	0xbded6cad	-0.11592994
79	0xbeb57ec7	-0.35448286
80	0x3e6a3dd7	0.22875153
81	0xbe8310e8	-0.25598836
82	0xbd527661	-0.051382426
83	0x3c968c88	0.018377557
84	0xbe0adc51	-0.13560607
85	0x3e2621fd	0.16223903
86	0xbea53674	-0.32268107
87	0xbebfb58c	-0.37443197
88	0xbe9659fb	-0.29365525
89	0xbcf7ad39	-0.030233966
90	0xbe7e6468	-0.2484299
91	0xbd019b88	-0.031642467
92	0xbe422276	-0.18958458
93	0x3e865b2c	0.26241434
94	0x3e90d51a	0.28287584
95	0x3d033eaf	0.0320422
96	0xbdb9cc07	-0.09072118
97	0xbea61af2	-0.32442433
98	0x3da8f96a	0.08250697
99	0xbe7c5afe	-0.24644086
100	0x3dc23ed9	0.094846435
101	0x3eb6dff4	0.35717738
102	0x3d2ade32	0.04171581
103	0x3e9fd743	0.3121892
104	0x3ea12b36	0.3147828
105	0xbc28cb1a	-0.010302329
106	0xbe661fd4	-0.22473079
107	0x3f01421c	0.504915
108	0xbe7a9298	-0.24469984
109	0xbe99aae4	-0.30013192
110	0x3e6f98bb	0.23398106
111	0x3ed76f23	0.42076978
112	0xbbf0a63e	-0.0073440364
113	0xbdbf0f78	-0.09329122
114	0xbe756eb2	-0.23968008
115	0xbe1e3d8d	-0.15453167
116	0x3f0ec1ed	0.5576466
117	0x3d08ed42	0.03342939
118	0xbd80c740	-0.06288004
119	0xbe6b569a	-0.22982255
120	0xbe52cdfb	-0.20586388
121	0x3e3527d7	0.17690979
122	0x3dac9a92	0.084279194
123	0x3ec921f2	0.3928371
124	0xbdf0c448	-0.11756188
125	0x3e0e95d5	0.13924344
126	0x3e97b90f	0.29633376
127	0x3e5e098a	0.21683326
128	0x3eca9179	0.39564112
129	0x3ebb707d	0.3660926
130	0x3ea1f7fa	0.31634504
131	0x3eeed16e	0.46644157
132	0xbe577d43	-0.21043877
133	0xbe6d219d	-0.23157354
134	0x3e49872c	0.1968047
135	0x3de8c85b	0.1136634
136	0xbe4b5dc2	-0.19859985
137	0xbe089e85	-0.1334172
138	0x3d8cedf2	0.06881322
139	0x3e46e85b	0.19424574
140	0x3e144626	0.14479885
141	0xbe939d31	-0.28830865
142	0xbe40535f	-0.18781804
143	0xbe504772	-0.20339754
144	0xbdc1e01e	-0.09466575
145	0x3edee12e	0.43531173
146	0x3e4bc4e4	0.19899327
147	0x3ef04243	0.46925554
148	0x3c70bb95	0.014693161
149	0x3e44e90f	0.1922953
150	0x3e2c57ab	0.16830318
151	0xbea7bfa9	-0.32763413
152	0xbd1af2f7	-0.037829366
153	0xbda25d9a	-0.07928009
154	0xbe549ef3	-0.2076376
155	0xbed7896b	-0.4209703
156	0x3ece260f	0.4026341
157	0x3e7aec96	0.24504313
158	0x3e00000e	0.12500021
159	0x3ea9609f	0.3308153
160	0xbe71b0f2	-0.23602656
161	0xbe1eaf53	-0.15496568
162	0x3e772f87	0.24139224
163	0x3d4dd5ff	0.05025291
164	0xbe4fe380	-0.20301628
165	0xbe890ea7	-0.2676899
166	0x3d6fbe3b	0.058531027
167	0xbe625d3b	-0.22105877
168	0x3dac1fa9	0.08404476
169	0x3edbf689	0.4296153
170	0xbe09a872	-0.13443163
171	0xbccc68ad	-0.024952257
172	0x3e469b90	0.1939528
173	0xbd23e3a5	-0.04001202
174	0x3b20dac7	0.0024544464
175	0x3efa6bff	0.4891052
176	0xbe205b24	-0.15659767
177	0xbebfcc28	-0.37460446
178	0xbe44eb17	-0.19230305
179	0xbad145e7	-0.0015966267
180	0xbe9c00a8	-0.3046925
181	0xbddae86c	-0.10688862
182	0x3e37ea30	0.17960429
183	0x3e12db66	0.14341506
184	0xbe470b7f	-0.19437979
185	0xbe9f915d	-0.3116559
186	0xbe204f29	-0.15655197
187	0xbe99b187	-0.30018255
188	0xbd7e3081	-0.062057976
189	0xbf037599	-0.51351315
190	0x3db1fba2	0.08690573
191	0xbecf02a9	-0.40431717

attention.mha.in_proj_bias f4 [24]
0	0x3d9ba96e	0.076006755
1	0xbd81dbb1	-0.06340731
2	0xbd79e89f	-0.06101286
3	0x3cba7943	0.0227629
4	0x3d718edd	0.058974136
5	0x3d8ce4f3	0.06879606
6	0xbda637f2	-0.081161395
7	0x3d922e07	0.07137685
8	0xb53fcebd	-7.145389e-07
9	0x35e86d05	1.7317076e-06
10	0x360402d6	1.9671184e-06
11	0xb5217ad3	-6.0155907e-07
12	0xb5fa28bf	-1.863831e-06
13	0x34b2c836	3.3300756e-07
14	0xb5a012e9	-1.1926433e-06
15	0x344769c6	1.85718e-07
16	0xbdb01e26	-0.085995
17	0x3c73a9f3	0.014872062
18	0x3baa3f84	0.00519556
19	0xbb4f9045	-0.0031671685
20	0xbddad736	-0.106855795
21	0xbda09100	-0.078401566
22	0xbdd66000	-0.10467529
23	0x3dc1874b	0.09449633

attention.mha.out_proj.weight f4 [8, 8]
0	0x3e56f517	0.20991932
1	0xbe4c6baf	-0.19962953
2	0x3e846441	0.25857738
3	0xbe76b5db	-0.2409281
4	0xbe40b16a	-0.18817678
5	0xbe8b4bc9	-0.27206257
6	0xbe036977	-0.128332
7	0x3d037cf2	0.03210158
8	0x3ee48849	0.44635227
9	0xb9890461	-0.0002613394
10	0x3e8a53ab	0.2701696
11	0x3cf03168	0.029320434
12	0x3e715564	0.2356773
13	0x3e974e0f	0.2955174
14	0x3ec5e14c	0.3864845
15	0xbe8bace6	-0.2728035
16	0x3e66c4de	0.22536036
17	0x3e84239b	0.25808415
18	0xbd9944e3	-0.07483842
19	0xbe0708da	-0.1318697
20	0xbe90b617	-0.28263924
21	0x3d824604	0.06361011
22	0xbebb69c9	-0.36604145
23	0x3e6bc2f1	0.23023583
24	0x3e626f98	0.22112882
25	0xbec8b64a	-0.39201576
26	0x3cb75ddb	0.022383621
27	0x3cf3235a	0.029679943
28	0x3daeaadc	0.085286826
29	0x3e8b8f55	0.2725779
30	0xbea1c1af	-0.3159308
31	0x3e75398c	0.23947734
32	0x3ed13715	0.40862337
33	0x3da24373	0.07923021
34	0xbe9d6c20	-0.30746555
35	0xbe615896	-0.22006449
36	0x3aec1a60	0.0018013231
37	0xbe3b1c8b	-0.18272607
38	0x3ea26ca0	0.317235
39	0x3e445fba	0.19177142
40	0x3e336a85	0.17521103
41	0xbd8f27a4	-0.06989983
42	0x3e488f17	0.19585834
43	0x3e0a395f	0.13498448
44	0xbe89ace3	-0.26889715
45	0xbec3ab69	-0.38216713
46	0xbe86d4be	-0.26334184
47	0x3ea3ac65	0.31967464
48	0xbee664c1	-0.44998744
49	0xbe48962e	-0.19588539
50	0x3e4b96cb	0.19881742
51	0x3de5b6dd	0.11216519
52	0x3eba68fb	0.3640822
53	0xbeb02aa0	-0.3440752
54	0xbeac3568	-0.33634496
55	0x3e86cada	0.26326638
56	0x3e51e25a	0.20496503
57	0x3e8dc335	0.27687994
58	0x3d7974bf	0.060902353
59	0x3df65009	0.12026984
60	0x3eb81e2a	0.35960513
61	0xbe8065f6	-0.2507779
62	0xbe4f188c	-0.20224208
63	0x3e98bacc	0.29830015

attention.mha.out_proj.bias f4 [8]
0	0x3d0017a6	0.031272553
1	0xbdc1c0e9	-0.09460623
2	0x3db8842b	0.09009584
3	0x3ba17ca4	0.0049281884
4	0xbde0bc53	-0.1097342
5	0x3d999bc0	0.0750041
6	0xbd14572d	-0.03621595
7	0x3d22f4ef	0.039784368

attention.norm.weight f4 [8]
0	0x3f826009	1.0185558
1	0x3f8af75d	1.0856739
2	0x3f855a85	1.0418249
3	0x3f8caf2d	1.099096
4	0x3f70878b	0.9395682
5	0x3f8426dc	1.0324359
6	0x3f73bb71	0.9520789
7	0x3f8cff4a	1.1015408

attention.norm.bias f4 [8]
0	0x3d1db608	0.038503677
1	0x3d2bcbd2	0.041942425
2	0xbd27e3cb	-0.040988725
3	0x3d320444	0.0434611
4	0x3ceef7be	0.029170867
5	0xbd1e5454	-0.03865464
6	0xbd012f20	-0.031539083
7	0xbd37c07f	-0.044861313

regressor.weight f4 [1, 8]
0	0xbe9703de	-0.29495138
1	0xbebeb0fb	-0.372444
2	0x3e406344	0.18787867
3	0xbe9dc7ba	-0.30816442
4	0xbda12458	-0.0786826
5	0x3e9ed9e8	0.31025624
6	0x3e0eebb7	0.13957106
7	0x3e998556	0.2998454
