esame/models_100epochs/experiment_14_ws4.pth (torch, 6259 bytes, 11 tensors)

q_lstm.clayer_in.weight f4 [4, 5]
00000000: 6b72 b23e 50f0 89be 2e8a 08be 87c6 a03e
00000010: a416 49be d5e1 debe 4051 80be c4a4 f93d
00000020: d621 b03c 55f7 56be 1338 75be d48e 253e
00000030: 6ca6 883e 6967 be3e d5d9 2bbe 4e28 613e
00000040: 7f8e 9dbe e134 433e 80cb bf3e 0085 a33e
0.3485292 -0.26941156 -0.13333961 0.31401464 -0.19637543 -0.4353167 -0.2506199 0.1218963
0.02150051 -0.20992787 -0.23947172 0.16167766 0.2668947 0.3718827 -0.16782315 0.21988031
-0.30772778 0.1906314 0.37459946 0.31937408

q_lstm.clayer_in.bias f4 [4]
00000000: 4411 49be 104b f13e 73be ebbe 7d68 c7bd
-0.19635493 0.4712758 -0.4604374 -0.097367264

q_lstm.clayer_out.weight f4 [4, 4]
00000000: 1ba0 b2be d52e d03e 9688 ba3d 8af9 023c
00000010: 11ba 3bbd edab fabd 0755 f53e a4c8 b2b9
00000020: 0dae bbbd 4955 273e 947d fabe 3d75 13be
00000030: 7c44 143e 83b3 85be efdd 493e a7b5 f8be
-0.34887776 0.4066073 0.09108083 0.007994065 -0.045831744 -0.122398235 0.47916433 -0.00034100295
-0.09164057 0.16341127 -0.48923934 -0.14400192 0.1447925 -0.2611352 0.19713567 -0.4857609

q_lstm.clayer_out.bias f4 [4]
00000000: aa28 1abe 9757 6bbe 9819 f53e 383c 5d3e
-0.15054575 -0.22982632 0.4787109 0.21605003

attention.mha.in_proj_weight f4 [24, 8]
00000000: c9c1 a8be 0429 8d3e f2b7 bbbe e875 f1bd
00000010: 1281 453e 8d63 ca3e d933 d73e 8d32 8dbd
00000020: b2ce 313e afca b3be fd55 e7bd aefe 27be
00000030: 2dc4 bc3d 88f8 90be 5aa4 c53d c2ab 5c3e
00000040: 3f27 9a3e 9ba0 debd 6186 dc3e 7581 bebe
00000050: fb75 b2bd b06b 2f3e 892a e63d 319a 723e
00000060: 5471 82be 6296 983e f11a e0be d4b2 a8be
00000070: f18f 7fbd ee05 d9be 8bec d0be 88c1 debe
00000080: 56a4 c23e 76bb 013e 3ae2 2dbe d2e6 4cbd
00000090: 50ee d2be d6d2 cdbe 9ec0 96be b004 d8be
000000a0: 18f8 a13e d141 f6bd 4f84 17be 9e4a cfbe
000000b0: 7b28 203d 90f9 8bbd b914 95be 8c7d 633e
000000c0: f2af ac3e 2a78 abbe 2125 8b3e d5e2 32bd
000000d0: 8191 f73c c7fd 1e3e 1985 d4bd c79b a23e
000000e0: 6e49 6f3e 4e23 a0be f1d4 6cbe 8078 cabe
000000f0: 7287 2e3e a863 a1be 92a7 b7be 4ca0 73be
00000100: 8eaf d6be 008f afbe a109 c13e 73a2 733e
00000110: 6385 953e 086b 2cbe a46a 42be d963 0bbe
00000120: 4fd0 b5bc ab44 aebe cf7f bf3d cc37 78be
00000130: 0dad c5bc 2c20 dc3e f169 503d 4728 9e3e
00000140: 74f2 aebe e797 bebd 58b7 6fbe 3585 c8bb
00000150: 4f41 90be 7e4f 62be dd13 ebbe f28b 28be
00000160: dc50 ac3d 3f67 51bd 3173 dbbe fad6 953e
00000170: 07af d73e 059b 8cbe 611f a23d 1415 993e
00000180: 63ea c4be 09ed b6be bb5f 5b3e d3a3 28bd
00000190: ba81 733e 34bb 43be 1d9f e53d 2fca 9b3e
000001a0: 328a cdbd ad76 0abe ffc1 d5be 090e 9dbd
000001b0: a971 b63e ef2d bebe 9a6b 303c 4db0 a43e
000001c0: d3f3 35be bcd2 59be e838 9cbd d455 e6bd
000001d0: e352 5fbd 510b cebe d3b3 fd3d 7987 19be
000001e0: 3b7e f5bc 5a66 a3bb ef4d 5e3e 8a83 98be
000001f0: 08b3 9bbe abb4 abbe dd1f 93be 2968 55be
00000200: 3dec b53e bf8d a4be 5fe9 89be 27fb c0be
00000210: 5cfe 56be 077a b4bd d412 a0be 251a 7bbd
00000220: 61ea 063e f9e3 b4bd 36b2 4c3e 2f8d db3d
00000230: aff9 e23e e47e 62bd 95ed bb3e ed58 913e
00000240: 3654 843e 7678 973e 1c4a aebe fd09 afbe
00000250: 20ce 063e 37a2 ea3d ccca af3e 0569 f6bd
00000260: 857d 4abd b944 a73e 4617 7abc 2d22 c33e
00000270: b36a 85be d9fb ebbd 3283 623b 1ef1 463e
00000280: a5b7 cbbe 43c9 0ebe afb2 aa3e c865 e93d
00000290: 21ea 9f3e 3c7e bdbd 7235 74be d187 7bbe
000002a0: 1a97 9abe d100 c4be 4b98 8b3e f4c7 383e
000002b0: 1d50 69be 64b8 f33e daea 4c3e be2b 7c3e
000002c0: 8989 0fbe 8d62 af3e 1628 b1be ccfb 913e
000002d0: 1b83 94be ca45 893e f940 1ebe 0fbc 943e
000002e0: 3f92 c3be 892d d2bd 07ec c5bd 1b99 69be
000002f0: dbd8 5bbe 93a7 42bd d32a c23d 91b8 c13e
-0.32960346 0.27570355 -0.36663777 -0.11790067 0.19287518 0.39529076 0.42031744 -0.068944074
0.17364004 -0.35115573 -0.11295698 -0.16405746 0.09217105 -0.28314614 0.09650488 0.21549895
0.30108067 -0.10870477 0.43071273 -0.37208143 -0.08713909 0.17130923 0.11238582 0.23691632
-0.25477087 0.29802233 -0.43770555 -0.32948935 -0.062393133 -0.42387336 -0.40805468 -0.43507028
0.38016003 0.12669167 -0.1698083 -0.050024815 -0.41197443 -0.40199918 -0.2944383 -0.42191076
0.31634593 -0.12024272 -0.14796565 -0.40486616 0.039101105 -0.0683471 -0.29117373 0.22215861
0.33727986 -0.33490115 0.27176765 -0.043673355 0.030220749 0.15526496 -0.10376949 0.31759474
0.23367855 -0.31276935 -0.23128106 -0.3954506 0.17043856 -0.31521344 -0.35870034 -0.23791617
-0.41930813 -0.34288788 0.3770266 0.23792438 0.29203328 -0.16837704 -0.18985993 -0.13612308
-0.022194056 -0.34036765 0.093505494 -0.24240035 -0.024130369 0.42993295 0.050882284 0.30890104
-0.34169352 -0.09306317 -0.23409784 -0.006119395 -0.28174827 -0.22100636 -0.45913592 -0.16459635
0.0841386 -0.051123854 -0.42861322 0.29265577 0.42125723 -0.2746202 0.07916141 0.29898894
-0.38460073 -0.35727718 0.21423237 -0.04117186 0.23779956 -0.19114381 0.11211989 0.3042769
-0.10036124 -0.13521834 -0.4174957 -0.076686926 0.3563359 -0.3714442 0.010767842 0.32165757
-0.17768793 -0.21271795 -0.076280415 -0.11246839 -0.054522406 -0.4024301 0.123878144 -0.14993085
-0.029967418 -0.0049865665 0.21709417 -0.29787856 -0.30410028 -0.33536276 -0.28735247 -0.20840515
0.35531798 -0.32139394 -0.2693586 -0.37691614 -0.20995468 -0.08812337 -0.31264365 -0.06130423
0.13175346 -0.08832545 0.19989857 0.10720288 0.44331118 -0.055296794 0.36704698 0.28388157
0.25845498 0.29584092 -0.34040916 -0.34187308 0.13164568 0.11456721 0.3433441 -0.1203175
-0.04943611 0.3266962 -0.015264338 0.38112012 -0.26057968 -0.115226455 0.0034563062 0.19427916
-0.39788547 -0.13943963 0.3333945 0.11396366 0.31233314 -0.09252593 -0.23848513 -0.24563529
-0.30193406 -0.38281873 0.27264628 0.18045026 -0.22784467 0.47601616 0.20011464 0.24626061
-0.14017309 0.34254876 -0.34600896 0.28512418 -0.29006276 0.26811057 -0.15454473 0.29049727
-0.38197514 -0.102625914 -0.09664159 -0.22812311 -0.21469443 -0.047523092 0.09480824 0.37836125

attention.mha.in_proj_bias f4 [24]
00000000: 45a1 e53c c47d e9bc 68c0 0e3d 9cd2 ffbc
00000010: 813f 01bd a0b1 fbbc d842 dc3c f092 003d
00000020: 48c8 78b4 4940 a6b5 ea61 93b4 cca0 ca36
00000030: aee2 1cb7 ab99 efb5 c522 bcb5 5ae0 4d33
00000040: e86f 23bc ac38 763c db21 4cbd cd5b 01bd
00000050: 503b 8a3c 53d0 633d c961 35bd e5c5 723c
0.028031 -0.028502353 0.03485146 -0.031228356 -0.031554703 -0.030724347 0.026887342 0.03139013
-2.3169662e-07 -1.2386673e-06 -2.7452126e-07 6.0387883e-06 -9.351103e-06 -1.7851611e-06 -1.4017211e-06 4.793433e-08
-0.009975411 0.01502816 -0.049836975 -0.03158169 0.016873986 0.055618595 -0.04428271 0.01481769

attention.mha.out_proj.weight f4 [8, 8]
00000000: 9830 9dbe 779e 393e 575b 093d 58da ce3e
00000010: 30a3 de3d 8638 02be 8229 a03e 1bb1 e73c
00000020: ac8b 5cbd a043 943d 1285 a83e 9399 b53c
00000030: be1f 85be 32e5 2ebe 6d76 8f3e 6929 51be
00000040: 8558 45be 7cec 80be 2d19 2bbe 08c1 d4bd
00000050: 7044 a0ba 7066 4a3e 6899 c23e 3215 a13e
00000060: 625f a7bc c07d 623e 7bac 683e 04b1 64be
00000070: 75ac ca3d 2eed 3cbe 87eb 9c3e bd5c 9bbd
00000080: d2b1 b93d b1db 90bb 3a90 293e f549 163e
00000090: 1f9e aabe 5ef0 1a3e 49bd 973e f7a1 f4bd
000000a0: f08f 8abe 11bc 48be 46c5 02be 6b79 383d
000000b0: e104 66bd a294 a23d b2df bfbd a9e7 a23e
000000c0: 0edf ca3d 2291 8fbe 305c 25be 5761 47be
000000d0: 4ac3 3cbd 8243 dcbe 52ea 1c3e 8f12 babe
000000e0: a524 063e 340d 753e c722 91be 57c0 90be
000000f0: 76eb 42be b103 833d 01b3 bb3c 4c07 88be
-0.30701137 0.18126856 0.033534374 0.40400958 0.10870969 -0.12716874 0.31281668 0.028282693
-0.05384414 0.07239461 0.32914025 0.022167956 -0.2600078 -0.17079619 0.2802004 -0.20425953
-0.19272049 -0.25180423 -0.16708823 -0.1038838 -0.0012227427 0.1976564 0.38007665 0.31461483
-0.020431224 0.22118282 0.22722046 -0.22333151 0.09896175 -0.18449852 0.30648443 -0.07586048
0.0906712 -0.0044207205 0.16558924 0.1467665 -0.33323762 0.15130755 0.296366 -0.11944955
-0.2706294 -0.19602992 -0.12770566 0.04503767 -0.056156997 0.07938506 -0.09368838 0.31817368
0.099058256 -0.28040415 -0.16148448 -0.19470726 -0.04608468 -0.43020254 0.15323761 -0.36342284
0.13099916 0.23930818 -0.28346846 -0.28271744 -0.19035134 0.063971885 0.022912504 -0.26568067

attention.mha.out_proj.bias f4 [8]
00000000: 223d f03c 6130 92bc 5660 213c 5f8a 873c
00000010: 6cbc b6bc 8144 d03c a50f 95bd a34e 803c
0.029326025 -0.017845334 0.009849628 0.016545473 -0.022306643 0.02542329 -0.072783746 0.015662497

attention.norm.weight f4 [8]
00000000: 6a54 7c3f da20 823f 4655 833f 740f 723f
00000010: a8bf 7f3f e3d6 793f 9be3 783f 5b93 793f
0.98566306 1.0166276 1.0260398 0.9455483 0.9990182 0.97593516 0.972223 0.9749047

attention.norm.bias f4 [8]
00000000: 5bec 0d3d 1809 21bd fa9b 1d3d 8d19 113d
00000010: 577e 323d fcca 093d 3673 11bd 72a7 1abd
0.034649234 -0.039315313 0.03847883 0.035424758 0.04357752 0.033640847 -0.035510264 -0.037757345

regressor.weight f4 [1, 8]
00000000: 237c 43bd 36c4 ba3e e352 49be 06da 00be
00000010: 2764 c3bc 56c4 26bd ec9b ae3d fcfa 9a3e
-0.047725808 0.36477822 -0.19660525 -0.1258317 -0.023851467 -0.040714584 0.085258335 0.3026961
