esame/models_100epochs/experiment_2_ws16.pth (torch, 6259 bytes, 11 tensors)

q_lstm.clayer_in.weight f4 [4, 5]
00000000: 3ae6 87be 3727 0ebe 7d56 77be 60fd 90be
00000010: b63d fa3d 1b28 c13d cb3f f23d 09fb 14bd
00000020: 14c3 1abd a7ca 91bd d4ca 333e bbda 82be
00000030: dc28 243e f194 993e 7d61 a93e b50c 99be
00000040: 0878 a23e 2fd8 5bbe 499c 9c3e 94ef c63e
-0.26542836 -0.13882147 -0.24154086 -0.2831831 0.12218802 0.09431478 0.11828574 -0.03637222
-0.037783697 -0.07118731 0.17557842 -0.25557503 0.16031212 0.29996446 0.3308219 -0.29892507
0.31732202 -0.21469186 0.30587986 0.3885466

q_lstm.clayer_in.bias f4 [4]
00000000: bd64 f9bb c50d 263e f048 f8be 3682 84be
-0.007610886 0.1621619 -0.48493147 -0.25880593

q_lstm.clayer_out.weight f4 [4, 4]
00000000: 4edb b33e 31af 75bd 083c 933d edf8 88be
00000010: 2ced b7be e91a fb3e 331d b6be f390 a9be
00000020: 87cd 0dbf a6f4 e8be 48c7 003e 3deb 843e
00000030: 9f33 ccbe 0073 6a3d 7238 afbe 896e a03d
0.35128254 -0.05998153 0.071891844 -0.26752415 -0.35923135 0.49043968 -0.35569152 -0.331184
-0.55391735 -0.45499152 0.1257602 0.25960723 -0.39883134 0.05723858 -0.34222752 0.07833583

q_lstm.clayer_out.bias f4 [4]
00000000: 722b a53e 0962 34be 5634 4fbe 98e3 b33e
0.3225971 -0.17615522 -0.20234808 0.35134578

attention.mha.in_proj_weight f4 [24, 8]
00000000: 343f 3cbe 384b ef3e e405 903e 84f1 1b3d
00000010: 7dde cabe 9c5c d2be 2e95 f13d 5539 d53e
00000020: 419e 8a3e 1896 283e 6e7e 9bbe 2fb6 d7be
00000030: d386 4ebe 6402 cebd fe77 b13c 162c d53e
00000040: ab22 bcbe 8a67 af3e 25a9 d53e 5221 babe
00000050: 8809 89be 2595 5fbe e81e 30bc 665e e23e
00000060: f967 833d 8a08 a93e 590c be3e 9fab b23e
00000070: b126 cbbe c122 5cbe ccd1 c3bd d2d2 f8bc
00000080: 8273 02bc 080a c43e 54b3 de3e 2660 b8bd
00000090: 3c00 76be 3745 62bd 8303 da3c 7ad5 613e
000000a0: fefa 103e d585 cf3c 67e7 1e3e 9898 ab3e
000000b0: b70a 753e 3ab8 4b3d 3151 88be b33b 673e
000000c0: eb5f cc3c d947 42be fbb9 09be a2a8 7f3e
000000d0: 2188 06be 331c 23be fb03 a93d f89f dd3e
000000e0: 421e 5dbd c045 63be bf43 44be 57b0 16be
000000f0: 839c 6f3d b6d1 bfbe 84bb bc3e e03b 373e
00000100: 323c cabe 1e86 6c3e 8804 da3d 8fbe 013f
00000110: 7460 7b3d 2626 ac3d f488 bdbe c2d9 bebe
00000120: 444c e93d 3e1f 8e3e 9eea c1be 4563 ccbc
00000130: bb99 c8be b616 ccbe 49f8 49be 2a09 acbe
00000140: 23c5 dcbe bfc5 35be ec3c 833c 649c 913e
00000150: fdc0 893e fdf1 c73d fd64 1abd e325 15be
00000160: 7d52 e9be e21e b63e bdff f93e d133 99be
00000170: 8af8 acbe e121 a5be 9410 05bd 4d66 2c3c
00000180: cc5a bdbe b163 773e 7554 f03d 79af 0abe
00000190: 8ab9 afbe c6ac de3e f17f f73e 0670 8d3c
000001a0: 34e2 c6bd df47 273e 1478 163e 5548 22be
000001b0: ad23 923e 624e c9be 6bd6 0ebe 4837 803e
000001c0: 50a3 13be fbba 81be 9646 9cbe 9d1b 97be
000001d0: cb6d 8b3e 768f ad3e 5d00 debe fecb b2be
000001e0: 12d3 b33d 5fe3 38be 8bcd a9be e2a3 03bf
000001f0: 9cc2 843e 7edd 2a3e 7bdd cb3d a804 abbd
00000200: 5de5 eabe a256 30bd c428 513e 5968 b9bd
00000210: 76a8 9a3e f3ef 623d e796 84bd ee2d f83d
00000220: f97a 643e 6a85 8fbe ae86 0a3e 8111 c4be
00000230: 3999 c6bd b51b 27be 646b 9c3e 1e6c eebe
00000240: 375a fd3d c3d4 c9be db9d 5e3e 6ea2 093e
00000250: 69e9 4cbe 0329 be3d 476d c13e ca5f 5e3e
00000260: 33b2 bebe 8ac2 ffbd 606d bd3e f802 363d
00000270: 74aa 9b3d 2257 703d 812d 00be 276a 9fbd
00000280: 29e7 323d 2f46 9c3e 0549 0dbe eac2 08be
00000290: bdab cd3d a84b f1bd 2538 d83e 9510 c93e
000002a0: 82d5 72bc a7f4 92be 49a0 1d3e 19b0 cb3e
000002b0: 0fde e03d d13a 0d3e 75ab 89be 66eb f5be
000002c0: ad4a f8bd 3d73 153d 12ca af3e b2f8 573d
000002d0: 6f1a 1abd 0499 39bd cceb f2bc 0e24 31be
000002e0: b99c 23be 58e8 8d3d fbdb 8a3e 6c79 b03e
000002f0: e999 413e d93c 89be 1aa9 dc3e 1c58 ee3e
-0.18383485 0.46737075 0.28129494 0.038072124 -0.3962287 -0.4108628 0.11796032 0.41645303
0.27073863 0.16463506 -0.30369896 -0.42131183 -0.20168619 -0.1005905 0.021663662 0.41635197
-0.367452 0.34258682 0.4173061 -0.36353546 -0.26765084 -0.21834238 -0.010749556 0.44212645
0.064163156 0.33014327 0.37118796 0.34896562 -0.39677957 -0.21497633 -0.095615 -0.030373964
-0.0079621095 0.38288903 0.43496192 -0.09002714 -0.24023527 -0.05524179 0.026613003 0.22054091
0.14158246 0.02533237 0.1551796 0.33514857 0.23929869 0.04973624 -0.26624444 0.22581367
0.024948081 -0.1897272 -0.13449852 0.24966672 -0.13137867 -0.15928726 0.08252712 0.4328611
-0.053983934 -0.22194576 -0.19166468 -0.14715706 0.05849887 -0.37464684 0.36861813 0.17893934
-0.3949905 0.23098037 0.106453955 0.50681394 0.06137128 0.08405714 -0.3701855 -0.3727551
0.113915 0.2775821 -0.3787431 -0.02494968 -0.39179787 -0.39861077 -0.1972362 -0.33600742
-0.43119153 -0.17751215 0.01602026 0.2843963 0.2690505 0.097629525 -0.037693966 -0.14565234
-0.45570746 0.35570437 0.48827925 -0.29922345 -0.3378337 -0.3225241 -0.032486513 0.010522437
-0.36983335 0.24159123 0.11734859 -0.135435 -0.34321243 0.4349119 0.483398 0.017265331
-0.097111136 0.1633601 0.14694244 -0.15847905 0.28542843 -0.39317614 -0.13948981 0.25042176
-0.14417768 -0.25337967 -0.30522603 -0.29513255 0.27232203 0.33898515 -0.43359652 -0.3492126
0.08780493 -0.18055485 -0.3316463 -0.5142194 0.25929725 0.16686055 0.099543534 -0.083504975
-0.45878115 -0.04305137 0.20425707 -0.09053106 0.3020665 0.055404615 -0.06474095 0.121181354
0.22312535 -0.28031474 0.13527939 -0.38294604 -0.09697194 -0.16319163 0.30550683 -0.46566862
0.12370723 -0.39420137 0.21739905 0.13440868 -0.20010914 0.09285166 0.37778684 0.21716228
-0.3724533 -0.12488277 0.3699751 0.044436425 0.07600871 0.058676846 -0.12517358 -0.07783919
0.043677483 0.30522296 -0.13797386 -0.13355604 0.10042522 -0.117820084 0.42230335 0.39270464
-0.014821412 -0.2870228 0.15393175 0.3978279 0.10979854 0.13791968 -0.26888624 -0.48031157
-0.12123618 0.036486853 0.34333855 0.05272741 -0.037622865 -0.045311943 -0.029653452 -0.1729891
-0.15977754 0.06929082 0.27120957 0.34467638 0.18906368 -0.26804236 0.43097764 0.46551597

attention.mha.in_proj_bias f4 [24]
00000000: 0bb3 7b3c 996c 1c3d 53a2 5ebd 46cb b1bc
00000010: f237 2ebd d895 28bc 8efe 753d df20 0d3c
00000020: 2ee3 71b5 3b49 1236 5af9 adb6 d240 cdb5
00000030: 136a 13b4 a73e d135 cc7e a235 c801 5836
00000040: 55a4 1cbd f2e7 7cbb 7b76 f1bc 249a b63c
00000050: 97ff 803c 217b 04bd 01c0 243d 853d b03c
0.015362511 0.038189504 -0.054354023 -0.021703374 -0.042533822 -0.010289632 0.060057215 0.008613794
-9.0110086e-07 2.179832e-06 -5.18483e-06 -1.5292555e-06 -1.3729031e-07 1.5589948e-06 1.2106843e-06 3.2187545e-06
-0.038242657 -0.0038590399 -0.029475441 0.022290297 0.015746875 -0.032343987 0.04022217 0.02151371

attention.mha.out_proj.weight f4 [8, 8]
00000000: cb3f 36be 7eb9 24be 09bb 7ebe 042b 643e
00000010: 1e61 153e efad 36be b2c3 633e 2d95 c13e
00000020: 1342 493e 599d acbe 09d9 e0bc f294 853e
00000030: 4565 943e ae8b 1ebe a1d4 523e bf9c 3dbe
00000040: 6c04 513d 897b cb3e c727 b33c 1109 82be
00000050: 351e 933d aba1 703e 0115 8d3e 22b1 8cbe
00000060: 45bb 25bc fc54 e4bd d886 6dbb c026 e9bd
00000070: 6285 a1bd c4bf 8a3d 21c5 033e 89a3 08bc
00000080: b115 623e 1e8b b33d a303 c93c e563 003e
00000090: c22d 2fbe cf17 273d e8a7 be3a ddff 8f3d
000000a0: 8c99 32be d3a9 28be b22b a0be 2228 31be
000000b0: 70df 073e e431 873e 1bbd bbbe 483e d6bd
000000c0: c7e6 373e 2c86 cdbd f7d6 343e 9d67 7d3d
000000d0: cea0 c8be a78e fc3d 1e0a 27be 8baa 403a
000000e0: afb5 cfbe 0bba d83e 55ec 51be 4da1 4f3e
000000f0: bd5e 56be 9fcc 98be 232c 023e f09f 493e
-0.17797773 -0.16086385 -0.24876036 0.22282034 0.14587829 -0.17839788 0.2224262 0.37809125
0.19654112 -0.33713797 -0.02744724 0.260902 0.28983513 -0.15482971 0.20588924 -0.18516825
0.051029608 0.39742687 0.021869553 -0.25397542 0.07183496 0.23499171 0.27555087 -0.27478892
-0.010115449 -0.11149022 -0.0036243703 -0.11384344 -0.07886769 0.06774858 0.12868167 -0.008339771
0.22078587 0.08766769 0.024537867 0.12538107 -0.17107299 0.04079419 0.001454589 0.07031224
-0.17441386 -0.16471033 -0.31283337 -0.17300466 0.13268828 0.2640525 -0.36667714 -0.10461098
0.17959128 -0.10035357 0.17660128 0.06186639 -0.39185184 0.12331896 -0.16312453 0.00073496316
-0.405683 0.4232944 -0.2050031 0.20276375 -0.20934577 -0.29843614 0.1271215 0.19689918

attention.mha.out_proj.bias f4 [8]
00000000: 04c0 843c a885 4f3c 98f7 a7bc 7126 dd3c
00000010: 3dc3 e5bc e166 833c 30eb 33bd 8a08 283d
0.016204841 0.0126661435 -0.020503804 0.02699587 -0.028047198 0.016040267 -0.043925464 0.04102377

attention.norm.weight f4 [8]
00000000: 2d88 873f 6fc9 7c3f 8480 843f fd97 793f
00000010: 86ed 7a3f 6529 833f 95dd 743f 15dd 853f
1.0588433 0.98744863 1.035172 0.9749754 0.9801868 1.0247008 0.9565061 1.0458094

attention.norm.bias f4 [8]
00000000: 9670 133d 52a3 1ebd 22cd 0dbd 2acb 053d
00000010: 2a9f 07bd 9916 15bd 5d2f 07bd dc96 0abd
0.035996042 -0.038729973 -0.034619458 0.032664455 -0.033110775 -0.036398504 -0.033004154 -0.033835277

regressor.weight f4 [1, 8]
00000000: e4ef 23be 08ae 0f3c 2b15 b63e abb5 cdbd
00000010: 90ef 183e bfec ae3d d806 1c3e a405 2b3e
-0.1600948 0.00876952 0.35563025 -0.10044416 0.14935136 0.085412495 0.15236986 0.1670137
