esame/models_100epochs/experiment_5_ws4.pth (torch, 3393 bytes, 5 tensors)

lstm.clayer_in.weight f4 [4, 9]
0	0x3eb09893	0.34491405
1	0xbe232e8a	-0.15935722
2	0x3eaaeb21	0.33382514
3	0x3eb70a1b	0.35749897
4	0x3e2aace1	0.1666751
5	0x3b8791f5	0.0041372725
6	0xbddb1481	-0.1069727
7	0x3e1f5cb4	0.15562707
8	0xbeb06213	-0.34449825
9	0x3e742a77	0.23844324
10	0xbe378b12	-0.17924145
11	0x3e8a8e70	0.27061796
12	0x3db43cd9	0.08800668
13	0xbd738d01	-0.059460644
14	0xbe0cfe8b	-0.13768975
15	0x3dae1398	0.08499831
16	0xbea8443a	-0.32864553
17	0xbe7b263b	-0.24526303
18	0x3c72c658	0.014817797
19	0xbe6e5c08	-0.23277295
20	0x3e71d881	0.23617746
21	0x3e96eacc	0.2947601
22	0x3dc71a6c	0.097218364
23	0x3e6d631e	0.23182341
24	0xbe6f3e5f	-0.23363636
25	0xbe883f36	-0.26610726
26	0xbe6b0894	-0.22952491
27	0xbe8f4745	-0.27984062
28	0xbe31a4e6	-0.1734806
29	0xbeb5f8f2	-0.35541493
30	0xbeaebbbd	-0.34127608
31	0xbc518b74	-0.012789596
32	0x3e7526b4	0.23940545
33	0x3eb6ee97	0.35728905
34	0x3ea8c208	0.32960534
35	0xbd1e5e02	-0.03866387

lstm.clayer_in.bias f4 [4]
0	0xbbf11009	-0.007356648
1	0xbe99bf30	-0.30028677
2	0x3d30fc0f	0.04320913
3	0xbe8d227e	-0.27565378

lstm.clayer_out.weight f4 [4, 4]
0	0xbee21cdb	-0.4416264
1	0xbef69d9b	-0.48167118
2	0xbf117725	-0.56822425
3	0xbd747365	-0.05968036
4	0x3ece3bb7	0.40279934
5	0x3e4ade18	0.19811285
6	0x3df99b7a	0.12187858
7	0x3e831b8c	0.25606954
8	0xbecd97f4	-0.40154994
9	0xbcfcbe5c	-0.03085249
10	0xbe51af75	-0.20477088
11	0xbeacac70	-0.3372531
12	0x3f05551a	0.5208298
13	0xbe9d81e7	-0.3076317
14	0x3e2a897d	0.1665401
15	0xbeb5d542	-0.35514265

lstm.clayer_out.bias f4 [4]
0	0x3ce07be2	0.027402822
1	0xbe03135f	-0.12800358
2	0x3dbf5be9	0.09343702
3	0xbe326048	-0.17419541

linear.weight f4 [1, 4]
0	0x3ed0d5ce	0.4078812
1	0xbf0530b7	-0.5202746
2	0x3ecfded9	0.40599707
3	0xbe9c74a2	-0.30557734
