esame/models_100epochs/experiment_11_ws4.pth (torch, 3405 bytes, 5 tensors)

lstm.clayer_in.weight f4 [4, 9]
0	0x3e585be4	0.21128803
1	0x3ed430fe	0.41443628
2	0x3eb8eae2	0.361167
3	0xbdf11626	-0.117718026
4	0xbe61e72b	-0.2206084
5	0xbed3deb3	-0.41380844
6	0x3e3741f8	0.17896259
7	0xbe9a2b81	-0.30111316
8	0xbe32c5ef	-0.17458318
9	0xbe11983c	-0.14218229
10	0xbdcecb9b	-0.100974284
11	0x3e4113ea	0.18855253
12	0xbe59b358	-0.2125982
13	0x3e298ffa	0.16558829
14	0xbdffde18	-0.12493533
15	0xbddd5279	-0.10806746
16	0xbe3f8a72	-0.18705156
17	0xbe097490	-0.13423371
18	0x3da17660	0.07883906
19	0x3e346a64	0.1761871
20	0x3e5eb48f	0.21748565
21	0xbe51358f	-0.20430587
22	0xbed9c297	-0.42531273
23	0x3c2a566e	0.010396583
24	0x3d86d284	0.065831214
25	0x3e70e038	0.23523033
26	0x3e956772	0.29180485
27	0x3e681829	0.22665466
28	0xbdc0944f	-0.094032876
29	0x3dd065a0	0.101756334
30	0x3d924db0	0.07143724
31	0xbc29a5d9	-0.010354483
32	0xbebf8878	-0.37408805
33	0xbde2fbd2	-0.11083187
34	0xbee9df4a	-0.4567817
35	0xbe89fd46	-0.26951045

lstm.clayer_in.bias f4 [4]
0	0x3dec0dfa	0.11526103
1	0xbe899d75	-0.26877943
2	0x3e894ccf	0.26816413
3	0xbed220bc	-0.410406

lstm.clayer_out.weight f4 [4, 4]
0	0xbe3e0d7e	-0.18559834
1	0x3c99fb3a	0.018796552
2	0x3dc5c57f	0.0965681
3	0xbe8eaf7c	-0.2786826
4	0xbef0c186	-0.47022647
5	0xbf072651	-0.5279284
6	0xbf1eda61	-0.6205197
7	0xbda4ce9c	-0.0804722
8	0xbe35c2df	-0.17750119
9	0x3e1189bb	0.14212696
10	0xbdbbc481	-0.091683395
11	0xbe4aba62	-0.19797662
12	0x3e58a3b4	0.21156198
13	0x3ed445de	0.41459554
14	0x3ecc0679	0.39848688
15	0x3f1bbd49	0.608357

lstm.clayer_out.bias f4 [4]
0	0xbee40841	-0.44537547
1	0xbeb101ab	-0.34571585
2	0xbe8d2e36	-0.2757432
3	0x3ede71d5	0.43446222

linear.weight f4 [1, 4]
0	0x3ec79b4f	0.3898568
1	0x3f010e13	0.504121
2	0xbe8374cb	-0.25675043
3	0xbebce800	-0.36895752
