esame/models_100epochs/experiment_6_ws4.pth (torch, 6241 bytes, 11 tensors)

q_lstm.clayer_in.weight f4 [4, 5]
-0.14169057 -0.048700146 -0.12380451 0.24467629 0.08658677 -0.3297571 -0.025844388 -0.36650923
0.2656941 0.007478694 -0.08588349 -0.25652096 0.12813418 -0.28885934 0.17113517 0.31003255
0.20534763 0.05587661 -0.46202797 0.27229032
00000000: 5517 11be ce79 47bd 388d fdbd 6c8c 7a3e
00000010: 6854 b13d ecd5 a8be 9cb7 d3bc 19a7 bbbe
00000020: 0f09 883e d50f f53b afe3 afbd b756 83be
00000030: 9b35 033e 5fe5 93be 0f3e 2f3e 96bc 9e3e
00000040: a646 523e dfde 643d ee8e ecbe a369 8b3e

q_lstm.clayer_in.bias f4 [4]
-0.18473719 -0.19236803 -0.07380825 0.26170003
00000000: bf2b 3dbe 20fc 44be c828 97bd 8cfd 853e

q_lstm.clayer_out.weight f4 [4, 4]
-0.40934327 -0.2857933 0.45945096 0.021770846 0.4952176 -0.07388862 -0.26192328 -0.32736358
0.43655387 -0.39823544 0.25338972 0.14568077 0.1666285 0.2968856 -0.17052223 0.31118786
00000000: 7195 d1be 8053 92be 283d eb3e c658 b23c
00000010: 298d fd3e eb52 97bd cf1a 86be 339c a7be
00000020: fd83 df3e 84e5 cbbe 4cbc 813e 572d 153e
00000030: a9a0 2a3e 6401 983e 619d 2ebe 0454 9f3e

q_lstm.clayer_out.bias f4 [4]
-0.38183326 -0.16225873 0.3465501 0.16023244
00000000: a67f c3be 2727 26be 046f b13e f913 243e

attention.mha.in_proj_weight f4 [24, 8]
0.15134534 0.21697098 0.10781163 -0.4864282 -0.05587062 -0.36823106 -0.08197296 -0.32200068
-0.25232223 0.42240727 -0.27362695 -0.28234518 0.20681247 0.1740285 0.051287696 0.44671375
-0.12349244 -0.40003172 -0.4595369 -0.22192015 -0.24705638 0.16278912 -0.15034555 0.040643755
-0.06447518 0.23424046 0.25370753 -0.5085597 -0.22478823 -0.4773677 0.06306937 -0.4704609
-0.27456903 0.50059736 -0.34582826 0.3871563 0.11484703 0.3708973 -0.1281198 0.35453168
0.16176794 -0.07943204 0.18899998 -0.5288633 -0.4370098 0.30424246 -0.3487628 -0.2702147
-0.14590162 -0.013179019 0.06302946 -0.16028209 0.28206548 -0.25955063 0.16471438 0.37400803
-0.035201687 0.17613915 0.17907515 -0.0029181985 0.039125204 -0.07564019 -0.16876411 -0.18152738
0.3732182 -0.022588853 0.20856375 0.3525902 0.065566026 -0.32898682 -0.23021114 -0.21556331
0.26038688 -0.4737648 -0.15822522 0.05263425 0.2880283 0.16858526 0.022280635 0.4096575
0.06777728 0.28047013 -0.004726291 -0.21087937 -0.19148909 -0.14519195 -0.016337352 -0.1838057
0.1288594 0.32943672 -0.12805162 -0.36488062 -0.14368172 -0.2849889 0.31417564 -0.3391365
0.067845106 -0.20542303 -0.36659944 0.080691606 -0.18627338 0.07273468 -0.3438761 0.0878115
-0.050979625 0.09931635 -0.05560648 0.24645801 -0.09360099 -0.27166456 -0.27735403 -0.22440158
-0.29221094 0.23775691 -0.31961328 -0.30113026 -0.020737285 0.057467274 -0.10531101 0.4228677
-0.26339376 0.16371725 0.010302576 -0.3507394 -0.08106117 0.050108857 0.14004456 0.2927968
0.31244922 -0.25132945 -0.21210583 -0.09604384 -0.37572998 -0.033037923 -0.38431144 0.17034096
0.31042683 0.021617983 -0.30582574 -0.346486 -0.121979155 0.03589185 0.021375025 0.060067963
0.3922588 0.20997971 0.11302042 -0.08992285 0.25498062 0.0649451 -0.37154722 -0.2606236
-0.009053733 0.1971701 0.22270745 -0.21429722 -0.47780228 0.08485074 -0.041055635 0.16845603
-0.1763097 0.39661577 0.081374064 0.4071712 -0.35774642 0.28084606 0.08563573 -0.14593612
0.21814539 -0.42071453 0.33868846 0.04797363 -0.0070629027 0.29052988 0.021141091 0.20028758
0.29613358 -0.353676 0.2627207 -0.07422601 -0.14422096 0.13501677 0.3156512 -0.23762737
-0.2650709 0.24461228 -0.23021817 0.121923395 -0.11198091 0.16686285 0.30065846 -0.23050098
00000000: 46fa 1a3e a42d 5e3e 58cc dc3d 1e0d f9be
00000010: 97d8 64bd c888 bcbe 70e1 a7bd 46dd a4be
00000020: 6130 81be c445 d83e d518 8cbe 8c8f 90be
00000030: a6c6 533e 8734 323e 0c13 523d aab7 e43e
00000040: 9be9 fcbd f5d0 ccbe 6c48 ebbe 093f 63be
00000050: 59fc 7cbe 31b2 263e 2ff4 19be 117a 263d
00000060: 900b 84bd bbdc 6f3e f4e5 813e f830 02bf
00000070: e32e 66be 8a69 f4be 842a 813d 40e0 f0be
00000080: 5094 8cbe 2627 003f 6710 b1be 5a39 c63e
00000090: eb34 eb3d 40e6 bd3e d631 03be 2d85 b53e
000000a0: 7fa6 253e 44ad a2bd 3689 413e 9663 07bf
000000b0: c0bf dfbe abc5 9b3e 0a91 b2be 9559 8abe
000000c0: 3c67 15be d0ec 57bc 9715 813d fd20 24be
000000d0: e36a 903e d2e3 84be e3aa 283e fb7d bf3e
000000e0: a52f 10bd d25d 343e 7a5f 373e 3f3f 3fbb
000000f0: c041 203d 3ee9 9abd 80d0 2cbe 50e2 39be
00000100: 7516 bf3e 420c b9bc bc91 553e b486 b43e
00000110: 7b47 863d f670 a8be 78bc 6bbe a1bc 5cbe
00000120: 6e51 853e 4d91 f2be cb05 22be 0397 573d
00000130: 7278 933e 9da1 2c3e e185 b63c a1be d13e
00000140: d1ce 8a3d c899 8f3e 01df 9abb c3f0 57be
00000150: b715 44be 33ad 14be e9d5 85bc 9037 3cbe
00000160: b8f3 033e eeab a83e f71f 03be a2d1 babe
00000170: 4d21 13be 11ea 91be a1db a03e 4da3 adbe
00000180: 60f2 8a3d 6a5a 52be ecb2 bbbe a441 a53d
00000190: 73be 3ebe ebf5 943d 8710 b0be 84d6 b33d
000001a0: 03d0 50bd 5f66 cb3d 9fc3 63bd 7d5f 7c3e
000001b0: e0b1 bfbd 9e17 8bbe 5901 8ebe 87c9 65be
000001c0: ac9c 95be 8c76 733e 5aa4 a3be bf2d 9abe
000001d0: 3de1 a9bc ce62 6b3d 4cad d7bd 1d82 d83e
000001e0: 8cdb 86be 7fa5 273e 23cc 283c 1d94 b3be
000001f0: 6603 a6bd f23e 4d3d d767 0f3e 76e9 953e
00000200: 58f9 9f3e 41ae 80be 4532 59be a2b2 c4bd
00000210: ae5f c0be c652 07bd 78c4 c4be dc6d 2e3e
00000220: 44f0 9e3e 3218 b13c 3195 9cbe 9d66 b1be
00000230: 35d0 f9bd 5503 133d ad1a af3c d309 763d
00000240: 25d6 c83e ec04 573e 4077 e73d 7929 b8bd
00000250: d28c 823e f001 853d 703b bebe 7570 85be
00000260: 1c56 14bc f5e6 493e 6c0d 643e bb70 5bbe
00000270: 80a2 f4be 3ac6 ad3d f429 28bd bd7f 2c3e
00000280: 888a 34be 3911 cb3e 72a7 a63d be78 d03e
00000290: 8a2a b7be 0ecb 8f3e c961 af3d 4770 15be
000002a0: 8161 5f3e e567 d7be 9368 ad3e ff7f 443d
000002b0: ec6f e7bb 55c0 943e 1530 ad3c 3018 4d3e
000002c0: d29e 973e 0515 b5be 5483 863e ce03 98bd
000002d0: a9ae 13be d641 0a3e 099d a13e 9754 73be
000002e0: 5fb7 87be a47b 7a3e 50be 6bbe f9b2 f93d
000002f0: 3f56 e5bd 18de 2a3e e8ef 993e 7308 6cbe

attention.mha.in_proj_bias f4 [24]
-0.121660404 0.12538536 -0.13799122 -0.11494435 0.070360795 -0.10922362 0.124661125 0.118267804
1.7031718e-07 5.07626e-08 -1.4489914e-06 -4.2115215e-07 -1.066355e-06 2.1410558e-07 -8.96026e-07 1.6247449e-06
-0.02386488 -0.0027417736 0.016060576 0.021680221 0.056262065 -0.005139998 -0.021666223 -0.026568295
00000000: 1729 f9bd 0565 003e 924d 0dbe f267 ebbd
00000010: 5219 903d a2b0 dfbd 554e ff3d 6436 f23d
00000020: 6ee0 3634 1206 5a33 f77a c2b5 b61a e2b4
00000030: ae1f 8fb5 e5e4 6534 7086 70b5 cf11 da35
00000040: 4880 c3bc 54af 33bb 7891 833c b89a b13c
00000050: 0d73 663d 6e6d a8bb 5d7d b1bc c1a5 d9bc

attention.mha.out_proj.weight f4 [8, 8]
-0.010093937 -0.048490547 -0.22731419 0.26639318 0.035464544 -0.01988055 0.10060393 0.23962551
-0.21086197 -0.15152214 0.26278937 0.14892897 -0.2216822 -0.3432384 0.06670474 0.20023815
0.14959455 0.32820165 -0.2628017 0.25685912 -0.14505072 0.2396924 0.330939 0.106446326
0.34089217 -0.17987348 -0.35032195 -0.25549158 0.30003932 0.1137572 -0.28346413 0.1503279
0.346742 -0.3230865 0.23064075 0.10892868 0.08684793 0.31249958 0.2740773 0.13228205
0.2538603 0.12101694 0.09728324 -0.37003803 0.0076784603 -0.24747089 0.14490855 0.07086262
-0.025733504 -0.270308 -0.23550773 0.2193876 0.1334849 0.1994913 -0.061588433 -0.028779345
-0.17064208 0.17137055 -0.18965459 0.14014986 0.18196626 -0.3127768 -0.06811113 -0.016912814
00000000: 0a61 25bc 069e 46bd 0dc5 68be b064 883e
00000010: 4543 113d 89dc a2bc 6f09 ce3d 6460 753e
00000020: 33ec 57be 9f28 1bbe 548c 863e d680 183e
00000030: a900 63be f2bc afbe 7f9c 883d 3b0b 4d3e
00000040: 502f 193e 0c0a a83e f28d 86be 0a83 833e
00000050: 2d88 14be ed71 753e d670 a93e 8800 da3d
00000060: 6b89 ae3e c130 38be 665d b3be cbcf 82be
00000070: c19e 993e 89f9 e83d 3622 91be 8fef 193e
00000080: 2b88 b13e 986b a5be 172d 6c3e 0016 df3d
00000090: 54dd b13d f2ff 9f3e dc53 8c3e f274 073e
000000a0: faf9 813e bbd7 f73d 6f3c c73d a075 bdbe
000000b0: 989b fb3b 0269 7dbe e862 143e 6c20 913d
000000c0: 12cf d2bc cf65 8abe f028 71be 25a7 603e
000000d0: 44b0 083e 7347 4c3e 2744 7cbd a9c2 ebbc
000000e0: ccbc 2ebe c37b 2f3e d034 42be 7283 0f3e
000000f0: 5d55 3a3e 4824 a0be d97d 8bbd be8c 8abc

attention.mha.out_proj.bias f4 [8]
-0.020308021 0.009058321 -0.06515672 0.002317106 0.008338862 -0.013824862 0.027444504 0.06678573
00000000: 025d a6bc 5a69 143c e370 85bd 96da 173b
00000010: b99f 083c ad81 62bc 4cd3 e03c f5c6 883d

attention.norm.weight f4 [8]
1.038586 0.928021 1.0518034 1.115581 0.93885463 0.9688929 1.0345287 0.9533228
00000000: 63f0 843f c992 6d3f 7ea1 863f 5ccb 8e3f
00000010: c758 703f 5d09 783f 706b 843f f70c 743f

attention.norm.bias f4 [8]
-0.022059591 0.020769775 0.012226343 -0.02561294 -0.021320144 0.021534136 -0.026625492 -0.019285314
00000000: 51b6 b4bc 6025 aa3c 0051 483c 3ad2 d1bc
00000010: 95a7 aebc 5b68 b03c b41d dabc 3cfc 9dbc

regressor.weight f4 [1, 8]
-0.20931306 0.09522001 -0.059320524 -0.1374195 -0.24753731 0.26862636 -0.038155943 0.0139205735
00000000: 2a56 56be b502 c33d 14fa 72bd b3b7 0cbe
00000010: 6c7a 7dbe 6589 893e 6849 1cbd 1e13 643c
