esame/models_100epochs/experiment_1_ws16.pth (torch, 3405 bytes, 5 tensors)

lstm.clayer_in.weight f4 [4, 9]
000000 f1 dc 9a bc 46 1e c0 be 14 cd 13 bc 79 94 90 3d
       -0.018904181 -0.37523097 -0.009021062 0.07059569
000010 48 f5 bf 3a 56 d6 a2 bd bf d7 42 3e 5b b7 4e 3e
       0.0014645243 -0.079510376 0.19027613 0.20187132
000020 ce e0 29 3e c3 78 86 bd bc fd f1 3c 70 72 76 be
       0.16589662 -0.06566002 0.029539935 -0.24067092
000030 8e 1e 81 be bf 09 46 be bd d6 62 3b 85 5f b8 bd
       -0.25218624 -0.19339655 0.0034612857 -0.09002594
000040 ab e1 4c be e4 3a cc 3d 85 24 4a 3e db 47 f5 bd
       -0.2000796 0.0997217 0.19740494 -0.11976596
000050 44 45 9c 3e 9b 08 38 be f4 c6 52 3e 0b 36 85 3e
       0.30521595 -0.17972033 0.20583707 0.26017794
000060 44 20 d6 bc 66 e0 cb 3e 13 f8 cb bd 04 de a7 bd
       -0.026138432 0.3981964 -0.09959426 -0.08196643
000070 48 8d b7 3e ea 86 16 bc 0a 35 8e bd 0f cd 9a bd
       0.35849977 -0.009187439 -0.0694371 -0.07558643
000080 02 7a 9e 3c 0e dc 95 3e 15 2c b2 3e 9c 47 68 3e
       0.019345287 0.2926945 0.34799257 0.22683567

lstm.clayer_in.bias f4 [4]
000000 0e 30 b4 3c 4c 77 8e 3d a4 a3 be 3d 7b 3b ef 3d
       0.02199557 0.06956348 0.09308556 0.11681267

lstm.clayer_out.weight f4 [4, 4]
000000 4d 0f 88 3e 26 15 06 be 29 7d e3 bd 49 50 f0 be
       0.26574174 -0.13094005 -0.11107857 -0.46936253
000010 91 40 a2 3d 52 92 17 be 8d 87 be 3e 05 d2 bf 3e
       0.07922471 -0.1480191 0.37212792 0.3746492
000020 76 8b 00 bf 50 14 a7 be 78 36 e5 3e a2 c2 7a be
       -0.502128 -0.32632685 0.4476812 -0.24488309
000030 96 4d c0 3e 90 14 0a 3f f1 db 4b be 17 c2 9c be
       0.37559193 0.53937626 -0.1990812 -0.3061683

lstm.clayer_out.bias f4 [4]
000000 0a 7e 31 3e 0b b0 9f 3e d4 34 cd 3e 24 32 1e 3b
       0.17333236 0.31188998 0.40079367 0.0024138773

linear.weight f4 [1, 4]
000000 46 1b 48 3e d3 90 07 bf 76 0d 52 bc 92 b4 3b 3d
       0.19541654 -0.5295536 -0.012820592 0.045826502
