esame/models_100epochs/experiment_9_ws4.pth (torch, 3393 bytes, 5 tensors)

lstm.clayer_in.weight f4 [4, 9]
00000000: a075 223e 5ae1 01be ac06 e33e 1277 04be
00000010: e9f6 1dbe b9c8 0f3e 1bc8 03bd 5c41 cd3e
00000020: a1e4 57be ed53 fbbd 3566 acbe a515 d1bc
00000030: 1245 9e3e 9305 dc3e 3659 f73d fb1c 95be
00000040: 9b43 683e 6746 a13d 39ad ef3d e1e6 3dbe
00000050: 0a0b 61be 12a7 38be 0645 d73e 19cc 133e
00000060: 68b3 bebe fb31 bb3d 8a27 b1bd 67b2 193e
00000070: 7183 4e3c af3e 83be 6ac4 8cbd c2b6 b4be
00000080: e921 82bd 4145 d4be 4bac 91bd c53e 513e
0.15865183 -0.12683621 0.44341028 -0.12936047 -0.1542622 0.14041413 -0.032173257 0.40088928
-0.21083309 -0.12271867 -0.33671728 -0.025523016 0.3091207 0.42973003 0.120775625 -0.29123673
0.2268204 0.07874756 0.117029615 -0.18545105 -0.21976867 -0.18032482 0.42044848 0.14433326
-0.3724625 0.091403924 -0.086501196 0.15009461 0.01260458 -0.2563376 -0.068734005 -0.35295683
-0.06354124 -0.41459087 -0.071129404 0.20434101

lstm.clayer_in.bias f4 [4]
00000000: 9709 d13e 09d9 ed3d 2c7d a43e e47d 4b3e
0.4082763 0.11613662 0.3212675 0.19872242

lstm.clayer_out.weight f4 [4, 4]
00000000: eba9 95be 8d08 893e 0561 e13d 0333 3abe
00000010: 2afb ddbe 90c8 c63e ef8e 28be dc9e fe3e
00000020: 7ce0 8a3d 7bce 913e 95ba d63e 5d60 be3e
00000030: 5343 5c3e a79a 223e 7523 8abe 3077 c5be
-0.292312 0.26764336 0.11004833 -0.18183522 -0.43355685 0.38824892 -0.16460775 0.49730575
0.06781098 0.28477845 0.41939226 0.37182894 0.21510057 0.15879308 -0.26980177 -0.38567495

lstm.clayer_out.bias f4 [4]
00000000: 88a1 b3bd 5c8e 6f3e f1eb cf3e 0860 b83e
-0.08771044 0.2339415 0.40609697 0.36010766

linear.weight f4 [1, 4]
00000000: b11e 86be e246 28be 2c83 f1be 6d90 c53e
-0.2619529 -0.1643329 -0.4717039 0.3858675
