esame/models_100epochs/experiment_classic_2_ws4.pth (torch, 6449 bytes, 11 tensors)

q_lstm.clayer_in.weight f4 [4, 5]
0	0xbeb688a1	-0.35651115
1	0xbeb59d9c	-0.3547181
2	0xbe4d6dd0	-0.20061421
3	0x3e07cc9a	0.13261643
4	0xbeb05e01	-0.3444672
5	0xbe41607a	-0.18884459
6	0xbe8b59b7	-0.27216884
7	0x3b3c8e50	0.0028771348
8	0xbe23a8d4	-0.15982372
9	0xbb5da225	-0.003381857
10	0xbea42dd5	-0.32066217
11	0xbe9282af	-0.2861533
12	0xbe682cf2	-0.22673395
13	0xbe2f1f9a	-0.17101899
14	0xbeac8cf2	-0.33701283
15	0x3ecb65e6	0.3972618
16	0xbe071702	-0.1319237
17	0x3e989620	0.29802036
18	0x3e33e445	0.17567547
19	0xbef79a88	-0.48360085

q_lstm.clayer_in.bias f4 [4]
0	0x3e884616	0.2661597
1	0xbdf0cfef	-0.1175841
2	0xbe2c5d18	-0.16832387
3	0xbed35a88	-0.41280007

q_lstm.clayer_out.weight f4 [4, 4]
0	0x3e9c114f	0.30481955
1	0x3e6ebf1b	0.23315088
2	0xbd43818c	-0.047730967
3	0xbd5da0bb	-0.054108363
4	0x3c9a66d6	0.018847864
5	0xbe0d8a79	-0.13822354
6	0xbe372f52	-0.17889145
7	0x3ebd133a	0.3692873
8	0x3ef230c8	0.47302842
9	0xbbc19b8f	-0.0059084366
10	0xbd6e630b	-0.058199923
11	0x3d1033a6	0.035205506
12	0x3cedd9c9	0.029034512
13	0x3e38031c	0.17969936
14	0x3e08a5e3	0.13344531
15	0xbee215ac	-0.4415716

q_lstm.clayer_out.bias f4 [4]
0	0xbdac7676	-0.08421032
1	0x3ef0d835	0.47039953
2	0x3e5b277e	0.21401784
3	0xbd122dcb	-0.035688203

attention.mha.in_proj_weight f4 [24, 8]
0	0x3e4e7825	0.20163019
1	0x3e08b24f	0.1334927
2	0xbf05a73b	-0.522083
3	0x3c30b524	0.010785375
4	0xbebb6f7a	-0.36608487
5	0xbe0d528c	-0.1380102
6	0xbea29f28	-0.31762052
7	0xbe0e1083	-0.13873486
8	0xbe66e9a8	-0.2255007
9	0xbea45e7e	-0.32103342
10	0x3ee249ad	0.44196835
11	0x3e8a8548	0.2705481
12	0x3cb474d1	0.022028359
13	0x3d1c7578	0.038197964
14	0xbdb3d3cc	-0.087806314
15	0xbed82c9d	-0.42221537
16	0xbf04c7f9	-0.51867634
17	0x3e854162	0.26026446
18	0xbe127da4	-0.1430574
19	0xbec29efd	-0.38011923
20	0x3d8424ef	0.06452357
21	0xbd467b34	-0.04845734
22	0xbd31712f	-0.04332083
23	0x3de62285	0.11237053
24	0xbc8921f1	-0.016739817
25	0xbe691bf9	-0.22764577
26	0xbe943041	-0.28943065
27	0xbe8be4bf	-0.27322957
28	0x3e9216cf	0.28533027
29	0xbe809e98	-0.25120997
30	0x3d2c89c8	0.042123586
31	0xbe616e32	-0.22014692
32	0xbd45b398	-0.048266977
33	0x3efae826	0.4900524
34	0x3e92fc3a	0.2870806
35	0xbeeccc93	-0.46249828
36	0x3e832c41	0.256197
37	0x3efddee8	0.49584126
38	0x3e45baf3	0.19309597
39	0x3eb8ec9d	0.36118022
40	0x3ea932a9	0.33046463
41	0x3d0437c7	0.032279756
42	0x3e3df2b0	0.18549609
43	0xbecd5ab3	-0.4010826
44	0x3c03f62d	0.008054298
45	0x3ed3e472	0.41385227
46	0x3ea1f455	0.31631723
47	0xbe3ac7b6	-0.18240246
48	0xbe79d583	-0.24397855
49	0xbecc9c12	-0.39962822
50	0xbf05336b	-0.5203158
51	0xbe67c328	-0.2263304
52	0xbe593c70	-0.21214461
53	0x3e43ee07	0.19133769
54	0xbd09dc0d	-0.033657122
55	0xbe946404	-0.28982556
56	0xbe8ec642	-0.27885634
57	0x3e13e846	0.14444074
58	0xbeca92e6	-0.395652
59	0x3c8dabea	0.01729389
60	0x3e0df2f4	0.1386221
61	0xbe881ab6	-0.2658288
62	0xbdebef00	-0.11520195
63	0xbdaf9d3d	-0.08574913
64	0xbe3ed4ac	-0.18635815
65	0xbe0a2385	-0.13490112
66	0xbe9af90f	-0.30268142
67	0xbedf2054	-0.43579352
68	0xbe8499a9	-0.25898483
69	0x3ef55560	0.47916698
70	0xbe24ed82	-0.16106227
71	0xbecd1615	-0.4005591
72	0x3d59314f	0.05302554
73	0x3e302f3a	0.17205516
74	0x3e968a43	0.2940236
75	0x3e8da1f8	0.27662635
76	0x3e76d34d	0.24104042
77	0xbec6f636	-0.3885972
78	0x3db24193	0.087039135
79	0x3e3dc6eb	0.18532912
80	0x3d7a01fa	0.06103704
81	0xbeb62277	-0.3557317
82	0x3ea2d10c	0.31800115
83	0xbd6ea63d	-0.058264006
84	0xbe179641	-0.14803411
85	0xbeaecbb0	-0.34139776
86	0x3c8cbb67	0.017179204
87	0x3e9b59ed	0.30342045
88	0x3e0f10e7	0.13971291
89	0x3d23922e	0.03993433
90	0xbec2cc00	-0.38046265
91	0xbeb859ca	-0.36006004
92	0x3cb50b8d	0.022100234
93	0x3ebba6f2	0.36650807
94	0x3e7f2ef5	0.24920256
95	0xbe486e08	-0.19573224
96	0x3cb7df1e	0.022445258
97	0xbecb9a6e	-0.39766258
98	0xbe92c6a3	-0.28667173
99	0x3e227e64	0.15868527
100	0x3e92894f	0.28620383
101	0x3e9dd158	0.3082378
102	0xbee0df1d	-0.43920222
103	0x3ec7b82d	0.39007702
104	0xbe848a9c	-0.25887
105	0x3de57207	0.112033896
106	0x3e9ff606	0.31242388
107	0x3d658aa2	0.056040414
108	0x3ed408f6	0.41413087
109	0xbedd9d18	-0.43283916
110	0xbdd1c0a6	-0.10241823
111	0x3eaf5f5a	0.34252435
112	0xbe3b329a	-0.18281022
113	0xba376af2	-0.0006996832
114	0xbdc6f9b7	-0.09715598
115	0x3e54c7e7	0.20779382
116	0x3e28574b	0.1643955
117	0x3e0f123b	0.13971798
118	0xbe415ac5	-0.18882282
119	0xbeed1863	-0.46307668
120	0x3dd2dc6f	0.102959506
121	0x3d935770	0.07194412
122	0xbe8421e1	-0.25807098
123	0xbd850620	-0.06495309
124	0x3eb4c75a	0.35308343
125	0x3d54b67a	0.051931836
126	0x3c380a7e	0.01123297
127	0xbd0eea01	-0.034891132
128	0xbed116d9	-0.40837744
129	0xbebd6232	-0.3698898
130	0xbe02350c	-0.12715548
131	0xbe7fde4c	-0.24987143
132	0x3e463f41	0.19360067
133	0xbe2aa3a5	-0.16663988
134	0xbe04989a	-0.12948838
135	0x3eeaf0d1	0.45886853
136	0x3d82e29e	0.0639088
137	0x3eca8f5e	0.39562505
138	0xbe0443cc	-0.12916487
139	0xbe87fb7c	-0.26559055
140	0x3e783022	0.24237111
141	0xbe49007c	-0.19629091
142	0xbe4beeaf	-0.1991527
143	0x3d4f1079	0.05055282
144	0xbd9752a6	-0.07388811
145	0xbed3cfe0	-0.41369534
146	0x3e2738ed	0.16330309
147	0x3ee0536f	0.43813655
148	0xbc985d15	-0.018599072
149	0xbe03e128	-0.12878859
150	0xbef3ff9c	-0.47655952
151	0xbe71e361	-0.23621894
152	0x3d6fee59	0.058576915
153	0x3e86fdff	0.2636566
154	0x3cae6c48	0.021291867
155	0xbe6966d0	-0.22793126
156	0x3e9baef5	0.3040692
157	0xbea56068	-0.32300115
158	0x3ea89834	0.32928622
159	0xbdea2e30	-0.11434591
160	0x3d603f4c	0.054747865
161	0xbe0f5fa3	-0.14001326
162	0xbc848e9a	-0.016181279
163	0xbda1f2fc	-0.07907674
164	0x3e84b40f	0.25918624
165	0xbce97ce0	-0.028501928
166	0x3e93478f	0.28765532
167	0x3eba90ea	0.36438686
168	0xbe680bbd	-0.22660728
169	0xbe940027	-0.28906366
170	0x3ecfd62b	0.40593085
171	0x3ea21923	0.31659803
172	0xbe93dc6b	-0.28879103
173	0xbd7211d1	-0.059099022
174	0xbeca0660	-0.3945799
175	0xbea45860	-0.32098675
176	0x3d8732f8	0.066015184
177	0x3e166ccc	0.1468994
178	0x3e24e799	0.16103972
179	0xbe13d5c7	-0.14437018
180	0x3ee5f0fa	0.44910413
181	0x3d0cc404	0.034366623
182	0xbe5e276c	-0.21694726
183	0x3c58ec24	0.013239894
184	0x3d9de9eb	0.07710632
185	0x3e230399	0.15919341
186	0xbec0701e	-0.3758554
187	0x3e165e07	0.14684306
188	0xbe866170	-0.26246214
189	0xbe8928d0	-0.2678895
190	0xbe33a09e	-0.1754174
191	0x3ecd4809	0.4009402

attention.mha.in_proj_bias f4 [24]
0	0xbdd51ab6	-0.10405485
1	0x3db4a953	0.088213585
2	0x3dc7cb29	0.097555466
3	0xbd9cc86a	-0.076554134
4	0x3dacffb9	0.08447213
5	0x3dc57536	0.09641497
6	0xbdd206a9	-0.102551766
7	0xbd8d20bf	-0.068910114
8	0x36b316e4	5.3372805e-06
9	0x370be500	8.338364e-06
10	0xb596604e	-1.1203899e-06
11	0xb6246904	-2.4499031e-06
12	0xb7394bff	-1.10445535e-05
13	0x3581a000	9.657815e-07
14	0x3686c88a	4.016857e-06
15	0xb629d14c	-2.530479e-06
16	0x3d1c22ba	0.038119055
17	0x3dae33b8	0.08505958
18	0xbdb3816e	-0.08764921
19	0x3d6dc5b5	0.058049876
20	0xbd582859	-0.052772854
21	0x3ce219df	0.027600227
22	0x3d068f07	0.032851245
23	0x3b80a991	0.003926464

attention.mha.out_proj.weight f4 [8, 8]
0	0xbe4661e2	-0.19373277
1	0xbe65305c	-0.22381729
2	0xbea6c1a8	-0.32569623
3	0xbdc32cd6	-0.09530036
4	0x3e1894a5	0.14900453
5	0x3e4ebe73	0.20189838
6	0x3e4787a8	0.19485343
7	0xbebc4603	-0.36772165
8	0xbe286d2b	-0.16447894
9	0x3bacce4e	0.005273617
10	0x3e9ae320	0.30251408
11	0x3dc2c209	0.095096655
12	0xbd54c568	-0.051946074
13	0x3ddc0e99	0.10744972
14	0xbda36a87	-0.07979303
15	0xbe934032	-0.28759915
16	0x3e9ad749	0.30242375
17	0xbdff31f1	-0.124606974
18	0xbda024fb	-0.078195535
19	0xbea8d65e	-0.3297605
20	0x3e8b8d96	0.2725646
21	0x3e750409	0.2392732
22	0x3e38b579	0.18037976
23	0xbe85bace	-0.26119083
24	0xbeb93401	-0.36172488
25	0xbea735b2	-0.32658154
26	0x3e932aed	0.28743687
27	0x3e1dd03c	0.15411466
28	0x3e9b85b1	0.30375436
29	0x3e41ec9b	0.18937914
30	0x3daac38b	0.08338078
31	0xbcde5882	-0.027141813
32	0xbe73e4cc	-0.23817748
33	0xbe518cec	-0.20463914
34	0xbeb4db4b	-0.35323557
35	0x3e2c1d08	0.1680795
36	0xbe2f0cd0	-0.17094731
37	0xbda904ec	-0.08252892
38	0xbe18af8e	-0.14910719
39	0xbdae5783	-0.08512785
40	0xbe98d88c	-0.29852712
41	0xbe995d09	-0.29953793
42	0x3e24c395	0.16090234
43	0xbe1e51f0	-0.15460944
44	0x3e338886	0.17532548
45	0xbd91ad61	-0.071131475
46	0xbea3629c	-0.3191117
47	0x3bea1f3d	0.007144837
48	0xbde34652	-0.11097397
49	0xbd0ffe1d	-0.03515445
50	0xbec89f66	-0.3918411
51	0x3e840b55	0.25789896
52	0xbe49c3c9	-0.19703592
53	0x3e02c6f6	0.1277121
54	0x3e720aa5	0.23636873
55	0x3e39e77d	0.18154712
56	0xbe9492a9	-0.29018143
57	0x3e8f281f	0.27960297
58	0xbe23a0fe	-0.15979382
59	0x3de73c9c	0.11290857
60	0x3e9990e6	0.2999336
61	0xbcd9dc94	-0.026594438
62	0xbd01bc79	-0.031673882
63	0xbd194654	-0.037420586

attention.mha.out_proj.bias f4 [8]
0	0x3c06463b	0.008195455
1	0x3d1ae64a	0.037817277
2	0x3c97ed3c	0.01854574
3	0xbcaf8363	-0.021424955
4	0x3ccba82c	0.024860464
5	0xbd278ee2	-0.040907748
6	0x3d50939f	0.050922032
7	0xbb02ab15	-0.0019938399

attention.norm.weight f4 [8]
0	0x3f7601ee	0.96096694
1	0x3f6a767f	0.9158706
2	0x3f74daad	0.9564617
3	0x3f750b15	0.95720035
4	0x3f77dd41	0.9682198
5	0x3f87ccae	1.0609338
6	0x3f80cbfd	1.0062252
7	0x3f7078da	0.93934405

attention.norm.bias f4 [8]
0	0x3d2700fd	0.040772427
1	0x3d24c40a	0.04022602
2	0x3d24a651	0.040197674
3	0x3d26256c	0.040563032
4	0xbd0a5ff3	-0.03378291
5	0xbd3346d0	-0.043768704
6	0x3d302a1c	0.04300891
7	0xbd21a9bb	-0.03946851

regressor.weight f4 [1, 8]
0	0x3e86fa57	0.2636287
1	0x3e6acacf	0.22928928
2	0x3e276994	0.16348869
3	0x3e65ae6f	0.22429822
4	0xbc38924f	-0.011265351
5	0xbe81fb60	-0.25387096
6	0x3e3e0d64	0.18559796
7	0xbdf25a33	-0.118336104
