esame/models_100epochs/experiment_6_ws16.pth (torch, 6259 bytes, 11 tensors)

q_lstm.clayer_in.weight f4 [4, 5]
0	0x3e87bdac	0.26511896
1	0xbe207e50	-0.15673184
2	0xbe4eeeee	-0.20208332
3	0x3e9ed902	0.3102494
4	0xbe13974e	-0.14413187
5	0x3dec9bd1	0.11553157
6	0xbe86b8ff	-0.26313016
7	0x3dc8dee2	0.098081365
8	0xbb466e2c	-0.003027807
9	0xbed44624	-0.41459763
10	0xbec6c301	-0.3882065
11	0x3e674f82	0.22588924
12	0xbe167472	-0.14692858
13	0x3e98df14	0.29857695
14	0x3d2f30e9	0.042771254
15	0xbde067d2	-0.10957302
16	0xbdffdf4d	-0.12493763
17	0xbe714a4a	-0.23563495
18	0x3e2bf635	0.1679314
19	0x3e847fb1	0.2587867

q_lstm.clayer_in.bias f4 [4]
0	0xbda3d08b	-0.07998761
1	0xbe746d98	-0.23869932
2	0x3e82d5f7	0.25553867
3	0x3ed303aa	0.41213733

q_lstm.clayer_out.weight f4 [4, 4]
0	0xbe75b61d	-0.23995252
1	0x3e57a01c	0.2105717
2	0x3dd6087c	0.10450837
3	0x3edac31c	0.42726982
4	0xbd3f96ea	-0.046774782
5	0xbe8ef27f	-0.27919385
6	0xbe2a8b4d	-0.16654702
7	0x3d5029d7	0.05082115
8	0xbe35ddb9	-0.17760362
9	0x3e894d8b	0.26816973
10	0xbeae8016	-0.34082097
11	0xbb5341fd	-0.0032235377
12	0xbec4ba6d	-0.38423482
13	0xbd8e736a	-0.06955607
14	0xbdf79d79	-0.120905824
15	0xbe531491	-0.20613314

q_lstm.clayer_out.bias f4 [4]
0	0x3e4800be	0.19531533
1	0xbeb980a5	-0.3623096
2	0x3e000de0	0.12505293
3	0xbd128242	-0.035768755

attention.mha.in_proj_weight f4 [24, 8]
0	0x3eeb2567	0.45926973
1	0x3e62a66c	0.22133797
2	0xbe2bd091	-0.1677878
3	0x3d65d50d	0.056111384
4	0x3e6a32ca	0.22870937
5	0xbd4f4a4a	-0.050607957
6	0x3efc9e1c	0.49339378
7	0x3ddbc2ff	0.10730552
8	0xbde75ea7	-0.112973504
9	0xbee2ed24	-0.4432155
10	0x3ec8455d	0.3911542
11	0xbeeb1672	-0.45915562
12	0x3eb8d589	0.36100414
13	0xbde15851	-0.11003173
14	0x3cfbc9e2	0.030735914
15	0x3dff62e2	0.12470032
16	0x3edee0a2	0.43530756
17	0xbea3100b	-0.31848177
18	0xbe803fbc	-0.25048625
19	0x3e7c5d08	0.24644864
20	0xbe4457bc	-0.19174093
21	0xbe364486	-0.17799577
22	0x3eb56269	0.35426643
23	0xbdfbb9b1	-0.12291277
24	0x3e5d85b7	0.2163304
25	0xbde38637	-0.11109584
26	0x3e950941	0.29108623
27	0x3ef2ca53	0.47419986
28	0x3c9b7ff1	0.018981906
29	0xbe33e937	-0.17569433
30	0x3e0fd394	0.14045554
31	0x3d373ea8	0.044737488
32	0x3d803319	0.06259746
33	0x3e9db914	0.30805266
34	0xbd119e97	-0.035551634
35	0x3db88439	0.090095945
36	0xbd4f6090	-0.0506292
37	0xbd38aaf0	-0.045084894
38	0x3daa14a9	0.08304722
39	0x3db3f780	0.08787441
40	0x3e0b95cb	0.1363136
41	0x3ec8317a	0.39100248
42	0x3e91e511	0.28495076
43	0xbdf8c88d	-0.12147627
44	0x3ea59ab1	0.32344583
45	0x3e42e557	0.19032799
46	0x3d92cfe5	0.07168559
47	0x3c0ea6de	0.008706776
48	0xbe88cf3d	-0.2672061
49	0xbe72c162	-0.23706582
50	0x3d0ea4e6	0.03482523
51	0xbe9bae23	-0.30406293
52	0x3dffb054	0.12484804
53	0xbef15a9a	-0.47139436
54	0xbe9b5a83	-0.30342492
55	0xbe07a4be	-0.13246438
56	0x3e3d0ee5	0.18462713
57	0x3ed6e757	0.41973373
58	0xbeb657d1	-0.35613874
59	0xbe552f65	-0.20818861
60	0x3c85e241	0.016343238
61	0xbe3fff8b	-0.18749826
62	0xbeea47d2	-0.4575792
63	0x3d630f07	0.055434253
64	0xbe8802cb	-0.2656463
65	0xbdbe2019	-0.09283466
66	0x3e995618	0.29948497
67	0x3e9b1e3f	0.30296513
68	0xbe96b342	-0.29433638
69	0x3eb8350b	0.3597797
70	0x3d578f41	0.052626852
71	0x3ef3e09d	0.47632304
72	0x3efb348a	0.49063522
73	0xbe568ba7	-0.2095171
74	0x3d044f60	0.03230226
75	0xbe2865f3	-0.1644514
76	0x3eb18db8	0.34678435
77	0xbe314fa9	-0.17315544
78	0x3e7faf28	0.2496916
79	0x3e886cf7	0.26645634
80	0x3effb21a	0.49940568
81	0x3e93ae76	0.2884404
82	0x3ee8c118	0.4545982
83	0xbeea797e	-0.45795816
84	0xbdeb66c3	-0.114942096
85	0xbea22d12	-0.3167501
86	0x3e93a885	0.28839508
87	0x3e575555	0.21028645
88	0x3e79448f	0.2434256
89	0x3d85b56c	0.06528744
90	0x3dec225c	0.11529991
91	0x3da9abd9	0.082847305
92	0xbe1ffb1d	-0.15623136
93	0x3ea4ce47	0.32188627
94	0xbec3f60b	-0.38273653
95	0xbe9fdea8	-0.3122456
96	0x3e5b256b	0.21400993
97	0x3e9ba792	0.30401284
98	0xbdc7374b	-0.09727343
99	0x3eb6721d	0.35633937
100	0xbdd92532	-0.106027976
101	0xbebfbb5f	-0.3744764
102	0xbc23628d	-0.009972227
103	0x3e868a97	0.2627761
104	0xbe26f51c	-0.1630444
105	0x3ea24df4	0.317001
106	0xbdb7c886	-0.08973794
107	0xbe860e17	-0.26182625
108	0xbe0a7f7f	-0.13525198
109	0xbe958b30	-0.29207754
110	0x3ebd4396	0.36965626
111	0xbe290344	-0.16505152
112	0xbe905902	-0.28192908
113	0xbc8cabc5	-0.01717175
114	0x3e811abd	0.25215712
115	0x3e95785c	0.2919339
116	0x3d975d76	0.07390873
117	0xbe311986	-0.17294893
118	0x3e31ba7e	0.17356297
119	0xbc8b98cb	-0.01704063
120	0x3e76f032	0.24115065
121	0x3e65928f	0.22419189
122	0x3e4a19db	0.19736426
123	0x3ece03db	0.40237316
124	0xbc50673e	-0.012719927
125	0xbeee6185	-0.46558776
126	0x3c8b12a9	0.016976671
127	0xbedf1d58	-0.43577075
128	0x3c36f981	0.011167885
129	0x3cc578f4	0.024105527
130	0x3e9a26e8	0.30107808
131	0xbe6eb04e	-0.23309442
132	0xbedda646	-0.4329092
133	0x3df4680c	0.11933908
134	0x3e447336	0.19184574
135	0xbe39465d	-0.18093248
136	0x3e33243d	0.17494293
137	0x3e908629	0.28227356
138	0x3d8eb360	0.06967807
139	0xbe4410f9	-0.191471
140	0x3ea0b13c	0.3138522
141	0x3ee67ec3	0.45018587
142	0x3b8bd79c	0.004267646
143	0x3ebdad23	0.37046155
144	0xbcc588b7	-0.024113042
145	0xbcbcc58c	-0.023043416
146	0xbd88df4d	-0.06683216
147	0xbeb182b0	-0.3467002
148	0x3e1189d2	0.1421273
149	0xbe9748fd	-0.29547873
150	0xbee5e75f	-0.44903085
151	0xbe109685	-0.14119919
152	0xbe445a1f	-0.19175003
153	0xbe9740e2	-0.2954169
154	0xbe11c18c	-0.14233989
155	0xbb1d72f4	-0.0024024816
156	0x3dae061b	0.08497258
157	0xbd5530f4	-0.05204864
158	0xbc3217c6	-0.010869926
159	0xbbce78e2	-0.0063010314
160	0xbe66778e	-0.22506544
161	0x3e9d4e9b	0.30724034
162	0x3e663d76	0.22484383
163	0x3e54a67f	0.20766638
164	0xbea8ace9	-0.3294442
165	0x3eba9ee1	0.3644934
166	0x3e26c3b5	0.16285594
167	0xbeb01802	-0.34393317
168	0x3ecadf85	0.39623657
169	0x3acae859	0.0015480622
170	0x3e062946	0.13101682
171	0x3eb9a2f3	0.36257133
172	0x3e881313	0.26577052
173	0x3ebe72eb	0.3719705
174	0xbec72db7	-0.38902065
175	0x3ee19caf	0.44064853
176	0x3d69ba48	0.057062417
177	0x3d6c6387	0.057712104
178	0xbeae7d81	-0.34080127
179	0xbe3203d1	-0.17384268
180	0x3ebcdd50	0.36887598
181	0x3e886458	0.26639056
182	0x3e8b98d4	0.27265036
183	0xbdc8badc	-0.098012656
184	0xbe3fdff6	-0.18737778
185	0x3d2a53f2	0.041583963
186	0xbe421aad	-0.18955489
187	0xbeb1ce10	-0.34727526
188	0x3e49fef5	0.19726165
189	0x3ec9dbd7	0.39425537
190	0xbe85ec12	-0.2615667
191	0xbe9fcdd1	-0.31211713

attention.mha.in_proj_bias f4 [24]
0	0x3dbede63	0.09319761
1	0x3d6687c0	0.056281805
2	0x3d319430	0.043354213
3	0xbd8405cc	-0.06446418
4	0x3db03c89	0.08605296
5	0xbd900b72	-0.07033433
6	0xbca7e477	-0.020494683
7	0xbdb581da	-0.08862658
8	0xb6e0ee3c	-6.7034543e-06
9	0xb625488a	-2.462914e-06
10	0xb4bee987	-3.556017e-07
11	0xb30ec709	-3.3242973e-08
12	0xb54f4c5b	-7.722462e-07
13	0xb546f6a0	-7.4119635e-07
14	0xb4b9a115	-3.4576138e-07
15	0x3686f472	4.0219684e-06
16	0xbd9cea86	-0.07661919
17	0x3d8b3dc0	0.06798887
18	0xbd90bdfa	-0.07067485
19	0x3d203551	0.039113346
20	0x3d779b69	0.060450945
21	0xbc0ded52	-0.008662539
22	0xbd5c54ca	-0.0537918
23	0x3d7e148f	0.062031325

attention.mha.out_proj.weight f4 [8, 8]
0	0xbdb1072c	-0.08643946
1	0x3e3729a7	0.17886983
2	0x3ea7e5af	0.32792422
3	0x3cfda1a3	0.030960863
4	0x3da95e8d	0.08269987
5	0x3de20ce5	0.11037616
6	0xbe65df6b	-0.22448508
7	0xbe4c8662	-0.19973138
8	0x3e831e1c	0.2560891
9	0xbd12336e	-0.03569358
10	0xbcc344c9	-0.02383651
11	0x3dadfb01	0.08495141
12	0x3e5d57f4	0.21615583
13	0x3edabc65	0.4272186
14	0xbe1f396e	-0.15549251
15	0xbdd99a45	-0.10625128
16	0xbeb98ee5	-0.36241832
17	0x3e9e3236	0.30897683
18	0x3e73fd02	0.23826984
19	0xbd90f7e8	-0.07078534
20	0x39002ebf	0.00012224446
21	0xbc8cc7ef	-0.01718518
22	0xbcbc4fb9	-0.022987233
23	0x3e51a708	0.20473874
24	0xbec29a62	-0.3800841
25	0xbdb80c20	-0.08986688
26	0x3d37fe38	0.044920176
27	0xbeb64a43	-0.35603532
28	0x3e3b61d9	0.18299045
29	0x3e9251a7	0.2857792
30	0xbea62b73	-0.32455024
31	0x3e353c98	0.17698896
32	0xbdbc4d56	-0.09194438
33	0x3eccbd14	0.39988005
34	0xbed3f108	-0.4139483
35	0x3eb629ed	0.35578862
36	0xbe3d98a3	-0.18515258
37	0x3eaff937	0.34369823
38	0xbe014257	-0.12622963
39	0xbad1429b	-0.0015965285
40	0x3c05df13	0.008170861
41	0x3e9884bf	0.29788777
42	0x3d8f6e3b	0.07003447
43	0x3e854265	0.26027218
44	0xbe0c2b5c	-0.13688415
45	0xbe612ba3	-0.21989302
46	0x3d84aa18	0.06477755
47	0x3e7e5efb	0.2484092
48	0x3ec2124b	0.3790458
49	0xbe929efc	-0.2863692
50	0x3eafc9da	0.34333688
51	0x3dc7a513	0.09748282
52	0xbb3dbd03	-0.002895177
53	0x3e0b82fa	0.13624182
54	0xbd9b1461	-0.07572246
55	0x3ded336e	0.11582075
56	0xbe276d34	-0.16350251
57	0xbdf6cedf	-0.12051176
58	0x3ee18950	0.44050074
59	0x3e1fd432	0.1560829
60	0xbe63cfbc	-0.22247213
61	0xbd9f2fbd	-0.07772777
62	0x3e27a290	0.16370606
63	0xbd9a0ab8	-0.07521576

attention.mha.out_proj.bias f4 [8]
0	0xbda966a2	-0.08271529
1	0x3daeec0d	0.08541117
2	0x3d8e93b0	0.06961763
3	0xbd418ca3	-0.047253262
4	0x3d762f13	0.060103487
5	0x3d89db81	0.0673132
6	0xbd8a22a9	-0.06744892
7	0xbd87dbea	-0.06633742

attention.norm.weight f4 [8]
0	0x3f84d19b	1.0376467
1	0x3f7276c6	0.94712484
2	0x3f73a1bd	0.9516867
3	0x3f72a1de	0.9477824
4	0x3f8b25a6	1.0870864
5	0x3f74b374	0.95586324
6	0x3f6f9c55	0.9359792
7	0x3f74bf41	0.9560433

attention.norm.bias f4 [8]
0	0xbd8a5fe2	-0.067565694
1	0x3d6a71bd	0.057237376
2	0x3d786be9	0.060649786
3	0x3d469efe	0.04849147
4	0x3dab8532	0.08375014
5	0x3d679a4e	0.05654364
6	0xbd7b5779	-0.061362717
7	0xbd7880f1	-0.060669843

regressor.weight f4 [1, 8]
0	0x3daf3078	0.085541666
1	0xbd8c180a	-0.068405226
2	0xbe10701a	-0.14105263
3	0xbbd25fa9	-0.006420095
4	0xbdbc3fbb	-0.09191843
5	0xbd57dc14	-0.052700117
6	0x3e496660	0.19667959
7	0x3e1c6297	0.15271984
