esame/models_100epochs/experiment_11_ws16.pth (torch, 3417 bytes, 5 tensors)

lstm.clayer_in.weight f4 [4, 9]
0	0xbe94dba4	-0.29073822
1	0xbe408ebc	-0.18804449
2	0x3e62fa6d	0.22165842
3	0xbd82da70	-0.0638932
4	0xbe8bc7b8	-0.2730081
5	0x3e438553	0.19093828
6	0x3d3b6282	0.04574824
7	0xbebb5cf6	-0.3659436
8	0xbebd2581	-0.36942676
9	0xbde0baf7	-0.10973161
10	0xbd354221	-0.04425252
11	0xbe8f893c	-0.2803439
12	0xbe1f3980	-0.15549278
13	0xbc857ab7	-0.016293867
14	0xbebf5fa2	-0.3737765
15	0xbe7038e5	-0.23459204
16	0x3dbc5101	0.09195138
17	0xbca05f0a	-0.019576568
18	0xbebd06ca	-0.36919242
19	0xbeb7266b	-0.35771498
20	0x3e652578	0.22377574
21	0x3e8f1473	0.2794529
22	0xbd8c717d	-0.06857584
23	0x3e8f8e92	0.2803846
24	0x3e39a2b9	0.1812848
25	0x3e6e7d86	0.23290071
26	0xbe78e06f	-0.24304365
27	0xbc0ae85c	-0.00847825
28	0x3e89e301	0.26931003
29	0x3e50cbfe	0.20390317
30	0xbe3ce586	-0.18446931
31	0x3e29d335	0.16584475
32	0x3ece86a9	0.40337113
33	0xbe0af6e8	-0.1357075
34	0xbe6c4c65	-0.23076017
35	0xbea27b7a	-0.3173483

lstm.clayer_in.bias f4 [4]
0	0xbe770e8c	-0.24126643
1	0xbe33a134	-0.17541963
2	0xbe75784b	-0.2397167
3	0xbe5aa191	-0.21350695

lstm.clayer_out.weight f4 [4, 4]
0	0xbed573a1	-0.4168978
1	0x3eeb526f	0.4596133
2	0xbed73708	-0.42034173
3	0x3e329abe	0.17441842
4	0xbea797b1	-0.3273292
5	0x3e7566d2	0.23965004
6	0xbe37bd27	-0.1794325
7	0xbefd8771	-0.49517396
8	0x3e281150	0.16412854
9	0xbe62dc86	-0.22154436
10	0xbdc530d9	-0.096284576
11	0xbda3b210	-0.07992947
12	0x3e8e650c	0.27811468
13	0x3e3c7595	0.18404229
14	0x3e7b08ba	0.24515048
15	0x3e8b8b3a	0.2725466

lstm.clayer_out.bias f4 [4]
0	0x3e62e6a5	0.22158296
1	0x3e3503ed	0.17677279
2	0x3eec856e	0.4619555
3	0x3ead795d	0.33881655

linear.weight f4 [1, 4]
0	0xbe6d87a9	-0.23196281
1	0xbd409754	-0.047019318
2	0x3e8acf76	0.27111405
3	0x3edcd5c5	0.43131843
