esame/models_100epochs/experiment_classic_1_ws4.pth (torch, 3553 bytes, 5 tensors)

lstm.clayer_in.weight f4 [4, 9]
0	0x3e8d7013	0.27624568
1	0x3e865e7b	0.26243958
2	0xbdc2756b	-0.09495052
3	0x3e9204fa	0.28519422
4	0x3d7b9ea5	0.061430592
5	0x3df7df39	0.12103123
6	0xbe851e14	-0.2599951
7	0x3e2eb7e8	0.17062342
8	0x3e5fa617	0.21840702
9	0xbe8ccb7f	-0.27499005
10	0x3e9f9d80	0.3117485
11	0x3db31ac5	0.0874534
12	0x3e88aff0	0.2669673
13	0x3e290497	0.16505657
14	0x3e2a3c8e	0.16624662
15	0xbe052fab	-0.13006465
16	0x3e620e6b	0.22075813
17	0x3d0c13d0	0.034198582
18	0xbe9b6ea1	-0.3035784
19	0x3e5eeaa6	0.21769199
20	0xbc9635de	-0.018336233
21	0x3dca1d03	0.09868815
22	0xbe8a5bc0	-0.27023125
23	0x3dab2559	0.08356733
24	0xbe08affb	-0.13348381
25	0xbe92f8e1	-0.28705505
26	0xbdeb1be4	-0.11479929
27	0xbea59681	-0.32341388
28	0x3e1401fe	0.14453885
29	0xbe59ee12	-0.21282223
30	0x3ed5db58	0.41768909
31	0xbed632d0	-0.41835642
32	0x3e059446	0.13044843
33	0xbcc80b45	-0.024419436
34	0xbe4b948a	-0.19880882
35	0x3dac6752	0.08418144

lstm.clayer_in.bias f4 [4]
0	0x3d78bbf1	0.06072611
1	0x3e7bc0a1	0.24585201
2	0xbdcb8991	-0.09938348
3	0xbe5de08d	-0.2166769

lstm.clayer_out.weight f4 [4, 4]
0	0xbeaa30f3	-0.3324047
1	0x3d88e4f7	0.066842966
2	0x3e4d816d	0.20068903
3	0xbd518d80	-0.051160336
4	0x3e93ecc1	0.28891566
5	0x3ed52934	0.41632998
6	0xbedbc895	-0.4292647
7	0xbe4ef090	-0.20208955
8	0x3ef40d40	0.4766636
9	0xbe868474	-0.2627293
10	0xbdc71132	-0.097200766
11	0xbf0f26d5	-0.5591863
12	0xbe4c1fd9	-0.19934024
13	0x3e463ad7	0.19358383
14	0x3cd5cd94	0.026099004
15	0xbee4fae2	-0.44722658

lstm.clayer_out.bias f4 [4]
0	0x3db9ce18	0.090725124
1	0xbed16c48	-0.40902925
2	0xbeaeba5d	-0.3412656
3	0xbe8e74a4	-0.27823365

linear.weight f4 [1, 4]
0	0xbf0d9308	-0.55302477
1	0xbe81ab8b	-0.2532619
2	0x3f13d196	0.5774168
3	0x3e30596f	0.17221616
