esame/models_100epochs/experiment_9_ws16.pth (torch, 3405 bytes, 5 tensors)

lstm.clayer_in.weight f4 [4, 9]
000000 cd 8e 98 3c 43 4c 5c 3e f7 54 46 3e 81 b6 17 3e
       0.01862278 0.21513467 0.19368349 0.14815713
000010 f7 65 92 be 3c b5 5f 3e 21 9d 11 3e cc 2a 53 be
       -0.28593418 0.21846479 0.14220096 -0.20621794
000020 63 44 68 be c3 62 67 3e 26 33 dd 3e 7d 82 e5 bd
       -0.22682337 0.22596268 0.43203086 -0.11206529
000030 93 1c 9a bd c1 12 eb be 47 a9 99 3e 3d 74 49 3e
       -0.07524981 -0.45912746 0.3001196 0.19673248
000040 71 97 d9 3b 6a 6c 8b 3e 55 3f 46 3d 38 15 e5 3d
       0.0066403677 0.2723115 0.048400242 0.11185688
000050 1a 68 6d bd 0d ee d0 3d ae ed 93 3e e9 dd 8c 3d
       -0.057960607 0.102016546 0.28892273 0.068782635
000060 2d a1 be be 34 13 41 be 89 f1 02 3e 15 db 60 bd
       -0.37232342 -0.18854982 0.12787451 -0.054896433
000070 0b fe c3 3e 9c 8e 57 3d 38 1d 4a 3e 1f db 73 be
       0.38279757 0.052626237 0.19737709 -0.23814057
000080 ca 5c a7 3e 8a be 11 bd c2 e6 aa 3e 48 f0 91 3e
       0.3268798 -0.035582103 0.3337918 0.28503633

lstm.clayer_in.bias f4 [4]
000000 e4 98 28 3e ae b3 42 3e a8 b9 06 3e ef 5a ff bc
       0.16464573 0.19013855 0.1315676 -0.03117129

lstm.clayer_out.weight f4 [4, 4]
000000 c9 bf c1 3e 91 4c a3 3d d7 93 74 be 70 af e0 bd
       0.37841633 0.07973588 -0.23884521 -0.10970962
000010 1e 2d 0a 3f 2a 15 a7 bd 22 cb 8d bd 4a fc e0 3c
       0.53975093 -0.081583336 -0.0692351 0.02746405
000020 e8 06 d8 3e 99 f3 bf 3e b9 17 a7 be 1f c7 a3 3d
       0.4219277 0.37490538 -0.32635286 0.07996964
000030 9e 59 09 bd a0 b0 da 3c 87 06 ab be 0e eb 13 3f
       -0.03353273 0.02669555 -0.33403417 0.5778054

lstm.clayer_out.bias f4 [4]
000000 6f c5 99 3e 86 59 1c 3e 07 09 89 3e 7a d6 3c be
       0.30033442 0.15268525 0.267647 -0.18441191

linear.weight f4 [1, 4]
000000 3b 27 e7 be 1e e8 77 be 59 dd 0a bf 5b 43 09 3f
       -0.45147118 -0.2420964 -0.54244 0.536184
