esame/models_100epochs/experiment_8_ws16.pth (torch, 6259 bytes, 11 tensors)

q_lstm.clayer_in.weight f4 [4, 5]
00000000: bc09 e63e 4f09 4fbe 577c e83e 6093 523e
00000010: bce5 383e d32a 1f3e 3315 04be 2dab 1a3e
00000020: f6ad a03d c806 a4be 87ea dcbe 11e6 97be
00000030: a357 263c bc8e 4d3e f1f0 5fbe 6f50 093d
00000040: e3d1 a83e 905d aa3e 3f8c b0bd 9a8e 443e
0.44929302 -0.20218395 0.45407364 0.20564032 0.18056387 0.1554368 -0.12898712 0.15104361
0.078456804 -0.32036424 -0.4314768 -0.29667714 0.01015273 0.2007398 -0.21869256 0.033523973
0.3297263 0.33274508 -0.086205 0.19195023

q_lstm.clayer_in.bias f4 [4]
00000000: 7029 bebe 09e4 8b3e 3100 97be 7854 be3d
-0.3714099 0.27322415 -0.29492334 0.09293455

q_lstm.clayer_out.weight f4 [4, 4]
00000000: c37b 07bf 267b 94bd 9dc4 f1be 44c1 bd3d
00000010: 48ff 85bc ea28 5dbe e8b0 ae3e 4e02 d83d
00000020: b516 c9be 821a 0dbf a9e0 bc3e 436d 983e
00000030: e701 ba3e ad93 07bf 668a 8dba dfc8 ef3e
-0.5292322 -0.07250051 -0.47220317 0.09265378 -0.01635708 -0.21597639 0.34119344 0.105473146
-0.39275137 -0.5511857 0.36890152 0.2977086 0.36329576 -0.5295971 -0.0010798692 0.4683294

q_lstm.clayer_out.bias f4 [4]
00000000: 386a b63e 028b d23e 9289 0a3f 31ee 6fbd
0.35627913 0.4112168 0.54116166 -0.058576766

attention.mha.in_proj_weight f4 [24, 8]
00000000: b219 9bbe 7374 9ebe f93f 553d ca77 cc3d
00000010: 455d 073d 7365 ab3e 5fad 073d 5aa3 e73d
00000020: bc9a e8bd c4d7 a0be 66ae 8a3e 849b e43e
00000030: 3148 0f3e 8079 81be 1ee6 f33e 874e 3a3d
00000040: 733b e03e d4d0 903e 7fb5 233e 5b0e 17bd
00000050: 9f2b 323e c685 883e 3f59 c4bd a84c d1be
00000060: 5e8e b3bd 0394 01bf 3752 8ebe f463 40be
00000070: 08fc 803e 4da7 5dbe f6ea 0dbf aaa8 e63d
00000080: 9833 823e 3668 c1be 9c7f 28bd a1c0 023e
00000090: f174 6f3e 0f9e 4bbe a7c2 8d3e 0eef e53e
000000a0: 9e5c 9f3e aec9 8f3e 8467 a93e 0da1 a6be
000000b0: 0363 213e 7f5c c53e 0e3a 9ebe 4f4d e3be
000000c0: 8fe5 e1be 0a40 963d 9dee af3e 6e1e b9bd
000000d0: 93d2 68be ae1c 78bd 8422 c2be bc96 293e
000000e0: 9bcb 6ebe 504d cabe a124 d6be 1566 62be
000000f0: 2189 323e ab3c 10bd 95a9 633e aea8 98be
00000100: 69bf 81be 4f73 473e e023 8b3e ea68 943e
00000110: c5e3 f2be b755 623e 7953 fbbe 9ed2 76be
00000120: 7303 09be f1b2 ac3e 6866 ec3a e534 73be
00000130: 3bfa ebbe 6e9a 99be f098 d73e 2815 973e
00000140: d821 9e3d a682 9dbe a37d b3be 408d f13e
00000150: 8e7f cc3e e3b4 9fbe ebfc 0d3e 2705 e03e
00000160: 2a6f 083f 2fae f5be b789 b0be 44fd e03c
00000170: aa4d a83e 776e 553e 546b 01be acc5 dcbd
00000180: 2472 873e 1d74 5dbe a96b a33e defa 3cbe
00000190: 4821 b2bb 9c09 04bf ae2f b33e 9f38 aabe
000001a0: 4405 afbd 73b3 a6be 2c33 60bc 889e 70be
000001b0: a52a fabd fac2 85be 0cfa 9b3e 17e3 3b3e
000001c0: 0c80 3abe e83f c33e 7e34 bd3d cae0 02be
000001d0: 68c2 63b9 6f5a 72bd c333 4cbe b0aa f8bd
000001e0: 0d61 7d3e 9ef5 01bf 1098 eabe 4a3d 273e
000001f0: 503a 9bbd 5e6f d63d 58c2 713d 4a48 a0be
00000200: 5cae 553e 1cd5 c6bc 6559 ca3d b302 61be
00000210: 0826 563e 1451 a3be cde4 b53e 9c03 19be
00000220: 6646 e1bd 8da8 5cbe ae8d c53d ac1c b13e
00000230: b52a 503d 52e9 423e a2ad ddbe 027c 2dbe
00000240: 7a73 78be ec61 8cbe 6c4c e03d 670b c5bd
00000250: fdf7 113e bc50 68be 34dd e1be 62cf 29be
00000260: 08ff dfbe 552f 1a3e cdd2 89be d5c0 c93e
00000270: db61 6d3e a6f3 4fbe b016 76bd 62c8 c1be
00000280: 0b6b 9a3e 1774 57be 1767 dabd f19a 673c
00000290: b0b4 2a3e 1be8 38be 3f1e 8a3e 6b4d 223e
000002a0: 3ea2 bebd d447 b33e 60e7 a2be 0b46 29be
000002b0: 60ae f83c 3cd3 e23c 512c 523e 8dd7 c53e
000002c0: bd08 b6be 9f57 963e 5d52 2c3e 61be dd3e
000002d0: c687 973e 9559 cbbc 64cb dfb9 ebf0 63be
000002e0: 529b f43d f7f3 993e f55d e93d bcac 9b3e
000002f0: 1df9 e63d 8ab8 573c 54d5 19bd c5cc e9be
-0.3029304 -0.3094822 0.052062962 0.099837855 0.033047933 0.33475837 0.033124324 0.11310454
-0.11357638 -0.31414616 0.2708618 0.446499 0.13992383 -0.2528801 0.47636503 0.045485046
0.43795356 0.28284323 0.15987204 -0.036878925 0.17399453 0.2666456 -0.09587335 -0.40878797
-0.08767389 -0.5061647 -0.277971 -0.18788129 0.25192285 -0.21645851 -0.55436647 0.11262639
0.25429988 -0.3777482 -0.041137323 0.12768795 0.23384453 -0.19884513 0.2768757 0.44908947
0.3112535 0.28083557 0.3308679 -0.32544747 0.15760426 0.3854713 -0.30903667 -0.4439492
-0.44120452 0.07336433 0.34361735 -0.09039007 -0.22736578 -0.060574226 -0.37916958 0.16561407
-0.23319857 -0.3951211 -0.4182482 -0.22109254 0.17435123 -0.035214107 0.22232659 -0.29816192
-0.25341347 0.1947758 0.27175808 0.28986293 -0.474394 0.2210301 -0.49087122 -0.24103782
-0.13380222 0.3373027 0.001803589 -0.23750646 -0.46089348 -0.30000633 0.4210887 0.29508328
0.07721299 -0.3076374 -0.3505679 0.47178078 0.39941067 -0.31192693 0.13866012 0.4375393
0.5329462 -0.47984454 -0.34480068 0.027464516 0.32871753 0.2084292 -0.12638599 -0.107798904
0.2645427 -0.21626325 0.31918076 -0.18455073 -0.0054360963 -0.5157716 0.34997314 -0.33246323
-0.08545926 -0.32558784 -0.013684075 -0.23497975 -0.12215165 -0.26125318 0.30464208 0.18348347
-0.18212909 0.38134694 0.09238528 -0.12781063 -0.00021720829 -0.059168275 -0.1994162 -0.12141931
0.24744053 -0.5076541 -0.4581914 0.16331974 -0.075794816 0.1047046 0.05902323 -0.31305152
0.20867294 -0.02427154 0.09880332 -0.21973686 0.20912945 -0.31897795 0.35526124 -0.14942783
-0.109997556 -0.21548672 0.09646164 0.34592187 0.05082198 0.19034317 -0.43296534 -0.16941836
-0.24262801 -0.27418458 0.10952076 -0.096213154 0.14254756 -0.22687048 -0.44114077 -0.16583017
-0.4374926 0.15057118 -0.2691864 0.39404932 0.2318186 -0.20307788 -0.06008023 -0.37848192
0.30159792 -0.21040379 -0.10664194 0.014136062 0.1667049 -0.18057291 0.269762 0.15849845
-0.09308289 0.35015738 -0.3181715 -0.16530626 0.030356586 0.027688615 0.20524718 0.38641015
-0.35553542 0.29363725 0.16828294 0.4330931 0.29595774 -0.02482299 -0.00042685412 -0.22259872
0.119436875 0.30068943 0.11394874 0.30405223 0.11277983 0.013166556 -0.03755696 -0.4566404

attention.mha.in_proj_bias f4 [24]
00000000: 06a6 44bd 59a7 cd3d e34b bc3d f2f6 dcbd
00000010: 23d6 1abd 8c4c 8b3d f97f 6ebd 0c69 d1bd
00000020: 67cf feb4 09cd 9436 b4fe 92b5 8ffa 4eb6
00000030: de99 80b3 817a 5d35 9a42 ec34 da11 0bb7
00000040: 16c9 8f3d fdf4 88bd 8e81 0f3d 2a3d 5d3d
00000050: d555 8dbc f5d9 743d 16b7 803d c682 10bd
-0.048009895 0.10041685 0.09194162 -0.107892886 -0.037801873 0.068017095 -0.058227513 -0.10225114
-4.7462092e-07 4.434613e-06 -1.0951976e-06 -3.0842236e-06 -5.988453e-08 8.250718e-07 4.4006885e-07 -8.289202e-06
0.07020776 -0.06687353 0.035035662 0.05401341 -0.017252842 0.059778173 0.06284921 -0.035280965

attention.mha.out_proj.weight f4 [8, 8]
00000000: 5e89 b2be f15b 8c3e d054 8f3e 313e aebd
00000010: 821e 92bd f81e aebd f65c cabe 2f4f 60be
00000020: 27f1 95bc 8392 973d 8cc3 06be aadd 773e
00000030: aeea 813e e4ca 29be 6f6f ae3b d752 febd
00000040: ce91 743d 6560 ccbe 54a9 373e c5d4 a23e
00000050: 94e2 e63d c3dd 9b3e 9759 863e c250 a13e
00000060: 4a19 823e c6f5 86be 8b0d adbd 3eb7 853d
00000070: 8583 eebc 3cdb 17be 317d 27bc e847 8fbe
00000080: 4720 15bd 1a93 a4be 4983 b4bd b134 883e
00000090: 34f0 5abe b32a 823d e7ce 51be 7137 ffbd
000000a0: 9960 233d afd3 e03e 1b1c 8fbe f8e0 503e
000000b0: 462b 363c d6eb c1be 6549 a7be 5496 543e
000000c0: 1f83 4abe e463 2e3e d290 92be 9433 5d3e
000000d0: d359 06be 274b 673e 4f1d 2d3e c28e b2be
000000e0: 7384 88be 577d 0fbd 0f84 c0bc d808 e73d
000000f0: 95f0 bcbd 9fab 0b3e 085e 78be a20c 84be
-0.34870428 0.27413896 0.27994394 -0.08507956 -0.07134725 -0.085020006 -0.3952405 -0.21905206
-0.018303467 0.07400992 -0.13160533 0.24205652 0.2537436 -0.16581303 0.0053233425 -0.12418144
0.059709363 -0.39917293 0.17935687 0.31802955 0.11273685 0.30442628 0.26240227 0.31506926
0.2540992 -0.26359385 -0.08449849 0.06529091 -0.029115448 -0.14829725 -0.010222719 -0.27984548
-0.036407735 -0.3214348 -0.08814103 0.266027 -0.21380693 0.063558005 -0.20489083 -0.124617465
0.039887045 0.43911502 -0.2795113 0.20398319 0.011118716 -0.3787524 -0.32673183 0.2076047
-0.19776581 0.17030293 -0.28626114 0.21601707 -0.13120203 0.22587262 0.16905712 -0.3487454
-0.2666355 -0.035031643 -0.02350047 0.11280984 -0.09225575 0.13639687 -0.2425462 -0.25790888

attention.mha.out_proj.bias f4 [8]
00000000: c77e 7bbd aaaf ff3c d2f9 863d e131 8a3d
00000010: ca79 a3bc 3ed9 5abd 72ad 463d f519 e23c
-0.0614002 0.031211693 0.06590618 0.06747795 -0.019955534 -0.053429835 0.048505254 0.027600268

attention.norm.weight f4 [8]
00000000: 6135 873f 3638 703f 2a12 713f 76cd 873f
00000010: afb2 703f 90d0 853f 4436 6e3f 9261 6c3f
1.0563165 0.9383577 0.9416834 1.0609577 0.9402265 1.0454273 0.9305155 0.9233638

attention.norm.bias f4 [8]
00000000: e05d 343d 47c4 25bd 1946 26bd 4b7c 333d
00000010: e29a 25bd 68c5 33bd 03d8 243d 5de4 253d
0.04403484 -0.040470388 -0.040594194 0.043819707 -0.04043091 -0.043889433 0.040245067 0.040500987

regressor.weight f4 [1, 8]
00000000: e906 edbd 8485 723e dfb7 7d3e e7c0 35be
00000010: 6957 6a3e accd ac3e 3da1 6bbe ca40 8abe
-0.11573584 0.23683745 0.24777173 -0.17749368 0.22884907 0.33750665 -0.23010726 -0.27002555
