esame/models_100epochs/experiment_14_ws16.pth (torch, 6277 bytes, 11 tensors)

q_lstm.clayer_in.weight f4 [4, 5]
00000000: 2663 05bf 03ed b13e bfa4 9abd cd55 b33e
00000010: d323 cebe fb54 abbe 7cda 3d3d 2a64 a43e
00000020: 788c a83e 5429 073f 374f 413e 627e 923e
00000030: d33c b4be 27aa b33e 8524 55be e8f5 a13e
00000040: ed5d 2b3e 3491 7cbe a9fc c2bc 1921 fbbd
-0.52104414 0.34751138 -0.07550954 0.35026398 -0.40261707 -0.33463272 0.04635094 0.3210767
0.3291967 0.52797437 0.18877874 0.28612047 -0.35202655 0.35090753 -0.20814712 0.31632924
0.16735049 -0.24664766 -0.023802118 -0.12262172

q_lstm.clayer_in.bias f4 [4]
00000000: 8615 dd3e c93f 9f3e a05c 3f3e 838a 8dbe
0.43180484 0.31103352 0.18687677 -0.2764474

q_lstm.clayer_out.weight f4 [4, 4]
00000000: 7ca7 473e 784e 82be 1200 84be 4acf 133e
00000010: 42d2 aa3e cd69 70bd d8ca d1bb b767 8ebe
00000020: dff1 af3e 4399 023e 8a8e 6abe 5f48 0abf
00000030: 18bd 74be e22a e4be 281c 253e 2298 eb3e
0.19497484 -0.25450492 -0.25781304 0.14434543 0.3336354 -0.05869465 -0.0064023547 -0.27813503
0.3436422 0.12753777 -0.22905937 -0.5401668 -0.23900259 -0.44563967 0.16124022 0.46014506

q_lstm.clayer_out.bias f4 [4]
00000000: 841d 0bbe 4abb 883e b6db 90bd 9123 52be
-0.13585478 0.2670539 -0.070731565 -0.2052138

attention.mha.in_proj_weight f4 [24, 8]
00000000: 9170 023e caeb 4cbe f438 7a3d 9064 8c3e
00000010: 9ec5 aabe 7f0f 93be 42ae 92bd 31a6 83be
00000020: 1342 abbd 2f97 d93e 0015 753e 426c bebe
00000030: 3950 6bbe f63e db3e 1f7e 0a3c 36e7 53be
00000040: 284a f53d a193 d7bd 839e 353e 0692 3c3d
00000050: 385b 5f3e e595 a93e 70c9 cd3d df3f 813d
00000060: dd48 4bbd 32d6 ebbe 5223 f33a 76ea 86be
00000070: f94c cbbe c8f6 e2be 9d79 3dbe 63cd cebe
00000080: 5947 873d 7137 3c3e a16f 833e 1c7d d3be
00000090: d7d9 bf3e 2152 d93d 8f27 aa3e e3ef 393e
000000a0: 4e37 c73d 9a30 debd 052f c03e 6ecf 80be
000000b0: 28dd a53e 63be ac3e 8b59 b03c fbfe 63be
000000c0: d818 abbe 4a77 3ebd 0c3e c23e 8ff2 3f3d
000000d0: bead f4bd d485 8dbe 9799 56bc 3ef1 543e
000000e0: 7381 a63d 0f68 b53d b27c 99be a982 423e
000000f0: 21d2 273d f7b7 b8be 59f2 cf3e e17c 9e3e
00000100: e5dd e53d 281d 47be e034 e73e ab70 0c3f
00000110: 544b 703d 5578 e13e a028 183e 82d1 443e
00000120: fcfa 903d d8c9 01be 9d8e a23e 2e15 a9bd
00000130: 86f8 a2be a088 6d3e 43c1 19be ecb6 a63e
00000140: 5890 2abe 2203 2cbe 916e 76bd 89de 20be
00000150: a28c f63d 996c bfbe 4963 a8be 594a 403d
00000160: 05d1 013f c29d c7be 52ed 14be c6e9 293e
00000170: 92f2 a13e 5d07 c03e f969 01be e6aa 07bd
00000180: 83c1 e6be 0977 083f 851e 4b3e 8fd2 23bc
00000190: 6585 cfbe 945c 513e 200a 54be fb1d 293d
000001a0: 2c6b 863e 1e6c b5bd 9434 44be e5de c83e
000001b0: d8fd 873e 0904 1dbc e2b4 99be 632e 4abe
000001c0: 59c7 eebe 3956 22be 0eef e1be 04c2 ebbd
000001d0: bb0e 58be c6cd aa3e f6d1 81be 8689 80be
000001e0: 4124 c3be 0d9b 123a fdfc c33d 1ec0 413e
000001f0: 7d4e e83e 6fe8 09be 5aa1 1a3e 7b4b 6a3d
00000200: 9b68 4f3e 1771 733e 9cd6 603e 5e85 853e
00000210: 7e8d c83e 6b3b 2c3d b90c af3e d2fc 44be
00000220: 4847 0cbe ca4b a1bd eb66 2ebe a506 90bc
00000230: 70b6 bbbe 9ac4 52be 724a b83b 642b 113e
00000240: 1ab3 8a3e 47c2 86be b259 923d b6f9 293e
00000250: 97b4 4cbe 4139 d23d 322c 41be c30e 1c3d
00000260: 09be 89be b693 b8bd 88b5 50be b91b b03e
00000270: 4865 053e f788 cebe a4fb bc3d f269 953e
00000280: e29c 1dbe 997b 95be 766a 50bd 4ac3 b2be
00000290: 88e8 42be dd9f 053d 2e52 b9be bca0 edbe
000002a0: e492 65be 5e0e b2be fbe0 383d dd58 403e
000002b0: ed4b 7a3e a334 d23e a173 403e ddae 7cbe
000002c0: 5edc bcbd 2ac9 40be ea65 663e 48d2 e23d
000002d0: 5894 6a3e db12 87be 13ee c03e 0606 a7be
000002e0: 6604 823e e884 d3be 79b0 bc3e df86 62be
000002f0: 6597 bbbe 6a20 473e 8a2c ad3e 073b c4bd
0.12738253 -0.20011821 0.06108947 0.27420473 -0.33353895 -0.2872276 -0.07162143 -0.2571273
-0.08362212 0.42498156 0.23933792 -0.3719197 -0.22979821 0.42821473 0.008452921 -0.20693669
0.11977035 -0.10526205 0.17736249 0.046037696 0.21812141 0.33122173 0.10048187 0.063110106
-0.049630035 -0.46061856 0.0018549955 -0.26350754 -0.39707163 -0.44328904 -0.18503423 -0.40391073
0.06605405 0.18380524 0.25671104 -0.41306388 0.37470886 0.10611368 0.33233306 0.18157916
0.097273454 -0.10849114 0.37535873 -0.25158256 0.3239529 0.33739004 0.021527072 -0.22265236
-0.33417392 -0.04650048 0.37937963 0.04686218 -0.11947201 -0.27641165 -0.013098142 0.20795152
0.08130159 0.08857738 -0.29977947 0.18995155 0.04097188 -0.36077854 0.40614584 0.3095465
0.11223964 -0.19444716 0.45157528 0.5485942 0.05866559 0.4403712 0.14859247 0.19220546
0.070791215 -0.12674654 0.3174943 -0.08255993 -0.31830233 0.2319665 -0.1501513 0.32561433
-0.16656625 -0.1679807 -0.060164038 -0.1570989 0.12038542 -0.3738754 -0.3288825 0.046945903
0.50709563 -0.38987547 -0.14543656 0.16593084 0.3163038 0.37505618 -0.12638082 -0.033121966
-0.45069513 0.53306633 0.19835861 -0.009998932 -0.4053146 0.20445472 -0.20706987 0.041288357
0.2625364 -0.08858512 -0.19160682 0.39232555 0.26560855 -0.009583482 -0.30020815 -0.19744258
-0.46636465 -0.15853204 -0.44127697 -0.11511615 -0.21099369 0.33360118 -0.253555 -0.25104922
-0.38113597 0.00055925624 0.09569738 0.18920943 0.45372382 -0.13467573 0.15100613 0.05720089
0.20254748 0.23773609 0.21956867 0.26078314 0.3917045 0.042048853 0.34189394 -0.19237068
-0.13699067 -0.07875784 -0.17031448 -0.017581293 -0.36662626 -0.2058281 0.005624109 0.14176708
0.2708977 -0.26320097 0.07146014 0.16599163 -0.19990765 0.102648266 -0.18864515 0.038100015
-0.26902798 -0.090125486 -0.20381749 0.3439615 0.13026917 -0.4033887 0.09227684 0.29182392
-0.15391877 -0.2919586 -0.05088278 -0.3491462 -0.19034016 0.03262316 -0.3619551 -0.46411693
-0.22419316 -0.34776586 0.045136433 0.18783899 0.24443026 0.41055784 0.18794109 -0.2467608
-0.09221719 -0.18826738 0.22499815 0.11075264 0.22908151 -0.26381573 0.37681636 -0.32621783
0.2539398 -0.41312337 0.36853388 -0.22121762 -0.36638942 0.19445959 0.33823043 -0.09581571

attention.mha.in_proj_bias f4 [24]
00000000: 81d9 463c 056c 573c c3ca 16bd e7de 7dbd
00000010: 001e e7b8 ba79 c7bc d5ab aebc 75cc 3c3c
00000020: d680 c136 7027 9d35 0425 4936 d8a8 53b7
00000030: 1206 b036 2ab6 4bb6 7ab4 d535 59a1 8db6
00000040: 5bae 0f3d 2cab 323d c34e 0d3d baec fe3c
00000050: 8244 0abd 3527 04bd 5747 0c3d 954b 14bd
0.012136818 0.013148312 -0.036814462 -0.061980154 -0.00011020526 -0.024350036 -0.02132217 0.011523356
5.7668467e-06 1.1708889e-06 2.997288e-06 -1.2615892e-05 5.2459154e-06 -3.035539e-06 1.5922262e-06 -4.220911e-06
0.035078388 0.043620273 0.03449894 0.03111874 -0.03375674 -0.032263953 0.034247722 -0.036204893

attention.mha.out_proj.weight f4 [8, 8]
00000000: 6cb4 b6be dbc1 58be c065 983e 9e94 463e
00000010: b109 c33e 9bfe 2cbd 7efe ed3d 71ea 9bb9
00000020: f69b a33e adde 85be 5a97 79bd 2274 c8be
00000030: 69ff a93d a87b 84be bf69 4ebe a91d f13d
00000040: 97b7 c13e 4659 8d3e edf7 553e caad 11bd
00000050: 480a 6dbd a772 acbe 7da2 3b3e 186e 853d
00000060: 770e 8a3e 7f3c a8be 1104 46bd 9fe8 94be
00000070: 4653 5abe 9943 2dbe 5d22 3d3e 660e 8c3e
00000080: 290d 463e 021e 19be df16 033e b16b c03e
00000090: 7c0e 27bc f785 c4bd 5859 51be ea7b 5b3e
000000a0: 22a1 64bd d691 96be ff01 303e e5ee f73d
000000b0: a108 41be 2b8b bcbe 1446 87bc b842 08be
000000c0: d718 cebd e8b0 c2bd c37e a93e 92dd 023e
000000d0: 79c6 ab3e 3137 283e 12f8 1a3e 54b4 c53e
000000e0: f401 5fbc 9aab 5c3e 45ca 2c3e 2a52 c1be
000000f0: ea61 8d3e 6935 a2bc cff1 44be b310 7e3e
-0.35684526 -0.211677 0.2976513 0.1939263 0.3809333 -0.042235 0.11620806 -0.00029738576
0.31954926 -0.2614645 -0.060935356 -0.39151102 0.08300669 -0.25875592 -0.20157526 0.11773235
0.3783538 0.27607173 0.20895357 -0.03556613 -0.057871133 -0.33681223 0.18323703 0.06515139
0.2696416 -0.32858655 -0.04834372 -0.29083726 -0.21320829 -0.16920318 0.1847014 0.27354735
0.19340958 -0.14952853 0.12801693 0.37582162 -0.010196324 -0.09595864 -0.20444238 0.21433988
-0.05581773 -0.2940814 0.17188261 0.121061124 -0.18850948 -0.36824927 -0.016512908 -0.13306701
-0.100633316 -0.095063984 0.33104524 0.12779835 0.3354986 0.16427304 0.15133694 0.38614142
-0.0136113055 0.21549836 0.16874035 -0.37758 0.27613765 -0.019800859 -0.19232868 0.24811058

attention.mha.out_proj.bias f4 [8]
00000000: 71eb 10bd 1103 1bbd f0c2 123d e30b 2abd
00000010: b055 f23c 2f1d 0c3d 6762 32bd c9f3 c4bc
-0.035380784 -0.03784472 0.035830438 -0.041515242 0.029581875 0.03420752 -0.043550875 -0.024042027

attention.norm.weight f4 [8]
00000000: 6c0d 853f 9a51 7a3f 82ea 783f 18c4 853f
00000010: 73db 773f 1345 823f 7326 753f 5335 7c3f
1.0394721 0.97780764 0.9723283 1.0450468 0.9681923 1.017733 0.95761794 0.98518866

attention.norm.bias f4 [8]
00000000: 74c8 31bd b86a 27bd 34b7 263d f783 2fbd
00000010: 8eda 19bd 8016 283d e867 24bd 6124 2abd
-0.043404058 -0.04087326 0.04070206 -0.04285046 -0.037561946 0.041037083 -0.040138155 -0.0415386

regressor.weight f4 [1, 8]
00000000: 56f4 3f3e 6d57 9b3e 7c93 85be d21a 413e
00000010: a149 4e3d 2a6a 63be b66d 2b3e a0b9 9f3e
0.1874555 0.30340138 -0.26089084 0.18857887 0.050363187 -0.22208467 0.1674107 0.31196308
