esame/models_100epochs/experiment_8_ws4.pth (torch, 6241 bytes, 11 tensors)

q_lstm.clayer_in.weight f4 [4, 5]
0	0xbe6fabab	-0.2340533
1	0xbd8353ee	-0.06412493
2	0xbee371b7	-0.44422695
3	0x3ea583dd	0.32327166
4	0x3f089fdf	0.53368944
5	0xbd03185b	-0.03200565
6	0x3e9e047e	0.30862802
7	0x3ec4b38c	0.38418233
8	0x3e71ae07	0.23601542
9	0x3eae6d48	0.3406775
10	0xbe9a26f5	-0.30107847
11	0xbf0a563f	-0.5403785
12	0xbe6c472a	-0.23074022
13	0x3e88664b	0.26640543
14	0xbea15920	-0.3151331
15	0xbed23046	-0.41052455
16	0xbe1bf814	-0.15231353
17	0xbee320d4	-0.44360983
18	0xbd86950e	-0.06571399
19	0x3e2778b4	0.16354638

q_lstm.clayer_in.bias f4 [4]
0	0xbe9ca3d2	-0.30593735
1	0x3e932173	0.28736457
2	0xbd4dad09	-0.050213847
3	0xbe38b427	-0.18037473

q_lstm.clayer_out.weight f4 [4, 4]
0	0x3e9c0e00	0.3047943
1	0x3f054f4c	0.5207412
2	0xbed37027	-0.41296503
3	0x3e78191f	0.24228333
4	0xbeae4a5a	-0.340411
5	0xbed295e9	-0.41129997
6	0xbd8bf422	-0.06833674
7	0xbe61608c	-0.22009486
8	0xbec259ff	-0.37959287
9	0xbf119cc8	-0.56879854
10	0xbe8ad552	-0.27115875
11	0x3ebba1d0	0.3664689
12	0x3e85624e	0.26051563
13	0xbe08e487	-0.13368426
14	0xbebcbac0	-0.3686123
15	0xbeb89f51	-0.3605905

q_lstm.clayer_out.bias f4 [4]
0	0xbe828467	-0.2549164
1	0xbd9b71b5	-0.07590047
2	0x3e748dd0	0.23882222
3	0x3e4c193b	0.199315

attention.mha.in_proj_weight f4 [24, 8]
0	0x3eadd934	0.33954775
1	0xbde0cbcf	-0.109763734
2	0xbe5580d5	-0.20849927
3	0xbb1cabed	-0.0023906187
4	0xbd26d5ad	-0.04073112
5	0x3eb38a9a	0.35066682
6	0xbcf368f0	-0.029713124
7	0xbcd7f7fb	-0.026363363
8	0xbe4a3211	-0.19745661
9	0xbe9de9f0	-0.30842543
10	0x3eab8864	0.33502495
11	0x3ecaa29d	0.3957719
12	0x3e2e7457	0.17036568
13	0xbd8a5847	-0.06755119
14	0x3f093e97	0.5361113
15	0x3e3852e5	0.18000372
16	0xbd316ec9	-0.043318544
17	0xbe8af7dc	-0.27142227
18	0x3d610152	0.0549329
19	0x3ea8efce	0.32995456
20	0x3e8cb77d	0.2748374
21	0x3ed335f6	0.41252106
22	0x3dd6b918	0.104845226
23	0x3eb41ddb	0.35179028
24	0xbe28507f	-0.16436957
25	0xbe563964	-0.2092033
26	0xbe444fac	-0.19171017
27	0xbed78fc1	-0.42101863
28	0xbe9295ee	-0.28630012
29	0xbeb6cde5	-0.3570396
30	0x3b111ead	0.0022143528
31	0xbbfdd6af	-0.0077465395
32	0xbe4e9862	-0.20175317
33	0xbe583b2f	-0.21116327
34	0x3ea2976f	0.3175616
35	0xbe7483ff	-0.23878478
36	0x3e021bd4	0.12705928
37	0x3e657380	0.22407341
38	0xbec0834b	-0.3760017
39	0xbdca4fb6	-0.09878485
40	0x3e07eb70	0.13273406
41	0x3f0898d6	0.5335821
42	0xbe2500ac	-0.16113538
43	0x3e4614e1	0.19343902
44	0xbee5bf10	-0.44872332
45	0xbec1dd71	-0.3786426
46	0x3e71eb11	0.23624827
47	0xbe217369	-0.15766682
48	0x3ea3f719	0.32024458
49	0x3e0a67e2	0.1351619
50	0xbe8d1657	-0.27556106
51	0x3e99b92c	0.30024087
52	0x3e8fea79	0.28108576
53	0xbd1195b9	-0.035543177
54	0xbebf0c02	-0.3731385
55	0xbccec90b	-0.02524235
56	0xbde94a6e	-0.113911495
57	0x3e64b75b	0.2233557
58	0x3dce0063	0.100586675
59	0x3e3fd8d5	0.18735059
60	0x3eb79309	0.35854366
61	0x3e7245ff	0.23659514
62	0xbe1d124c	-0.15339011
63	0x3e9c650e	0.3054585
64	0x3e5d175d	0.21590944
65	0xbe60c1c6	-0.21948919
66	0x3e938c97	0.288182
67	0x3d9e3cba	0.077264264
68	0xbd0dde7e	-0.034636013
69	0xbe8ba823	-0.27276716
70	0xbcfadad5	-0.030621925
71	0xbebd1f5d	-0.3693799
72	0x3ebe2b13	0.37142238
73	0x3e429b89	0.19004644
74	0xbc7b08ea	-0.0153219495
75	0x3f06d296	0.5266508
76	0xbe8b6b05	-0.27230087
77	0x3e1d0019	0.15332069
78	0xbe9d397f	-0.3070793
79	0xbe0c1440	-0.136796
80	0x3e9be2c1	0.30446437
81	0x3d6d7bc9	0.05797938
82	0x3dd16657	0.10224598
83	0xbdb3680d	-0.087600805
84	0x3e3e5d32	0.18590239
85	0x3ec03e6c	0.37547624
86	0x3cefb358	0.029260322
87	0xbea69132	-0.3253265
88	0xbc9a046a	-0.018800933
89	0x3de05931	0.10954512
90	0x3e9aaf6b	0.30211958
91	0xbd443ea5	-0.047911305
92	0x3e042f2a	0.12908617
93	0xbd2e3379	-0.042529557
94	0x3e86e006	0.2634279
95	0x3dcb805a	0.099365905
96	0x3ec0d24e	0.3766045
97	0x3e5f185c	0.21786636
98	0xbe9c74f8	-0.3055799
99	0x3c2df200	0.010616779
100	0xbec072a2	-0.37587458
101	0xbe9e9951	-0.30976346
102	0x3cb98979	0.02264856
103	0x3d9da093	0.07696643
104	0xbe27706d	-0.16351481
105	0x3f08ff83	0.5351488
106	0xbeb13949	-0.34614018
107	0xbe9e2119	-0.30884627
108	0x3d358abf	0.04432177
109	0xbd9e1b0b	-0.07720002
110	0x3cc75bbd	0.024335736
111	0x3f02430c	0.50883555
112	0xbe3c5271	-0.18390824
113	0xbe68d83c	-0.22738737
114	0x3d6f8f34	0.05848618
115	0x3eaa9fc0	0.33325005
116	0x3de6e0f4	0.11273375
117	0x3e49c202	0.19702914
118	0x3cac8f02	0.021064285
119	0x3ebc48bc	0.36774242
120	0x3ec3f3c0	0.38271904
121	0x3e42a8ab	0.19009654
122	0x3d3b98b8	0.04579994
123	0xbe729219	-0.23688544
124	0xbea579f0	-0.32319593
125	0x3dd1085c	0.102066725
126	0x3e638224	0.22217613
127	0xbe67ba73	-0.22629718
128	0x3ec86b5e	0.39144415
129	0x3cf04e9b	0.029334357
130	0xbab8e5a0	-0.001410652
131	0x3cb05789	0.021526115
132	0xbda1f69a	-0.07908364
133	0x3ee898fa	0.45429212
134	0x3cdc15cb	0.02686586
135	0x3e9aef2e	0.30260605
136	0xbeb278f0	-0.34857893
137	0xbe7691a5	-0.24078996
138	0x3d5ed6da	0.054404117
139	0x3eb0763d	0.3446521
140	0x3e53338a	0.2062513
141	0x3de83e6a	0.113400295
142	0xbed3fed3	-0.41405353
143	0x3d056cb8	0.032574385
144	0xbea3ff57	-0.32030746
145	0xbeabd010	-0.33557177
146	0x3d50d9d6	0.050988995
147	0xbe94417e	-0.28956217
148	0x3ec417b7	0.38299343
149	0xbe8f3f9a	-0.27978212
150	0x3dfe2a44	0.12410405
151	0x3e5ea15b	0.2174124
152	0xbed46013	-0.4147955
153	0x3e9694b8	0.29410338
154	0xbdb737c8	-0.08946186
155	0x3e19d95d	0.15024324
156	0x3ebfbf8e	0.37450832
157	0xbe8949a7	-0.26814005
158	0xbe7f845d	-0.24952836
159	0x3e8c97e7	0.27459642
160	0x3c4247c2	0.011857929
161	0xbc099617	-0.008397601
162	0x3ea72574	0.32645762
163	0xbe620972	-0.22073916
164	0xbccb8693	-0.024844443
165	0x3e739a08	0.23789227
166	0x3e1b9627	0.15193997
167	0xbea30471	-0.31839326
168	0x3d1aa788	0.037757427
169	0xbe858c79	-0.26083735
170	0xbe9f682b	-0.3113416
171	0x3e40a498	0.18812788
172	0xbe50112e	-0.20319054
173	0xbea6159a	-0.32438356
174	0xbd220ae0	-0.039561152
175	0x3da7527a	0.08170028
176	0xbe2f4ffe	-0.17120358
177	0xbec61bba	-0.3869303
178	0xbea927f0	-0.33038282
179	0x3e5ce363	0.21571116
180	0xbe35c85c	-0.17752212
181	0x3e1f4c3d	0.15556426
182	0xbc0aa658	-0.008462511
183	0xbe492d26	-0.19646129
184	0xbdeffa80	-0.11717701
185	0xbeb596ba	-0.35466558
186	0xbe716feb	-0.2357785
187	0xbcaabf0b	-0.02084305
188	0xbec173ce	-0.37783664
189	0xbeaf1883	-0.34198388
190	0x3ea589f1	0.32331803
191	0x3d8fb9bb	0.07017847

attention.mha.in_proj_bias f4 [24]
0	0x3dd78b9e	0.10524677
1	0x3ddb447a	0.1070642
2	0x3dfab827	0.122421555
3	0xbc0d9748	-0.008642025
4	0xbdadb5fb	-0.08481976
5	0xbdeae8cf	-0.11470186
6	0xbdd532ad	-0.10410056
7	0x3dbbe434	0.09174386
8	0x344222b2	1.808028e-07
9	0xb5db7411	-1.6350551e-06
10	0xb56ce24f	-8.8246173e-07
11	0xb4080fa5	-1.2671678e-07
12	0x34b17783	3.3055775e-07
13	0x353ab032	6.95468e-07
14	0xb4e13466	-4.194764e-07
15	0xb245d83c	-1.1516075e-08
16	0x3c875c8f	0.016523628
17	0x3c36a634	0.011148024
18	0xbcb9c5e8	-0.022677377
19	0xbd7dbe13	-0.061948847
20	0xbca6c01c	-0.020355277
21	0xbd9c1ab8	-0.07622284
22	0x3dc4a4a6	0.09601717
23	0x3bf74da7	0.0075470987

attention.mha.out_proj.weight f4 [8, 8]
0	0xbd656812	-0.056007452
1	0x3e2a877f	0.1665325
2	0xbe2e1aef	-0.17002462
3	0xbe7d0003	-0.24707036
4	0x3cd71b3a	0.0262581
5	0xbdd5320e	-0.10409938
6	0x3d78555b	0.060628276
7	0x3eb7905c	0.35852325
8	0xbe3f425a	-0.18677655
9	0xbe5eb1a2	-0.21747449
10	0x3dfd52a0	0.12369275
11	0xbeae7c78	-0.34079337
12	0x3eb1787f	0.34662244
13	0xbe8822bc	-0.26589
14	0x3e3c93a1	0.18415691
15	0xbea543b5	-0.3227822
16	0xbe95dee4	-0.29271615
17	0x3d9ac348	0.07556778
18	0x3dc8d47f	0.098061554
19	0x3e7e8169	0.24854054
20	0x3eb06056	0.34448498
21	0xbdeaa7cf	-0.11457788
22	0xbc9ebc28	-0.01937683
23	0xbbb733a1	-0.0055908714
24	0xbcbd0d0f	-0.023077516
25	0xbd08ee79	-0.03343055
26	0xbe9b16fe	-0.3029098
27	0xbe8760c6	-0.2644102
28	0x3e4ba10e	0.19885656
29	0xbdec8285	-0.11548332
30	0x3e7f3d59	0.24925746
31	0x3dc91bb0	0.09819734
32	0x3de80f0b	0.11330994
33	0x3e886d2e	0.26645797
34	0xbe3d8930	-0.18509364
35	0xbd268867	-0.040657427
36	0x3cf09869	0.02936955
37	0x3e5fb113	0.21844892
38	0xbeb78d02	-0.35849768
39	0x3e29f0d9	0.16595782
40	0xbe152812	-0.14566067
41	0xbaaa0793	-0.0012972228
42	0x3e8bf8da	0.27338296
43	0xbc262fd9	-0.010143244
44	0xbd80041c	-0.06250784
45	0x3d7c77fd	0.061637867
46	0x3e870caf	0.26376864
47	0x3e84436b	0.25832686
48	0xbc098151	-0.008392648
49	0xbe4ea2e8	-0.20179331
50	0xbe698cae	-0.22807571
51	0x3e973fdc	0.29540908
52	0x3e893290	0.2679639
53	0x3e743c10	0.23851037
54	0xbe7d3632	-0.24727705
55	0x3e812382	0.25222403
56	0xbdf27893	-0.11839404
57	0x3e8fde85	0.28099456
58	0x3e86490d	0.26227608
59	0x3d302a80	0.04300928
60	0xbe1469a8	-0.1449343
61	0x3e89a673	0.26884803
62	0xbe136374	-0.14393407
63	0x3e34cb05	0.17655571

attention.mha.out_proj.bias f4 [8]
0	0x3d5a21a9	0.053254757
1	0xbbfd0a50	-0.0077221766
2	0xbd0ed705	-0.034873027
3	0x3d1f578c	0.03890185
4	0x3c50e3e8	0.01274965
5	0x3d34d340	0.044146776
6	0xbd534eee	-0.051588945
7	0xbd70037d	-0.058597077

attention.norm.weight f4 [8]
0	0x3f8138b6	1.0095432
1	0x3f7b7fc0	0.98241806
2	0x3f7e368e	0.99301994
3	0x3f7be1aa	0.9839121
4	0x3f8272f1	1.0191327
5	0x3f7ed0fb	0.9953763
6	0x3f850e8d	1.0395066
7	0x3f7c0eb7	0.98459953

attention.norm.bias f4 [8]
0	0x3cdbfd59	0.026854204
1	0x3c935aff	0.017987726
2	0xbcddfe33	-0.02709875
3	0x3cde2ede	0.027121957
4	0x3ce10f64	0.02747316
5	0x3cdddd99	0.027083205
6	0x3ce4996b	0.027905187
7	0x3cfba444	0.030717976

regressor.weight f4 [1, 8]
0	0xbe2bb620	-0.16768694
1	0x3c8db65a	0.017298866
2	0x3e83691e	0.25666136
3	0xbe8f5fdd	-0.28002825
4	0xbe54dfbf	-0.20788477
5	0xbe815b4a	-0.2526496
6	0xbd7a64a9	-0.061131153
7	0x3bfc0422	0.0076909224
