esame/models_100epochs/experiment_1_ws4.pth (torch, 3393 bytes, 5 tensors)

lstm.clayer_in.weight f4 [4, 9]
-0.14743505 -0.0038746947 0.07868755 -0.06525269 -0.11532955 0.124383755 -0.15612143 -0.13590254
0.26042318 0.0029624104 0.34795502 0.35829508 0.056514226 0.0043870406 0.031229246 -0.024781007
-0.068257704 -0.034791403 0.18477915 0.38637313 0.030973034 -0.19140367 -0.21786681 -0.22776283
0.120023884 0.15604445 0.17491876 0.17004342 -0.115092784 -0.038005315 -0.18649644 -0.0061809355
-0.097635835 -0.40035793 -0.010149356 -0.36455503
00000000: 37f9 16be 97ee 7dbb f026 a13d 34a3 85bd
00000010: e631 ecbd e9bc fe3d 4cde 1fbe 092a 0bbe
00000020: 3056 853e 0025 423b 2927 b23e 7472 b73e
00000030: 767b 673d 2ac1 8f3b 7ad4 ff3c 8a01 cbbc
00000040: b2ca 8bbd 6e81 0ebd bf36 3d3e b3d2 c53e
00000050: 29bb fd3c 53ff 43be 7a18 5fbe a93a 69be
00000060: 15cf f53d 1eca 1f3e e71d 333e dd1f 2e3e
00000070: c4b5 ebbd 76ab 1bbd ecf8 3ebe 7289 cabb
00000080: 4cf5 c7bd b7fb ccbe 7c49 26bc f5a6 babe

lstm.clayer_in.bias f4 [4]
-0.13225947 -0.32100436 0.23012722 -0.44242334
00000000: 076f 07be af5a a4be 78a6 6b3e 5085 e2be

lstm.clayer_out.weight f4 [4, 4]
-0.3374286 -0.1517026 -0.35698125 -0.5548658 -0.38707364 -0.5909285 -0.38569435 0.29343015
0.30817297 -0.26185748 -0.25054622 0.38390267 -0.31756207 -0.31126642 0.23645946 -0.357653
00000000: 71c3 acbe ed57 1bbe 3fc6 b6be af0b 0ebf
00000010: 842e c6be 1747 17bf bb79 c5be 7a3c 963e
00000020: d9c8 9d3e 2f12 86be 9847 80be e48e c43e
00000030: 7f97 a2be 505e 9fbe 6e22 723e 4b1e b7be

lstm.clayer_out.bias f4 [4]
0.17257103 0.36433795 -0.021056699 0.06315495
00000000: 76b6 303e 818a ba3e 197f acbc 6257 813d

linear.weight f4 [1, 4]
-0.25049108 0.0891763 0.13430278 0.052210003
00000000: 5e40 80be 10a2 b63d ab86 093e 28da 553d
