esame/models_100epochs/experiment_13_ws16.pth (torch, 3417 bytes, 5 tensors)

lstm.clayer_in.weight f4 [4, 9]
000000 16 f2 93 bd 07 39 ac bd df e9 14 be 6f 1e 1a be
       -0.072239086 -0.084093146 -0.1454234 -0.15050672
000010 af c0 bd 3e b5 5e e8 3d 10 76 8e 3e 08 e9 13 bd
       0.37061068 0.11346189 0.2782445 -0.036110908
000020 25 4b ae 3d 98 f8 89 be 1c fe 1a bd fa a1 8f 3d
       0.085104264 -0.26947474 -0.037839994 0.070133165
000030 70 77 07 be cc dd 9c 3e f4 63 b1 3d e6 3a 28 3e
       -0.13229156 0.30637968 0.08661643 0.16428718
000040 40 9d ac 3e c9 58 07 3e dc 5a ce bd 6d d6 a2 3d
       0.33713722 0.13217463 -0.10075924 0.07951055
000050 5d d6 54 3e e4 98 6e be 52 0a 02 be de 48 92 3d
       0.20784898 -0.2330051 -0.1269925 0.071428046
000060 87 25 16 be ca e1 b8 be cc 39 90 be 7e 22 94 be
       -0.14662753 -0.36109763 -0.28169096 -0.28932565
000070 bc d7 88 3c 14 c4 88 3d cb 5a b9 3d 2c c6 a6 be
       0.016704433 0.06678024 0.090505205 -0.32573068
000080 6e f5 b4 bd 16 18 01 3b 79 7e 7d be 57 9c ef ba
       -0.088358745 0.0019698194 -0.24755277 -0.0018280846

lstm.clayer_in.bias f4 [4]
000000 f1 c7 f7 bb c1 ce d0 3d 4e a3 19 3e a8 6d 19 3d
       -0.0075616767 0.10195685 0.15003702 0.037458092

lstm.clayer_out.weight f4 [4, 4]
000000 ea 44 c3 be 52 27 4d 3d 74 61 2f be 17 82 dd bd
       -0.38138515 0.050086327 -0.17127019 -0.10815828
000010 42 96 69 be 03 98 d5 3e 78 3e 71 be 8f 50 a5 be
       -0.22811225 0.41717538 -0.23558986 -0.32288024
000020 00 d3 8a 3e 2c 35 67 3d 7a bb bc 3c ef 97 1d 3d
       0.27114105 0.056447193 0.023038615 0.038474973
000030 8a c8 01 3f 20 22 71 be a0 d9 a6 be e2 f3 f5 be
       0.50696623 -0.23548174 -0.3258791 -0.4803763

lstm.clayer_out.bias f4 [4]
000000 64 9e 85 3d ff df 03 3e 64 7a ad 3d f1 94 b5 be
       0.06524351 0.12878416 0.0847061 -0.35465196

linear.weight f4 [1, 4]
000000 5e 3a ac be 4a 57 90 be 53 22 dd 3e 66 8b c5 3c
       -0.3363828 -0.28191596 0.4319025 0.024114322
