esame/models_100epochs/experiment_12_ws4.pth (torch, 6259 bytes, 11 tensors)

q_lstm.clayer_in.weight f4 [4, 5]
000000 2f c9 8e be 15 fe cb be 44 38 6f 3e db ac a0 be
       -0.27887866 -0.39842287 0.23361307 -0.31381878
000010 cd 93 40 be 32 fb 5a 3e df 13 b4 3e f1 ef cb bc
       -0.18806382 0.21384886 0.3517141 -0.024894686
000020 67 4c be be d3 30 47 3e a7 91 c2 3e 21 25 73 be
       -0.37167665 0.19452219 0.3800175 -0.23744632
000030 24 c9 a1 bd c2 57 c7 be b1 04 2a be f3 41 ab 3d
       -0.07899693 -0.3893414 -0.16603352 0.08362188
000040 96 85 9b 3e 69 7f fe 3d bd 04 fa be 9a 8d 33 bd
       0.30375355 0.12426645 -0.4883174 -0.043836214

q_lstm.clayer_in.bias f4 [4]
000000 9f 2d ee 3d 80 d0 87 bd 03 5c 97 bd 2a 45 29 be
       0.11629795 -0.06631565 -0.07390597 -0.1653029

q_lstm.clayer_out.weight f4 [4, 4]
000000 bf db 8e be 0b 1a ee be a0 c8 02 be a8 47 b8 be
       -0.27902028 -0.46504244 -0.12771845 -0.3599217
000010 96 a9 05 3d c5 2d a4 3d 58 6c ef bd 40 73 87 3e
       0.032632433 0.08016542 -0.11690587 0.26455116
000020 2b f0 85 3e b6 a3 bf be de 8a ad be 93 6c 77 3e
       0.26159796 -0.3742959 -0.3389501 0.24162512
000030 55 80 75 be 0d d9 da 3c 54 be 4c be 43 30 0f 3e
       -0.23974736 0.026714826 -0.1999448 0.13983254

q_lstm.clayer_out.bias f4 [4]
000000 2f 55 ab be 33 e4 01 3d 11 01 06 be a8 0f 8e be
       -0.33463427 0.03171177 -0.13086344 -0.2774632

attention.mha.in_proj_weight f4 [24, 8]
000000 e1 d3 90 be 8e 56 42 be d9 c4 7d 3c b8 c0 d0 be
       -0.2828665 -0.1897833 0.015488827 -0.40772033
000010 30 d9 50 be 4e c6 5a 3e 50 80 c7 3e 6e 39 80 bc
       -0.2039535 0.2136471 0.38965082 -0.015652385
000020 1c 54 9a be f8 0f 76 bd eb 6a b2 3e b4 5d ef 3e
       -0.30142295 -0.060073823 0.34847197 0.46751177
000030 6a f6 9e bd 74 3b 77 3e 9a 36 f4 be 98 bd fd 3e
       -0.077618435 0.24143773 -0.47697908 0.4955871
000040 d0 ea ce be 38 83 32 be fc bb 41 3e d7 62 62 be
       -0.40413523 -0.17432868 0.18919367 -0.22108017
000050 41 99 c9 3e 88 ea 52 be 0d 09 e9 3e df fd 03 3f
       0.39374736 -0.20597279 0.45514718 0.5155925
000060 5b 4f ed 3a 9e a7 ee 3e a4 94 de be ed 06 66 be
       0.0018105315 0.46612257 -0.4347278 -0.2246358
000070 6e c3 86 3e 32 96 4d 3e e9 d5 fe bd ed 37 8e 3e
       0.26320976 0.20076826 -0.12443144 0.27777043
000080 99 97 51 be 0d 18 3b be f5 a9 cd 3c 98 19 d0 be
       -0.20467986 -0.18270893 0.025105456 -0.40644526
000090 ab 4a a0 be 79 47 5b 3d d0 19 78 3e 01 87 8b 3e
       -0.31306967 0.05353496 0.24228597 0.27251437
0000a0 5b a1 a3 bd 8a 30 9f be 04 3e c0 be 11 d1 c8 3e
       -0.079897605 -0.3109172 -0.37547314 0.39222005
0000b0 5b 96 a0 be b5 3e 48 3e e1 6e da 3e f3 a5 d8 3e
       -0.31364712 0.19555171 0.4266272 0.4231411
0000c0 a3 1e cb be 02 98 c1 bc b2 ee ee be 44 f4 16 3e
       -0.3967181 -0.023632053 -0.46666485 0.14741617
0000d0 65 ab 99 be cf 23 c6 be ac f1 5e be 5f 54 88 3e
       -0.30013576 -0.38699195 -0.21771878 0.2662687
0000e0 fe 06 cd 3e bd 3a 2d 3e 13 30 e5 3e 94 a8 a6 bd
       0.40044397 0.16916938 0.4476324 -0.081376225
0000f0 a5 7a b9 be 79 35 b6 be 1a 38 ad 3c 26 83 91 3d
       -0.36226383 -0.3558767 0.021144915 0.07105093
000100 74 c3 0e bd bf fd 71 be 1f 28 a4 bd 1b 46 b5 be
       -0.034854367 -0.23631953 -0.08015465 -0.3540505
000110 a0 1a c4 bb 9d 01 ea 3c 1e fe c4 bb 9c 50 e6 be
       -0.0059846193 0.028565222 -0.0060117384 -0.44983375
000120 1b f2 fc 3e 9d ce 96 be 44 bc 82 3e 7f 88 d8 3e
       0.49403462 -0.29454508 0.2553426 0.42291638
000130 60 29 46 3e 78 e7 57 3e 8c 17 ad 3e 5c c9 e4 3e
       0.19351721 0.21084392 0.33807027 0.44684875
000140 01 36 f9 bc 86 a5 c7 3e 69 da 9c be 68 c7 b5 be
       -0.030421259 0.38993472 -0.30635384 -0.35503697
000150 b2 30 89 3e f4 25 e0 3d e0 75 92 3d e4 cd fd be
       0.26794964 0.10944739 0.07151389 -0.49571145
000160 be f8 4c 3d f0 cc bf 3e 84 ed 0c be 71 71 f9 3b
       0.050041907 0.37461042 -0.1376248 0.0076124
000170 b2 90 25 3e e1 63 e3 be af ef a9 3c 05 76 99 be
       0.16168478 -0.4441214 0.020744173 -0.29972854
000180 a4 39 99 be 90 a6 a3 3e d9 d0 b4 3e fe d4 d9 bb
       -0.2992679 0.31963015 0.35315588 -0.006647705
000190 ad e3 c2 3e 3f 89 73 be 1b 02 33 3e e2 d6 87 bc
       0.38064328 -0.23782824 0.17481272 -0.016581956
0001a0 f0 09 bf be f3 cc 33 3e 35 de 17 3d 62 65 02 be
       -0.3731227 0.1755865 0.037077148 -0.12733987
0001b0 57 ca 99 3e 8a 64 9e 3e 12 fe f9 3e d9 35 b2 3c
       0.30037186 0.3093608 0.48826653 0.021754192
0001c0 27 b5 ea 3d 96 7f c9 bd 48 4f 1e 3e b2 54 39 be
       0.11460333 -0.09838788 0.15459931 -0.18098715
0001d0 38 ea 10 3d cb 77 ea be b5 de ba be 42 8d 84 be
       0.03537962 -0.4579452 -0.36498037 -0.2588902
0001e0 14 f4 de 3e 71 e3 b4 be 7f 8d 9b 3d c8 2d 25 3e
       0.43545592 -0.35329774 0.075953476 0.16130745
0001f0 44 62 f6 3e e8 31 05 3e 16 c2 bc be c8 63 0e 3f
       0.48121846 0.13007319 -0.36866826 0.55621004
000200 59 46 00 bf 59 85 2b 3e 20 37 9f 3e 65 e7 90 3e
       -0.5010734 0.16750087 0.31096745 0.2830154
000210 a7 da 98 bc e2 fa 60 be e8 b2 82 3e ed 58 d6 3e
       -0.018658949 -0.21970704 0.2552712 0.4186472
000220 04 bf 3e be 66 10 f5 bd 65 87 60 be 4d 6c 56 3e
       -0.18627554 -0.119660184 -0.21926649 0.20939751
000230 19 1d ea 3c 0b 03 7a 3e 5f 02 4e be 87 ef ea be
       0.028578328 0.24415223 -0.20118092 -0.4588587
000240 a8 d1 00 be aa 86 d4 be 0e e4 52 bd 0e 1f 5b 3e
       -0.12579978 -0.4150899 -0.05148702 0.21398565
000250 00 39 d8 be 54 0b 0f bd b8 c3 f3 be 61 24 b8 be
       -0.42230988 -0.034922913 -0.4761026 -0.35965255
000260 57 71 8d be 26 5c 36 be 7c 13 46 be 14 64 bf 3d
       -0.27625534 -0.1780859 -0.1934337 0.0934526
000270 3d 54 86 3e 81 f7 7f 3e 58 bf d8 3d 89 23 fd bc
       0.26236144 0.24996759 0.10583371 -0.030900734
000280 43 31 f9 bd e9 59 b3 3e 49 ec 94 be 78 38 89 3e
       -0.12167599 0.35029534 -0.2908652 0.26800895
000290 ba 6e b8 be 05 bb ae be e9 98 26 3e 53 06 0a be
       -0.36021978 -0.3412706 0.16269268 -0.13478975
0002a0 57 5d 7b 3d ff 73 c4 3e 03 ea 32 3e 64 37 cf 3e
       0.061368313 0.38369748 0.17472081 0.40471947
0002b0 5c 9e 0d be 61 0a 86 be 64 3a fd bc be 81 97 bd
       -0.1382994 -0.26179793 -0.030911632 -0.07397793
0002c0 63 dc 0e be 5e f1 c8 bd 24 7a e0 3e f2 72 3e be
       -0.13951258 -0.09811662 0.43843186 -0.18598536
0002d0 50 c7 3d 3e 98 db 32 3e 66 07 4d 3e 0b 55 91 3d
       0.18533063 0.17466581 0.20022354 0.07096299
0002e0 eb ed 78 be 68 3f 91 3e 5e 83 8f be ca fd b2 be
       -0.24309509 0.28368688 -0.28029913 -0.3495925
0002f0 2a 37 f5 3e 9d 7e d6 3e b1 28 77 be 68 ec db 3e
       0.4789365 0.41893473 -0.24136616 0.429538

attention.mha.in_proj_bias f4 [24]
000000 71 af fd 3d 22 23 05 be 58 41 ff 3d 5b 59 05 3e
       0.123869784 -0.13001683 0.12463635 0.13022368
000010 06 84 83 3d 08 13 c3 3c 30 df fe 3d 44 bb f4 bd
       0.06421666 0.023812786 0.124449134 -0.119497806
000020 de 31 88 34 0e 7e b3 33 cc cd e8 34 9f ed a6 b4
       2.5368257e-07 8.358266e-08 4.3363104e-07 -3.1092802e-07
000030 5e 59 c1 34 b6 42 2c 35 a4 be d8 b4 dc 1c b5 33
       3.6014075e-07 6.417207e-07 -4.0371845e-07 8.433719e-08
000040 c4 63 b7 3d a2 e3 36 bd d5 e1 63 bd 47 d9 d4 bc
       0.08954576 -0.04465068 -0.055635292 -0.025982512
000050 28 34 36 3d 9c e8 a8 3c 97 24 4d bd 29 2e a7 3d
       0.044483334 0.02061873 -0.050083723 0.08163101

attention.mha.out_proj.weight f4 [8, 8]
000000 ac 31 6d be b6 a3 0a 3e d0 2b 91 3e c1 ea 6d bd
       -0.2316348 0.13539013 0.2835374 -0.058085207
000010 cf 8a 3a 3d 98 6c ac 3e 1d 1e 73 3e a6 d3 e4 bd
       0.045542534 0.336766 0.23741956 -0.11173181
000020 70 88 b9 be e6 2a 1d 3e ad a2 32 3e c7 4d af be
       -0.36236906 0.15348396 0.17444868 -0.34239027
000030 ac f7 82 be 8d c3 c0 3d fa 7e 92 3e db 8e c8 be
       -0.25579584 0.09412298 0.286125 -0.3917149
000040 e7 68 ff bd 80 cd 2d be a0 ee ba be de 60 29 be
       -0.124711804 -0.16972923 -0.3651018 -0.16540858
000050 70 68 66 3e ac 1d 65 3e ba b9 57 be 04 f4 81 3d
       0.22500777 0.223746 -0.21066943 0.063453704
000060 9e 47 ae be 5f 5b 4b 3e 35 d4 3d be 51 5a 6f be
       -0.34039015 0.19859074 -0.18537982 -0.23374297
000070 c3 92 e1 bd a3 af cc 3d 38 de 3d 3e 57 28 54 be
       -0.11014321 0.099944375 0.18541801 -0.20718513
000080 14 e7 3b 3d d2 6e 99 3e 35 81 89 3c 91 0d a5 bc
       0.04587467 0.29967362 0.016785244 -0.02014807
000090 90 42 cc 3c 3b 65 19 3d aa 24 27 3e 93 87 77 3e
       0.024934083 0.037450057 0.1632258 0.24172811
0000a0 4a 72 17 be 31 3a 97 3e db 49 1a 3e e7 4a 12 3a
       -0.14789692 0.29536584 0.15067236 0.00055806193
0000b0 c4 6c 7f 3e cb ff f3 bc f5 f9 8c 3e 72 43 7c be
       0.24943835 -0.029785058 0.27534452 -0.24635103
0000c0 b6 5b ca 3e 48 21 81 3e 0c 5c a6 be 68 fb 91 be
       0.39523095 0.25220704 -0.324921 -0.2851212
0000d0 9a ce 47 bd 08 2f 83 be f7 e8 08 3e 5f 09 1a 3e
       -0.048781015 -0.2562182 0.13370119 0.15042637
0000e0 b4 cf a3 bd cd b4 91 3e 5e bf 5f 3d 24 0c 15 be
       -0.079986006 0.28458253 0.05462586 -0.14555413
0000f0 a5 4e 82 be ef f5 1a 3e ab ec bf be 20 ce 26 bd
       -0.25450626 0.15132879 -0.3748525 -0.04072392

attention.mha.out_proj.bias f4 [8]
000000 62 2e 55 bd 93 95 89 bd df a5 3c 3d 39 c5 49 bd
       -0.052046187 -0.06717982 0.046056625 -0.04926035
000010 6e 98 87 bc 09 e4 25 3d af fc c4 3d 28 f5 d0 bc
       -0.016552176 0.040500674 0.09618508 -0.025507525

attention.norm.weight f4 [8]
000000 1b 15 74 3f 24 87 72 3f e7 1b 74 3f e5 f4 89 3f
       0.95344704 0.9473746 0.95355076 1.0777861
000010 6c 91 73 3f a4 19 73 3f 2b db 74 3f 82 e4 71 3f
       0.9514377 0.94961 0.95646924 0.944893

attention.norm.bias f4 [8]
000000 56 cf 2a 3d a6 8c 30 3d df e4 44 3d 1e e0 7c bd
       0.041701637 0.043102883 0.04806983 -0.061737172
000010 a5 b9 37 bd f8 0e 41 3d fc a4 32 bd 9f ce 2f bd
       -0.04485478 0.047133416 -0.043614373 -0.04292166

regressor.weight f4 [1, 8]
000000 de 0e 99 3c ab c4 fb 3c 91 04 97 3e 21 fa a8 bd
       0.018683847 0.030733427 0.2949567 -0.08250833
000010 54 11 75 bd a1 c0 2e 3e d9 5e 38 bd d6 bc 69 bc
       -0.05983098 0.1706567 -0.04501233 -0.014266213
