esame/models_100epochs/experiment_3_ws16.pth (torch, 3405 bytes, 5 tensors)

lstm.clayer_in.weight f4 [4, 9]
0	0x3e91623c	0.2839526
1	0xbe2f8532	-0.17140654
2	0x3e173e02	0.14769748
3	0xbe0da030	-0.13830638
4	0xbd112775	-0.03543802
5	0x3bce606e	0.0062981164
6	0xbda24a37	-0.079243116
7	0xbe75559a	-0.23958436
8	0xbe9e17aa	-0.3087743
9	0xbe7a5dd3	-0.24449854
10	0xbd6d2f12	-0.057906218
11	0x3e95e0a4	0.2927295
12	0x3e9ebf7b	0.31005463
13	0xbd4d8d3a	-0.050183512
14	0x3ec9f195	0.39442125
15	0xbe3b0b72	-0.18266085
16	0xbdf54bf4	-0.119773775
17	0x3e6927fa	0.22769156
18	0xbe773bb1	-0.24143864
19	0x3eac3e3a	0.33641225
20	0x3cbcf573	0.023066258
21	0xbdf65999	-0.12028808
22	0x3e91b77e	0.28460306
23	0x3e17d304	0.1482659
24	0x3e5bae28	0.21453154
25	0x3e4308be	0.19046304
26	0xbd818688	-0.06324488
27	0x3e78ddba	0.24303332
28	0xbd2aca64	-0.04169692
29	0x3deb9cb1	0.11504496
30	0x3e612f27	0.21990643
31	0xbecb7ede	-0.3974523
32	0xbe000233	-0.12500839
33	0x3ed08863	0.40729055
34	0xbe0b2a1f	-0.13590287
35	0x3e6ac69d	0.22927327

lstm.clayer_in.bias f4 [4]
0	0x3e1ba2c8	0.15198815
1	0xbe3e5978	-0.18588817
2	0xbd823323	-0.0635741
3	0x3d9ac9ba	0.075580075

lstm.clayer_out.weight f4 [4, 4]
0	0x3b2a3e76	0.002597717
1	0x3ea8a756	0.32940167
2	0x3c8ead2f	0.017416565
3	0x3ebe1247	0.3712332
4	0x3eaf0f3a	0.34191304
5	0x3f03da31	0.5150481
6	0xbe0daa23	-0.13834433
7	0xbf033391	-0.5125056
8	0xbeeb36d1	-0.4594026
9	0xbf14415e	-0.5791224
10	0x3e2d6588	0.16933262
11	0xbf022230	-0.50833416
12	0xbe809913	-0.25116786
13	0x3e272695	0.16323312
14	0x3f0c9b8e	0.5492486
15	0xbe68e34f	-0.22742961

lstm.clayer_out.bias f4 [4]
0	0x3ee4d1b9	0.44691256
1	0x3db5da49	0.08879525
2	0x3ca4e224	0.020127364
3	0x3d27713e	0.04087948

linear.weight f4 [1, 4]
0	0xbe2b99d0	-0.16757894
1	0x3e6cc516	0.23122057
2	0xbdc4782b	-0.09593233
3	0xbeb97f0a	-0.36229736
